python_scripts/forward_autograd/q_m_XNOR.pth (torch, 13791 bytes, 6 tensors)

fc1.weight f4 [32, 8]
00000000: 7437 a1bf ff53 8b3f cf87 163f 0901 683f
00000010: fa40 ec3f ea0a df3e 2ffb 673f 176f 823f
00000020: 3ab1 613d 94ff 063e 5ca1 8fbe 3783 6dbe
00000030: ead5 1cbd 30b9 e9bd 8a29 aebe d3ec d9bd
00000040: e506 b5bf 8b08 b5bf fd06 b53f e307 b5bf
00000050: 6d51 8b3f bb51 8bbf 4f8e 3d3f 5d8d 3d3f
00000060: f799 c2bf 985e b6bf 1240 b73f 1713 b83f
00000070: 990e a53f 0276 a43f 7c2a a63f c732 f5bd
00000080: 4675 a2bf 335f 523f 8b54 2ebf 9f50 be3f
00000090: 16f8 b93f 2991 df3f 2e12 f0bd e04e 7d3d
000000a0: 2877 7abf 5682 ac3f 3a7f bd3f cb97 b7bf
000000b0: 164b c03f e65b c9be 1edc 1d3e aad1 1d3e
000000c0: c43e bc3f b160 61bf c8ad 363f 8858 b9bf
000000d0: d199 db3f 074f ee3f fcd6 f23f 544f aebe
000000e0: b73f c6bf 138e ddbe f4d5 e33f 7c06 cf3f
000000f0: ad44 963f 58cf aabf ab4f 983f 00b0 e93e
00000100: c014 c4bf 8612 ac3f e0b4 c93f f1ae bb3f
00000110: c135 993f 2cfe a33f 4e1d 173e 41ea 923d
00000120: 3c92 a83f d5b9 ad3f 92d1 df3f cbb9 adbf
00000130: 080a a9bf 6efb dd3f b2ac a9bf 5d9c a03f
00000140: 3714 96bf 5dd1 aa3f 9dc1 aa3f 13d2 aabf
00000150: 38d3 aa3f 6b6d a5bf c39f a43f b7a0 a43f
00000160: e5f7 9e3f e868 99bf 9958 043f 6b0c 803f
00000170: 8432 be3f beca 0840 4635 b63f 02b7 84bf
00000180: 996c a63f a6e6 be3f b41d ec3f 5e0c c43f
00000190: 239d 7dbf 99c5 79bf 2c52 68bf c65d a03e
000001a0: 4f00 a93f 5086 8c3f 76ce d93f 8cd0 313f
000001b0: e261 78be 66a2 48bf a8c0 bcbe ba69 d73f
000001c0: 83d8 a93f 07e0 aa3f 8827 c5bf 7317 a13f
000001d0: 3a42 ab3f b755 e03f db20 d9bd 48e2 b2be
000001e0: adfa 96be 6201 a23f 8e1b 62bf 6c66 f43f
000001f0: 6649 02bf e7ea 2cbf 36c4 203e e542 5e3e
00000200: c04f 9fbf c60e a53f b493 a53f eca8 a4bf
00000210: 4824 a43f 7a23 a43f bf38 a3bf cf7b e73e
00000220: 17a8 b83f d95f af3f 57ed 9dbf 2d69 a8bf
00000230: 12ee 98bf cecb a83f 1ed3 4a3c e8de fd3d
00000240: 241a b83f 182a bcbf c704 c83f 6d25 f53f
00000250: f38c 04be d04c f9bc 996d 6cbc 8d86 063d
00000260: 483d b53f 81fc b7bf 15ad c23f 61ef bf3f
00000270: d45c c4bf 8dfc d83f ab8d b3bf d194 163f
00000280: d6bc 933f ceb4 91bf 2911 dc3f 51b9 b53f
00000290: 8c6e 953f 4fed 26bf cd84 2d3f f24a 1f3d
000002a0: f908 7abf f3eb aa3f 9aeb 0bbf 45e9 46bf
000002b0: 237d c93f 5ce5 8bbf 6eb5 fd3f 1194 513f
000002c0: d817 b43f 122c b33f 477f aabf e82a b33f
000002d0: 502d b3bf de3d 183f 27e4 06bf 49eb 12bf
000002e0: 3e2e 8f3f 0e8f 95bf 6551 a9bf 8d20 843f
000002f0: e8b7 7a3f f88b a93f 3afd 7b3f 5c09 31bf
00000300: 67ba 9fbf 3499 94bf 5aa5 9fbf 37de a13f
00000310: fafe 9c3f d2bd 8cbf 300f 0d3f b7a3 f3be
00000320: 2169 223e 613e f7bf 04b0 8abe 3329 b63f
00000330: 0f44 5fbe 414e 0c3f c45f c9bc 60c0 033f
00000340: 4a7e afbf d962 aabf a6a6 b3bf 1278 b13f
00000350: b040 523d 8d40 523d 2811 8cbd df23 9a3c
00000360: e966 a63f d6d9 7ebf 5dc5 9fbf 6c8d ab3f
00000370: 3708 84bf a4a7 c53f 9566 a63f 432d 89bf
00000380: e6e9 bf3f 5155 9d3f e5a0 cebf 7734 bebf
00000390: 7234 be3f bd7d bc3f 9b7d bc3f 789f 9bbf
000003a0: 4ac4 c6bf c4e3 7a3f b3a6 c23f 6ef4 af3f
000003b0: 23f4 afbf dc4d 7a3f 3efa ddbe 8cd0 dc3e
000003c0: ec93 9cbf b571 bcbf c504 9fbf 4a7f 9c3f
000003d0: 4e0e 9abf c402 ba3f 9f28 9cbc bcae 3c3a
000003e0: 8765 a3bf eedb ad3f 3fb1 abbf e91f b23f
000003f0: bad3 a93f 41d2 a93f 8fd2 a9bf a7cd 183d
-1.2595048 1.0885009 0.5880098 0.9062658 1.8457329 0.43563014 0.9061765 1.0190152
0.055100657 0.13183433 -0.28052795 -0.23194586 -0.03828994 -0.11412275 -0.34016067 -0.10640874
-1.4142729 -1.4143232 1.4142758 -1.4143032 1.0884224 -1.0884317 0.7404527 0.7404383
-1.5203236 -1.4247618 1.4316428 1.4380826 1.289508 1.2848513 1.2981715 -0.11972576
-1.2692039 0.8217651 -0.6809775 1.4868354 1.4528835 1.7466174 -0.117222175 0.0618428
-0.9783807 1.3477275 1.4804451 -1.4343199 1.5022914 -0.39327925 0.15416 0.15412012
1.4706655 -0.88038164 0.7135892 -1.4480143 1.7156316 1.8617867 1.8971858 -0.34044898
-1.5488194 -0.43272457 1.7799668 1.6173854 1.1739708 -1.3344526 1.1899313 0.4564209
-1.5318832 1.3443153 1.5758324 1.4662763 1.1969529 1.2811942 0.14757273 0.07173587
1.3169627 1.3572336 1.7485831 -1.3572325 -1.3206186 1.7342355 -1.3255827 1.2547718
-1.1724919 1.3345143 1.3340336 -1.334536 1.3345709 -1.2924017 1.2861255 1.2861546
1.2419401 -1.198514 0.5169769 1.000379 1.4859166 2.1373744 1.4235008 -1.036835
1.3001891 1.4914138 1.8446565 1.5316274 -0.99067897 -0.97567135 -0.90750384 0.31321543
1.3203219 1.0978489 1.7016132 0.6945884 -0.2425609 -0.783728 -0.36865735 1.682914
1.3269199 1.3349618 -1.5402689 1.2585281 1.3379586 1.7526158 -0.1060197 -0.34938264
-0.29488125 1.2656672 -0.88323295 1.9093757 -0.5089325 -0.6754593 0.15699849 0.21705206
-1.2446213 1.2895133 1.29357 -1.2864051 1.2823572 1.2823327 -1.2751693 0.45211646
1.4426297 1.3701125 -1.2338055 -1.3157097 -1.1947653 1.3187196 0.012379436 0.123960316
1.4382977 -1.4700346 1.5626458 1.9152046 -0.12944393 -0.030432135 -0.014430427 0.03284316
1.4159327 -1.4373933 1.520907 1.4994928 -1.5340829 1.6952072 -1.4027609 0.58820826
1.1542003 -1.1383302 1.7192737 1.4197179 1.1674361 -0.65205854 0.6778076 0.038889833
-0.9766994 1.3353256 -0.54656374 -0.7769969 1.5741314 -1.092937 1.9820993 0.81866556
1.4069777 1.3997824 -1.3320092 1.3997469 -1.3998203 0.594694 -0.5269188 -0.57390267
1.1185987 -1.1684282 -1.3227965 1.0322434 0.9793687 1.324584 0.9843327 -0.69154906
-1.247876 -1.1609254 -1.2472336 1.264594 1.2265313 -1.0995429 0.551013 -0.47585842
0.15860416 -1.9315912 -0.27087414 1.4231323 -0.21803306 0.54806906 -0.024581797 0.51465416
-1.3710415 -1.3311416 -1.4035232 1.3864768 0.051331222 0.05133109 -0.0683921 0.018815933
1.3000156 -0.9955114 -1.2482105 1.3402534 -1.0315007 1.5441785 1.3000056 -1.0716938
1.4993255 1.2291662 -1.6142851 -1.4859761 1.4859755 1.4725872 1.4725832 -1.2158041
-1.5528653 0.9800379 1.5207123 1.3746469 -1.374638 0.97775054 -0.43354982 0.4312786
-1.2232642 -1.4722201 -1.242333 1.2226346 -1.2035615 1.4532094 -0.019062338 0.00071976683
-1.2765359 1.3582742 -1.3413466 1.3915988 1.3267739 1.3267289 -1.3267382 0.0373055

fc1.bias f4 [32]
00000000: 6b96 a8bd 168b 59be a080 2c3f 4709 af3e
00000010: 9f0b c1bc cd24 933f 9c91 863f 3531 b13e
00000020: 1c17 94bf 7a24 aa3f 00e1 963f 6275 2e3f
00000030: 672c f33e a617 993e e598 4dbf 4dde ec3f
00000040: c4d6 37bd 2819 873f f06b e33d 4964 593f
00000050: a449 eebc 5bdc ac3f b6f5 f33f e6b6 cd3d
00000060: 6dd6 883f bb9a c23f edff a53f 6dd9 2c3f
00000070: 306a 033e f038 133f 28ec 9e3f d465 a33f
-0.08231815 -0.21244463 0.67383766 0.34186766 -0.023565112 1.1495606 1.0513186 0.34607854
-1.1569552 1.3292382 1.1787415 0.6814786 0.47494814 0.29900855 -0.80311424 1.8505341
-0.04488255 1.0554552 0.11104572 0.8491865 -0.029087849 1.3504747 1.905936 0.10044651
1.0690438 1.520347 1.2968727 0.67519265 0.12833476 0.57508755 1.2415819 1.276545

fc2.weight f4 [64, 32]
00000000: 3198 d93e 88cc 0bbe 13ed b43f 5a09 87be
00000010: 1c20 b43e f4b0 c43e 3eee 483d 9413 9bbe
00000020: 1ca8 c63e 7e85 4ebf c8fc 513f e6d5 4dbf
00000030: 7149 21bf 24c6 5fbf 7089 343f 173d 8a3f
00000040: fe13 733f 114d 1e3f e93e 98bf e837 29c0
00000050: 1660 52bf 52f6 833f c7f4 b23e 71ad edbe
00000060: d88a 833f 29bb aebf 0595 563f 51f7 35bf
00000070: 4416 cf3e 95d6 00bf 8745 1e3f 7de1 8a3e
00000080: 75a9 e7be 6f1d ca3d 4807 063f ef1a 503e
00000090: af29 f8bf a10b 3a3f f732 b03f 720c 9dbe
000000a0: 66e1 98bf 1e08 a73f 3ccb 883f 2a98 e73e
000000b0: e231 113f f57b 923f 22d0 89bf d341 68bf
000000c0: 9717 7dbf 0db5 f0be 4e29 843f bd25 4b3f
000000d0: 3bb3 883f eff8 77bf 8c5e 1cbf 0206 e6bd
000000e0: dac7 fdbd c58b 0f3f 3ff3 3c3f 5fa2 993f
000000f0: b568 d2bc 7d12 ccbe e5ea 8abf bdde 9fbf
00000100: eec2 bfbe a489 38be c1af 4b3f 58b9 a23f
00000110: ecfe 7bbf cff9 2fbe b019 fd3d eb02 8b3b
00000120: 1529 1c3f efff 9d3f 07c2 083d aa89 c43e
00000130: 47b6 c63c 87ac dd3e 776f 993f c84b 07be
00000140: 478d ef3e 285c 8d3f e2d8 343f e236 d5be
00000150: 3f43 aa3e fcc9 6cbf 776b 023f 1ce4 80bf
00000160: 3a11 a83f c9ca b439 4624 6c3f 366c bb3f
00000170: 33ae c23e c878 82bf 540f bc3f 623a 61bf
00000180: b5cd 74bf d29a 073e 46d9 3abf f27d 8c3f
00000190: 1671 58bd fc3a d4bf 2903 803e 71c5 c83e
000001a0: bff2 85bf 08c2 32bf f475 debf 51a3 543f
000001b0: 48fd dfbe ef46 14bf d1b2 bd3d e052 663f
000001c0: ce73 69bf 28fc a13e e6d2 8c3e 4aa3 79bd
000001d0: 726e 073e ffa8 ee3e 9c0d 7c3f e1a1 433f
000001e0: 5c15 a7bf fa83 483f 5da7 bebe ecb6 1040
000001f0: e52a 1c3f d38f f13e 1c48 613f 4f26 31bf
00000200: 846c 4abe 4b95 ef3d 4056 06be d83b 12be
00000210: 6cba 633d a285 fbbb a765 4fbe 242a 47be
00000220: 127f 003d 1d02 3bbc eecc 25be 7024 d4bd
00000230: 440e a73d 8856 f43d ff45 263c 6ac7 2cbe
00000240: fed7 253e 6924 f2bb cbd4 bebc 0685 c8bd
00000250: 0bc4 7c3d 3771 92bd 251d 99bd 7cb8 1e3d
00000260: 96ec 473d 995c 35be bbb4 8f3c 396f 853d
00000270: 15cf ddbc 7c69 8abd 27d1 0cbe 1f1a 953d
00000280: 9610 97bf 2d3a f9bd d576 dc3e 6783 dcbe
00000290: e3b9 8abf b2af 1e3f 3eea b93d 1db9 f0bf
000002a0: 00e7 cdbf 2aa0 393f 1dc7 a93f bc63 7ebf
000002b0: 445d 813f 9c51 103f 0ba5 be3e d03f a23f
000002c0: 1d7f a13e ea2e 4e3f 207b 553e 259d edbe
000002d0: 4c01 73bf fea5 d43e 3ea8 a43f 13a1 0bbf
000002e0: a411 493f e65e b2be 9699 adbe d6c0 843f
000002f0: 32c4 063f 5ceb 15bf e855 4fbe c3ec 753e
00000300: 4f1f 9b3e 761b 35be c9fe 9bbe c898 1b3f
00000310: 117f 923f b920 2c3f b1e5 1cbf 1c78 9e3f
00000320: cf26 8c3f 65d8 f7be c752 183f e57e 03bf
00000330: 68c6 10be b27c c4be 8017 23be f677 a43e
00000340: 0f2e bb3d cef9 79bd 7c43 893f 58ef ce3e
00000350: 43cd cbbe 6c6e 353f a2a0 de3e 9e96 8dbf
00000360: d0a0 ac3d 8d86 77bd f0ed 85bf 6fbc 9fbf
00000370: 1c37 1e3f ce2b 263f 1566 62bf 1a48 043f
00000380: 0a91 503f 353d 063e 3aae 0dbe ff46 a13f
00000390: fe26 483f 7dee ca3e c24e 303f c2c4 70bf
000003a0: 3f9b 403f d9bd 783e 31f3 303f 31a5 f1be
000003b0: 596a c3bf 3048 0fbf ac2f 793f a2b4 3d3f
000003c0: 2459 723f 102c 453f c49c d5bf c5ff cfbf
000003d0: 07f6 acbf cb61 8b3f 0e7a ae3e 88a1 253f
000003e0: e853 d43d 9ea3 7fbf 3c0a 8b3e bad0 3bbf
000003f0: 0c90 3d3f a611 3fbe 748c ce3e c3f7 fb3e
0.42498925 -0.13652241 1.4134849 -0.26374322 0.35180748 0.38416255 0.04905533 -0.30288374
0.38800132 -0.8067244 0.8202634 -0.8040451 -0.6300269 -0.87411714 0.70522213 1.0799893
0.9495238 0.61836344 -1.1894199 -2.6440372 -0.82177866 1.0309546 0.34952375 -0.46421388
1.0276747 -1.3650867 0.83821136 -0.710805 0.40446675 -0.50327426 0.6182484 0.2712516
-0.45246473 0.09868895 0.5235486 0.20322774 -1.9387721 0.72673994 1.3765553 -0.30673558
-1.1943786 1.3049352 1.0687022 0.4523328 0.5671674 1.1444079 -1.0766642 -0.9072544
-0.9886412 -0.4701313 1.0325105 0.7935446 1.0679697 -0.9686422 -0.6108177 -0.11231615
-0.12391634 0.56072646 0.73808664 1.2002677 -0.025684694 -0.39857855 -1.0852934 -1.2489849
-0.37453407 -0.18021256 0.79565054 1.2712812 -0.98435855 -0.17185138 0.12358415 0.004242291
0.61000186 1.234373 0.033388164 0.3838628 0.024256838 0.4329569 1.1987141 -0.13212502
0.46787474 1.1043749 0.70643437 -0.41643435 0.3325443 -0.92495704 0.5094523 -1.0069613
1.3130257 0.00034483362 0.9224285 1.4642398 0.38023528 -1.019311 1.4692178 -0.8797971
-0.95626384 0.13242653 -0.7298778 1.0975935 -0.052842222 -1.6580501 0.2500241 0.39213136
-1.0464705 -0.6982732 -1.7379746 0.830617 -0.43747926 -0.57920736 0.09262622 0.8997021
-0.9119233 0.31637692 0.27504653 -0.06094674 0.13225725 0.4661331 0.98458266 0.7641888
-1.3053393 0.7832638 -0.37237063 2.2611647 0.6100295 0.47180042 0.88000655 -0.6919908
-0.19767958 0.11698397 -0.1311884 -0.14280641 0.055597708 -0.0076758424 -0.20253621 -0.19449669
0.031371184 -0.011414078 -0.16191456 -0.103585124 0.08157018 0.11930567 0.010148524 -0.16872945
0.16195676 -0.0073895943 -0.023294827 -0.09790997 0.0617104 -0.071505 -0.07476262 0.038750157
0.04880961 -0.17711104 0.017542234 0.06515355 -0.027076283 -0.06758401 -0.1375166 0.07280373
-1.1801937 -0.12169299 0.43059412 -0.43069002 -1.0837978 0.6198684 0.09077881 -1.8806492
-1.6086121 0.72510016 1.326389 -0.9937093 1.0106587 0.56374526 0.37235293 1.2675724
0.31542292 0.80540335 0.2084775 -0.46408954 -0.94923854 0.41532892 1.2863843 -0.54542655
0.7854254 -0.34838027 -0.3390624 1.0371349 0.5264312 -0.58562255 -0.20247614 0.24016099
0.30297324 -0.17686257 -0.30467823 0.6078 1.1445028 0.6723743 -0.6128798 1.2380404
1.0949343 -0.48407283 0.5950131 -0.513655 -0.14138186 -0.38376385 -0.15926933 0.32122773
0.09139644 -0.061029248 1.072372 0.4041698 -0.3980504 0.70871615 0.43481928 -1.106159
0.0842911 -0.060431052 -1.0463238 -1.247938 0.6180284 0.6491059 -0.88437015 0.5167252
0.8147131 0.13109286 -0.13835993 1.2599791 0.781845 0.39635077 0.68870175 -0.9405023
0.75236887 0.24291171 0.6912108 -0.47196344 -1.526683 -0.55969524 0.97338367 0.7410375
0.9466727 0.7702036 -1.6688466 -1.624993 -1.3512582 1.0889219 0.34077495 0.646996
0.10367566 -0.99859035 0.27156246 -0.73365366 0.74047923 -0.18659076 0.40341532 0.49212465

fc2.bias f4 [64]
00000000: 2581 9f3e de92 09bc ce50 d5bc 21d2 3e3e
00000010: 1168 babd 61e9 053f c563 2a3e aa73 e63e
00000020: 3bd6 26be 3b9f 17bf e9ec 8e3f 1480 403f
00000030: cdd6 903e ac69 7e3d 5033 22be 7513 d83e
00000040: db60 c53e 771c 213f 4e4d 193f 44fb fbbe
00000050: 296c b3bd 5aa8 aabe fe25 29bf a596 ab3e
00000060: f684 14be b561 cfbd f2c5 d8be a7fa 05bf
00000070: cbef f83e acd9 abbe c6c7 a23d ee9d 423e
00000080: 5261 fabc 5c79 04bf 31ba eb3e e2bc 673f
00000090: 6f60 d13e 4388 fcbe d5ce 56bd c21c 07be
000000a0: 8f18 a63e 1f99 eebd 94e0 dc3d ff63 8cbd
000000b0: d5a8 163e 9021 8a3d 4b83 993e 94e7 883f
000000c0: b0b6 14be 5b10 633e 7120 e3bb d7a0 183f
000000d0: 8274 8ebe ffe3 65bf fcd8 97be 4765 afbe
000000e0: b75b 453e c9be 78bd 6a38 52bc ab5f 20be
000000f0: b438 8bbe eb7a 813e a871 7ebe 6fd9 ebbe
0.31153217 -0.008396832 -0.026039507 0.18634845 -0.0910188 0.5230923 0.16639622 0.4501012
-0.1629266 -0.5922734 1.1166049 0.7519543 0.2828888 0.062112495 -0.15839887 0.42202345
0.38550457 0.6293406 0.5988358 -0.49215138 -0.08760864 -0.33331567 -0.66073596 0.3351337
-0.14503846 -0.10126058 -0.4233852 -0.5233559 0.48620448 -0.33564508 0.0794826 0.19005558
-0.030563984 -0.5174768 0.4604049 0.9052259 0.40893885 -0.4932271 -0.052443344 -0.13194564
0.32440612 -0.11650299 0.107850224 -0.0685501 0.14712842 0.06744683 0.2998298 1.0695672
-0.14522815 0.22174208 -0.0069313576 0.5962042 -0.27823263 -0.8980102 -0.29657733 -0.34256956
0.19273268 -0.060728822 -0.012830833 -0.15661494 -0.271917 0.2528909 -0.24848044 -0.46064326

fc3.weight f4 [8, 64]
00000000: 47e4 82be 8fe9 c33e 09c3 193e ca65 253e
00000010: 2ae6 e3bd ec05 803e 7531 2ebe 813e 8ebe
00000020: bcc7 dc3d 5b5b a4bd 322e 923e 0dff a6be
00000030: e71b 2f3e 56f8 85be 2797 93bd 8322 04bd
00000040: 6268 23be 9d5a e8be d7da 823c c27c b0be
00000050: 3893 cbbd e9d2 5bbe 8253 083e d183 94be
00000060: a74d 69bd c08d 16bd 2955 bb3e c8a0 f1bd
00000070: dafd 433e 9359 d43e c22d 4f3e 09f7 ac3e
00000080: 5dd1 77be d787 253e 47e5 90be 1c88 a1be
00000090: b8b0 73be 6030 e9bd e02a 5abd b6de 0f3d
000000a0: bb41 c73d e730 35bd 99a9 bdbe 6dba 96be
000000b0: dcb7 8d3d d9df ff3d ca3e 843e 0022 07be
000000c0: f073 9dbc ee8d a93e 8610 66be fa5c 93be
000000d0: 026c b9be a76f 063f b2fe 51bd e529 b13e
000000e0: f552 e7be c347 85be 7fc0 f43b 9f4f 3abe
000000f0: ecb3 c83e 37f4 b83e 5ca8 8dbd b63f 18be
00000100: 94fd f0be 5945 86bf b9e5 173f f1f1 81be
00000110: 4588 1e3c c2f7 ce3e 28ea 803e dcc4 aebe
00000120: bcb9 b1bd 129e 8dbf 907d 83bf fc58 d43e
00000130: cba2 19bf 1f5c 5bbf 0e41 10bf a77b bdbe
00000140: 5982 2e3f ebd7 153f 095b 83bd 89b7 143f
00000150: 382c 723d c650 e83e cc24 11bf e68a 863e
00000160: cb43 a0be 240c 7dbd a269 d4be 489b dcbe
00000170: 5023 46bf 439c 3a3f 7557 6fbf f932 05bf
00000180: 9f73 19bf 3844 fb3e 1fa3 53bf 26b6 2b3f
00000190: d272 973d c119 dbbe ae84 69bd 7bf7 84be
000001a0: dc53 c13e 577b ce3d 12c6 003f b930 4bbf
000001b0: 3b53 1e3f d361 1ebe f733 fbbe f34a b2be
000001c0: 5437 363d bbd1 8d3f 39ec 2bbf 0ca8 1a3f
000001d0: 62c0 1d3f a1e0 ae3f bc92 f6be ab89 b43e
000001e0: b36d 98be 9b19 4b3f 4d8a 81bd 0b8c 3a3f
000001f0: deb8 583f e3ae 93be a791 8fbe ca8e 32bf
00000200: b9ef 6c3f b2f0 9a3f 9e25 e13e bd58 ffbe
00000210: bc17 87bd f413 483f 6c75 633f 3aa9 97bf
00000220: 9805 db3d 71b4 643f 7ee6 fa3e c752 5abf
00000230: 18ff 893e f2b9 5f3f 21e2 5d3f a535 0f3e
00000240: 29d9 f23b 35d0 8bbf 8255 763e 8f8b 8abe
00000250: 282f 08bd 95a0 3d3f 2114 81bd 9176 583f
00000260: 537a c7be d4a8 69bd dd5b 4f3f 3ec7 ed3e
00000270: 29de d8bf b77e d5bf 4aa6 02c0 0803 a0bf
00000280: 21b6 af3f 6e19 2fbf 0091 86bf d605 043f
00000290: 139a a53e 9681 3c3f 1c87 2fbd da2c 49bf
000002a0: af0b 19bf 562f cf3d 839b a4bf 7fbe f73f
000002b0: 8dd7 bdbe 6359 4dbf ec54 b23e af74 57bf
000002c0: fc03 283d 3e29 ad3f 23dd 80bf 2f74 5fbf
000002d0: 1579 953f 9c02 a5bf e03f 2bbf 34cf c5be
000002e0: 4a1f 9bbf 2261 4abf 1cc0 c53e c895 b23f
000002f0: f1fa 763f 2317 293f 52ce 203f 6e46 77bf
00000300: ee60 923f a7ef 033f 62f3 653f 8c79 79bf
00000310: ac21 e7bd cde2 83bf 4a66 c8bf 1cb4 243f
00000320: 382d 61bd f469 0240 6c0f eebf bd1d aebf
00000330: 67ec a8bf df39 dcbf d7f0 1e3f fa4b 1abf
00000340: e017 423f 05db b2bf bae5 e6bd d11f 18bf
00000350: 3f88 b1bd 6ce3 113f b44c 693f cfa4 bfbf
00000360: 665d 56bf d07d 1dbc 19a3 cebf 267e 373f
00000370: 9f14 2ebe d09e d1bf 3fba c93f 784b 83bf
00000380: e4f1 933f a583 483f 084f 84bf 8b1d 31bf
00000390: 1968 f2be 57a0 77bf e269 36bd 981a 213f
000003a0: b756 6bbe f133 eb3d 4ce6 083f c6b3 13c0
000003b0: d17c f9bf bde3 4cbf a4f9 ec3f f766 d73e
000003c0: b464 353d d5ca ba3f acd2 b3bf 35c7 713f
000003d0: 4304 563f 7005 993f d3d7 db3d fc29 873f
000003e0: 9a29 e13f 5220 653f 53c0 333e 782a 603e
000003f0: 3137 7bbf 3baa bebf 6df8 063f c300 8fbf
-0.25564787 0.3826413 0.15015806 0.1615211 -0.11127885 0.25004518 -0.17011054 -0.27782062
0.10780284 -0.08025237 0.2855087 -0.32616463 0.17100488 -0.26166028 -0.072065644 -0.032259475
-0.15957788 -0.45381632 0.015973492 -0.34470183 -0.09940189 -0.21467175 0.13313106 -0.29006818
-0.05695882 -0.036756277 0.3658841 -0.11798245 0.19139805 0.4147459 0.20232299 0.33782223
-0.2420096 0.161651 -0.28299925 -0.31549156 -0.23797882 -0.1138618 -0.053263545 0.035124503
0.09729334 -0.04423609 -0.37043455 -0.29439107 0.06919834 0.124938674 0.25829154 -0.13196564
-0.019220322 0.33116096 -0.2246724 -0.28781873 -0.36215216 0.5251412 -0.051268287 0.34602275
-0.4518048 -0.26031312 0.0074692364 -0.18194436 0.3919977 0.3612382 -0.069168776 -0.14868054
-0.47068465 -1.0489913 0.59334904 -0.253799 0.009676044 0.404234 0.25178647 -0.34134567
-0.08678004 -1.1063864 -1.0272694 0.4147414 -0.6001403 -0.8568744 -0.56349266 -0.37008402
0.68167645 0.5853259 -0.06413848 0.5809255 0.0591242 0.45374125 -0.5669677 0.26277846
-0.31301722 -0.061779156 -0.4148684 -0.4308722 -0.7739763 0.72894686 -0.93492824 -0.52030903
-0.5994205 0.49075484 -0.8267078 0.6707481 0.07394947 -0.42793086 -0.0570113 -0.25970063
0.37759292 0.10082119 0.5030223 -0.7937122 0.6184575 -0.15467004 -0.49063084 -0.34822807
0.04448636 1.107963 -0.6715732 0.6041267 0.6162168 1.3662301 -0.48158824 0.35261282
-0.29771194 0.79335946 -0.06325207 0.7286994 0.84657085 -0.28844365 -0.2804081 -0.6974913
0.9255329 1.2104704 0.43974012 -0.4987239 -0.06596324 0.78155446 0.88851047 -1.1848519
0.10694426 0.8933783 0.49003977 -0.8528256 0.26952434 0.87393105 0.8667317 0.13985308
0.0074111414 -1.0922915 0.24056056 -0.270596 -0.033248097 0.74073154 -0.063026674 0.8455592
-0.38960513 -0.057045773 0.8099955 0.46441072 -1.6942798 -1.6679295 -2.0413995 -1.2500925
1.3727456 -0.6839818 -1.0513 0.51571405 0.32344112 0.7363523 -0.04285346 -0.78584063
-0.5978345 0.101164505 -1.2859958 1.935501 -0.37078515 -0.8021452 0.34830415 -0.8416242
0.041019425 1.3528211 -1.0067486 -0.8728666 1.1677576 -1.2891421 -0.6689434 -0.38634646
-1.2118924 -0.7905446 0.3862313 1.395196 0.96476656 0.6605093 0.6281482 -0.9659184
1.143583 0.51537555 0.898245 -0.9745109 -0.11285719 -1.0303589 -1.5656216 0.64337325
-0.054974765 2.0377169 -1.8598456 -1.3602825 -1.3197144 -1.7205161 0.6208624 -0.6027218
0.7581768 -1.397309 -0.112742856 -0.5942355 -0.08668565 0.56987643 0.91132665 -1.497217
-0.83736265 -0.009612516 -1.6143523 0.7167686 -0.17000054 -1.6376591 1.5759963 -1.0257406
1.1558194 0.78325874 -1.0336618 -0.69185704 -0.47345045 -0.96729034 -0.04453457 0.62931204
-0.22982298 0.114845164 0.53476405 -2.3078475 -1.9491216 -0.80035 1.8513684 0.42070743
0.04428549 1.459315 -1.4048667 0.9444459 0.8360025 1.1954784 0.107345246 1.0559688
1.7590821 0.8950244 0.17553835 0.218912 -0.9813109 -1.48957 0.5272282 -1.1172107

fc3.bias f4 [8]
00000000: 6357 1ebc 8181 e3be d0c2 653e 7657 1cbe
00000010: d5a2 7a3e 692f 553d f4c7 a13e 9a4a fbbd
-0.009664389 -0.4443474 0.22437596 -0.15267739 0.24476178 0.052047167 0.31597865 -0.122700885
