python_scripts/FasterForward/indicatrizD.pth (torch, 2743 bytes, 5 tensors)

linear1.weight f4 [10, 9]
0.34298125 0.004972628 0.09291691 0.113624714 0.28295147 -0.0031222848 0.060374703 0.03541846
-2.950966 -0.018847229 0.2700534 -0.09338553 -0.15252535 0.18852608 -0.30816683 0.25743252
0.004616344 -1.758505 -0.08260435 -0.21371114 0.12878133 0.12499152 0.022298144 -0.026048599
0.10514365 -0.1469657 2.3412268 0.14550442 0.21900938 -0.08783451 0.046686888 0.033926677
-0.1767941 -0.21105887 0.029212616 1.54422 -0.113357335 -0.02272874 0.24077378 -0.12575851
-0.06780243 0.22248033 0.06532181 0.08185565 -1.9149654 0.18552805 0.18508069 -0.041232508
0.37759036 0.05641051 0.19053216 0.10744315 0.28797933 -3.0712218 -0.19416472 -0.17226343
-0.22222163 -0.20115 0.023710923 -0.23647964 -0.097801305 0.019226316 2.9020724 -0.055909332
-0.046183057 0.13680643 0.09912462 0.07657972 0.15545309 0.272913 -0.02860916 -3.0145357
-0.17280647 0.05602358 0.19232564 0.0005561337 0.051760826 -0.28517723 -0.27674186 0.08583204
-1.4623675 -0.030820534 0.053567495 -0.032724448 -0.012854527 -0.21812609 -0.05744912 0.32519725
-0.067730784 1.1036494
00000000: 3d9b af3e 6df1 a23b 394b be3d 13b4 e83d
00000010: 04df 903e 3f9f 4cbb 774b 773d f212 113d
00000020: a0dc 3cc0 8165 9abc 7044 8a3e ea40 bfbd
00000030: 9b2f 1cbe fb0c 413e 0bc8 9dbe 32ce 833e
00000040: b344 973b b116 e1bf 782c a9bd 18d7 5abe
00000050: 41df 033e 8efb ff3d 99aa b63c df63 d5bc
00000060: 8e55 d73d 2d7e 16be a9d6 1540 1cff 143e
00000070: ff43 603e 94e2 b3bd c03a 3f3d b3f6 0a3d
00000080: 8309 35be d11f 58be 4c4f ef3c 00a9 c53f
00000090: e427 e8bd 9f31 babc 678d 763e d7c6 00be
000000a0: 00dc 8abd e2d1 633e 71c7 853d efa3 a73d
000000b0: 961d f5bf 11fb 3d3e cb85 3d3e 6be3 28bd
000000c0: 8653 c13e b50e 673d dd1a 433e 270b dc3d
000000d0: 0772 933e e68e 44c0 1ed3 46be d365 30be
000000e0: 118e 63be 44fa 4dbe 693d c23c b827 72be
000000f0: 0d4c c8bd 8280 9d3c 8ebb 3940 2f01 65bd
00000100: 722a 3dbd fc16 0c3e d901 cb3d d4d5 9c3d
00000110: 182f 1f3e 41bb 8b3e c25d eabc 27ee 40c0
00000120: 2ef4 30be fb78 653d 03f1 443e 80c9 113a
00000130: 2903 543d c002 92be 1cb1 8dbe b5c8 af3d
00000140: dc2e bbbf 587b fcbc 9769 5b3d 120a 06bd
00000150: cb9b 52bc 725c 5fbe c54f 6bbd 4180 a63e
00000160: 70b6 8abd 6244 8d3f

linear1.bias f4 [10]
0.6200491 0.23036474 -0.69611835 -0.062012512 0.29280642 0.46160486 -0.5086304 0.838948
0.38457224 -0.08751006
00000000: 8abb 1e3f bce4 6b3e d034 32bf d500 7ebd
00000010: b9ea 953e 7957 ec3e 9a35 02bf 4cc5 563f
00000020: a7e6 c43e 7938 b3bd

linear2.weight f4 [5, 10]
1.8625183 0.85828733 -1.8304899 -1.1301264 0.99212027 2.0122912 -2.2236574 2.129729
0.9658925 -0.85376054 -1.6939669 -0.9825951 1.2538108 0.88642305 -0.97935086 -1.5568227
1.5220928 -1.5914172 -0.72319674 0.5229544 -1.4480926 -0.8089504 1.2705288 0.851894
-0.8898837 -1.4828994 1.2934718 -1.4090801 -0.5963683 0.41108143 -1.4152874 -1.0636132
1.0667081 1.0273997 -0.9384729 -1.6108106 1.6104823 -1.2575861 -0.3517823 0.4780764
0.3851864 0.07060697 -0.5100825 -0.06303645 0.50030434 0.7184373 -0.746334 0.6697389
0.48100427 -0.396345
00000000: 0067 ee3f b8b8 5b3f 7e4d eabf fba7 90bf
00000010: 98fb 7d3f 61c9 0040 6750 0ec0 7b4d 0840
00000020: bb44 773f 0d90 5abf e8d3 d8bf 5a8b 7bbf
00000030: df7c a03f 9fec 623f bdb6 7abf f745 c7bf
00000040: f0d3 c23f 8fb3 cbbf 6c23 39bf 57e0 053f
00000050: 195b b9bf 6017 4fbf b0a0 a23f ba15 5a3f
00000060: 6bcf 63bf a6cf bdbf 7c90 a53f bd5c b4bf
00000070: 98ab 18bf 4479 d23e 2328 b5bf 7a24 88bf
00000080: e489 883f d581 833f c33f 70bf 0b2f cebf
00000090: 4924 ce3f 95f8 a0bf cf1c b4be 6ec6 f43e
000000a0: 2737 c53e 639a 903d c494 02bf 4119 81bd
000000b0: f213 003f 82eb 373f bf0f 3fbf 0274 2b3f
000000c0: 3146 f63e bbed cabe

linear2.bias f4 [5]
0.027771518 0.48766565 0.31627634 0.0962046 0.20934913
00000000: 1881 e33c 50af f93e f9ee a13e eb06 c53d
00000010: 9e5f 563e

linear3.weight f4 [1, 5]
7.7715454 -4.7852335 -4.0805545 -4.2538004 1.9326657
00000000: 80b0 f840 a220 99c0 e793 82c0 221f 88c0
00000010: 9761 f73f
