python_scripts/FasterForward/q_m_XOR.pth (torch, 13463 bytes, 6 tensors)

fc1.weight f4 [32, 8]
1.0841476 -1.2875867 0.95844364 1.7897087 -1.2876048 0.9956922 1.5242357 0.1256967
-1.3547175 1.313954 1.3200855 -1.1731359 0.388703 0.3935443 -0.21810897 0.2132561
-1.4896284 -1.4261537 1.3755788 1.4103405 1.3121052 1.3914139 1.298832 -0.06346768
-1.3303782 -1.3522587 1.2110564 1.2898703 1.3266867 -1.2109069 0.87612987 0.916733
-1.2133268 1.2405366 -1.3610063 1.4087993 1.4090886 1.6268721 -1.2735466 1.1432215
1.0289382 -2.251914 -0.91761345 -0.8268303 0.6239143 0.8153723 -0.17163953 0.3239751
0.992279 -1.1239676 -1.1336855 -1.0264859 1.1472707 0.83740824 1.2882246 -0.99230474
-1.252924 1.5730428 -1.2544123 1.4076636 1.4928586 1.4667594 -1.1810914 1.0540519
-0.94915766 1.8194782 1.6823132 -0.54768693 1.1347289 -1.8426379 1.691818 -0.97444993
-1.4785753 1.6476071 1.4789394 0.5442832 -0.5906301 0.53547907 -0.3900487 0.7334862
-1.1953735 1.4005811 1.4101838 -1.5225934 0.8121944 1.9898684 1.6591823 -0.4628226
-0.1926663 1.3750355 -0.8714668 1.2597108 -1.4701985 1.2010387 -0.37897077 -0.06636864
1.1807401 -1.451017 1.8651712 -1.5034386 1.240357 -0.6172443 0.11490664 -0.13123287
1.6641659 1.278062 -1.9698906 1.2599556 0.6588169 -0.15523486 -0.15522549 -0.56848955
1.2659886 -1.2924706 1.266021 -1.2808957 1.6579337 0.8458692 1.1040964 -0.8457986
-1.2892414 1.5599465 1.571841 1.5631679 -1.5200857 1.5600209 -1.1273243 1.1153548
1.1053784 1.6629469 -1.6476841 -1.1579243 1.2745632 0.76947427 -0.31490943 0.05234054
-1.1916572 1.2424431 -1.2174737 -1.2175286 1.2166493 1.2166494 -0.032726947 -0.032739926
-1.3254546 -1.439511 1.5160593 1.0998052 1.3729893 1.6621882 0.6745183 1.3121576
1.3932114 -1.5082314 -1.4740598 1.2998127 0.6472807 0.7282201 -0.08092556 0.17423813
-1.3124231 1.8883439 1.7521836 1.7482336 0.41222835 -0.6198936 0.40824842 0.03168441
1.6512061 0.86539036 -1.611799 1.9945027 0.96197575 1.6624442 -0.6749786 0.13603298
1.1873385 1.3696772 1.2000698 1.3589892 -1.5936838 1.4694452 -1.411361 1.1309239
1.1914084 1.1913673 -1.0980266 -1.098086 -1.0980507 -0.35387155 -0.353793 -0.3156102
1.3634921 0.6715591 0.8015968 0.6715865 -0.64278114 0.7688084 0.76893485 -0.8578709
1.0153732 -0.9987874 -0.99879164 0.9987996 0.9987884 -0.9987895 -0.27527836 -0.2752807
-1.2547287 1.4449893 -1.2717113 1.409954 -0.15226558 -0.21209036 -0.17699605 -0.11715981
1.3279216 -0.55416745 1.006055 0.011337846 -1.0059437 -0.46356776 1.7487935 -1.189869
1.2863815 1.2380062 0.47355732 0.41238508 -0.6570788 -0.88995135 0.7404891 1.0008633
1.3181107 1.3260885 -0.7762295 1.7448862 -1.3543291 -1.3562521 -0.9375243 -0.028154496
-1.3226261 1.4457197 1.3372444 1.2149094 -1.2117903 0.95882046 0.820825 -0.307112
-1.4626354 -1.462681 -1.4375671 0.95267534 0.97776407 0.1720872 -0.14691995 -0.05024083
00000000: 59c5 8a3f a4cf a4bf 905c 753f 2d15 e53f
00000010: 3cd0 a4bf afe5 7e3f 281a c33f a3b6 003e
00000020: 6267 adbf a52f a83f 90f8 a83f 5129 96bf
00000030: 1404 c73e a37e c93e f557 5fbe cf5f 5a3e
00000040: 25ac bebf 348c b6bf f712 b03f 0a86 b43f
00000050: 10f3 a73f da19 b23f 2140 a63f 58fb 81bd
00000060: d549 aabf d016 adbf e503 9b3f 781a a53f
00000070: dfd0 a93f fffe 9abf 0c4a 603f 04af 6a3f
00000080: 4b4e 9bbf e7c9 9e3f 7435 aebf 8953 b43f
00000090: 045d b43f 583d d03f 9303 a3bf 1555 923f
000000a0: 3fb4 833f 5c1f 10c0 b7e8 6abf 27ab 53bf
000000b0: d9b8 1f3f 3dbc 503f 46c2 2fbe 10e0 a53e
000000c0: ff05 7e3f 2cde 8fbf 9b1c 91bf e463 83bf
000000d0: c4d9 923f 6360 563f 8be4 a43f af07 7ebf
000000e0: d05f a0bf 7759 c93f 9590 a0bf 522e b43f
000000f0: fe15 bf3f c6be bb3f 012e 97bf 2ceb 863f
00000100: fffb 72bf a9e4 e83f 0a56 d73f 3635 0cbf
00000110: cc3e 913f 8fdb ebbf 7e8d d83f 8d75 79bf
00000120: f541 bdbf cae4 d23f e34d bd3f 2556 0b3f
00000130: 8933 17bf 2815 093f 77b4 c7be c0c5 3b3f
00000140: 0002 99bf 3e46 b33f e780 b43f 57e4 c2bf
00000150: f9eb 4f3f 02b4 fe3f 1660 d43f 15f7 ecbe
00000160: 514a 45be 2a01 b03f 7318 5fbf 343e a13f
00000170: 772f bcbf a3bb 993f 7508 c2be 48ec 87bd
00000180: 7e22 973f edba b9bf eebd ee3f ad70 c0bf
00000190: 05c4 9e3f b903 1ebf 2c54 eb3d e961 06be
000001a0: 6303 d53f 8997 a33f 6025 fcbf 3a46 a13f
000001b0: 39a8 283f e3f5 1ebe 6ef3 1ebe 8888 11bf
000001c0: ea0b a23f ad6f a5bf fa0c a23f 64f4 a3bf
000001d0: 2c37 d43f e28a 583f 0853 8d3f 4286 58bf
000001e0: dd05 a5bf 54ac c73f 1632 c93f e315 c83f
000001f0: 2b92 c2bf c4ae c73f 2a4c 90bf f2c3 8e3f
00000200: 0a7d 8d3f 72db d43f 50e7 d2bf dd36 94bf
00000210: e324 a33f 44fc 443f cf3b a1be 0963 563d
00000220: 3988 98bf 6008 9f3f 2ed6 9bbf fad7 9bbf
00000230: 2abb 9b3f 2bbb 9b3f b10c 06bd 4d1a 06bd
00000240: 7fa8 a9bf e541 b8bf 3b0e c23f 6bc6 8c3f
00000250: 1dbe af3f 95c2 d43f 3bad 2c3f c8f4 a73f
00000260: c054 b23f ba0d c1bf fead bcbf 4360 a63f
00000270: 30b4 253f a26c 3a3f 4dbc a5bd 7b6b 323e
00000280: 7bfd a7bf 41b5 f13f 8d47 e03f 1ec6 df3f
00000290: 980f d33e 59b1 1ebf f005 d13e 83c7 013d
000002a0: b95a d33f 398a 5d3f 6e4f cebf dd4b ff3f
000002b0: 0b44 763f f9ca d43f 66cb 2cbf 3b4c 0b3e
000002c0: b5fa 973f 9551 af3f e39b 993f 5cf3 ad3f
000002d0: d5fd cbbf c816 bc3f 7aa7 b4bf 1dc2 903f
000002e0: 1280 983f b97e 983f 238c 8cbf 158e 8cbf
000002f0: ed8c 8cbf a72e b5be 5b24 b5be a997 a1be
00000300: e986 ae3f 4ceb 2b3f 7335 4d3f 18ed 2b3f
00000310: 4e8d 24bf a1d0 443f ead8 443f 6d9d 5bbf
00000320: c0f7 813f 88b0 7fbf cfb0 7fbf 55b1 7f3f
00000330: 99b0 7f3f abb0 7fbf 49f1 8cbe 98f1 8cbe
00000340: f39a a0bf 69f5 b83f 70c7 a2bf 5f79 b43f
00000350: 82eb 1bbe 372e 59be 743e 35be 7cf1 efbd
00000360: 56f9 a93f ebdd 0dbf 69c6 803f 5fc2 393c
00000370: c3c2 80bf c158 edbe 77d8 df3f a14d 98bf
00000380: 26a8 a43f fd76 9e3f 1b76 f23e 2324 d33e
00000390: 5136 28bf dad3 63bf b290 3d3f 4a1c 803f
000003a0: dab7 a83f 45bd a93f fab6 46bf 6e58 df3f
000003b0: a85a adbf ab99 adbf 9801 70bf 42a4 e6bc
000003c0: d04b a9bf 580d b93f d32a ab3f 2782 9b3f
000003d0: f21b 9bbf 4275 753f 9621 523f c93d 9dbe
000003e0: a337 bbbf 2239 bbbf 3302 b8bf 88e2 733f
000003f0: bf4e 7a3f a137 303e 2f72 16be 54c9 4dbd

fc1.bias f4 [32]
0.20348816 -0.35407904 0.17752576 0.47592968 1.0777619 1.487156 1.1584694 -0.23992266
1.6824167 0.25593293 0.5752243 1.5191791 0.95891714 -0.412989 1.3074253 -0.27070558
0.37314808 1.2252717 0.6217052 -0.5322682 -0.25976694 -0.3263919 -0.97601676 1.3585141
0.060200278 0.27527854 0.1560234 2.1962082 0.66105217 1.7419118 -0.9462656 0.4848588
00000000: 335f 503e d949 b5be 50c9 353e 0ead f33e
00000010: 1af4 893f 215b be3f ba48 943f 49ae 75be
00000020: 6e59 d73f a409 833e e641 133f 7674 c23f
00000030: 987b 753f 4b73 d3be b659 a73f ec99 8abe
00000040: 440d bf3e b4d5 9c3f 1228 1f3f bb42 08bf
00000050: 2c00 85be d71c a7be 3cdc 79bf cae3 ad3f
00000060: 9194 763d 4ff1 8c3e 99c4 1f3e ad8e 0c40
00000070: b73a 293f f7f6 de3f 763e 72bf 6a3f f83e

fc2.weight f4 [64, 32]
-0.03837295 -0.99969405 -0.88327044 0.0014298174 -0.61959845 -0.43308565 0.3384115 0.41709784
0.11380069 -0.57878315 -0.912423 1.250017 0.21019152 1.5737127 -1.3878529 0.33642787
0.25799534 0.411662 -1.0051665 0.9659173 0.45337898 1.1476817 0.37652442 0.5652286
1.0362902 -0.08948446 0.7176138 0.7468288 0.49945018 1.6930842 0.46765232 0.8412886
0.64115524 1.0799311 0.94870144 0.83782315 -0.5663434 -0.90964425 -1.3958408 0.7762122
0.7950682 0.14014822 0.5799037 -0.5524541 0.0019666522 0.5516956 -0.19251722 1.364395
0.09192004 0.29928064 0.36514613 -1.2277753 0.61128575 -0.18166068 -0.97728175 0.5379309
-0.1946443 -0.4399246 1.6462927 0.22043446 -0.595426 0.6208442 -1.2162149 0.55765504
0.3454489 -0.41516083 0.66301054 0.87135655 0.7546042 0.28832 0.02225666 0.8198975
-1.3971865 -0.52652824 -0.45416185 -0.023317829 -0.3565186 -0.41969842 -0.05540695 0.07948405
-0.12265569 0.0106162485 0.79898816 0.19888008 -0.030469622 0.5443528 -0.23290856 -0.6468051
-1.0685976 0.13453689 0.025895538 -1.9749364 -0.9882804 -0.16166177 -0.09490129 0.18716
-1.6332569 0.95865965 -0.7387991 -1.330123 1.7217193 -0.19682012 0.8576295 1.7620305
0.3768025 0.32358015 1.5186878 0.4733495 -0.23795196 0.9893015 -0.24534012 0.6561242
1.8332292 1.8880767 -0.4332276 -1.8654251 -0.9266908 -0.43592036 -0.4664212 0.5141279
-1.4559919 -0.0061425073 -0.37760642 -1.6773518 -1.693573 -1.4428079 -0.5044974 1.1925504
-0.3239879 -0.40478447 0.4691971 0.4514 -0.2407674 -0.9527125 -0.9907376 0.1591538
-0.062123872 0.23903662 0.6614087 0.32926744 1.2603573 0.7524476 -0.5574925 1.6375926
0.16709837 0.56302696 0.33837324 -1.2168968 0.33449697 0.07061577 0.1438569 -0.11857311
-0.14350437 -1.3607597 0.85785776 0.050510556 -0.5318459 -0.32765263 0.43628678 -0.19381846
0.2634188 -0.44653937 0.13126577 -0.16084567 0.87406045 0.7691357 1.1742793 0.52006686
-0.2866798 -0.69826263 0.3699007 -0.33341882 -0.3284202 0.7458769 0.8871342 -0.8918928
-0.07494308 -0.7754158 0.22842136 -1.2533268 -1.3918214 0.070714496 0.53388405 0.15011634
0.19268885 1.6123558 -0.66491634 -0.028802764 0.2136824 -0.113496356 -1.5312529 -0.7649865
0.84071225 -0.8161771 -0.096526705 -1.3664662 1.1097022 -0.18802308 1.0256726 0.5903048
-0.61229414 -0.37806684 -0.12252321 0.72433156 -1.496619 -0.39837378 -0.04881091 -0.32237795
1.3667136 -0.34548473 -1.0780895 0.59809333 0.8191419 0.66838366 0.25353283 0.59117806
0.8348598 1.5524437 0.42923158 0.24101524 0.3331066 0.7857537 1.0192021 -1.6583288
-0.3459243 0.901044 0.781178 -0.6700994 -0.13728009 -2.1712046 -0.57462174 0.8354181
1.2640734 0.804475 0.7728221 0.13241543 -1.0546083 0.3089632 -0.3791493 0.44771647
-0.3366678 0.39872375 -0.36638755 -0.3636651 1.555149 -0.18473268 -0.7243625 -0.5020345
-0.74697566 -0.07161726 0.12663537 -1.2268417 -0.14279267 -0.28078628 0.7444066 -0.027412191
00000000: f42c 1dbd f3eb 7fbf 031e 62bf b668 bb3a
00000010: 019e 1ebf 67bd ddbe 4644 ad3e d98d d53e
00000020: 5610 e93d 222b 14bf 8e94 69bf 8f00 a03f
00000030: 723c 573e 6b6f c93f 2aa5 b1bf 4640 ac3e
00000040: f717 843e 5dc5 d23e 4ca9 80bf 5b46 773f
00000050: 4a21 e83e 3ce7 923f cfc7 c03e d2b2 103f
00000060: 28a5 843f a143 b7bd 8ab5 373f 2c30 3f3f
00000070: efb7 ff3e fcb6 d83f 2070 ef3e b15e 573f
00000080: c022 243f 2f3b 8a3f 19de 723f 947b 563f
00000090: e2fb 10bf 72de 68bf e9aa b2bf d8b5 463f
000000a0: 9789 4b3f 0483 0f3e 9274 143f a26d 0dbf
000000b0: f3e2 003b ec3b 0d3f 3c23 45be 7fa4 ae3f
000000c0: 9340 bc3d 503b 993e 6ff4 ba3e be27 9dbf
000000d0: 397d 1c3f 4205 3abe 232f 7abf d7b5 093f
000000e0: d650 47be cc3d e1be b8b9 d23f 92b9 613e
000000f0: d76d 18bf a5ef 1e3f eeac 9bbf 7bc2 0e3f
00000100: aede b03e f68f d4be 0fbb 293f 3911 5f3f
00000110: be2d 413f ae9e 933e 9953 b63c cde4 513f
00000120: 02d7 b2bf 8eca 06bf e787 e8be 0805 bfbc
00000130: 9b89 b6be b6e2 d6be 66f2 62bd 89c8 a23d
00000140: e832 fbbd c6ef 2d3c 7d8a 4c3f 38a7 4b3e
00000150: 6e9b f9bc b55a 0b3f 957f 6ebe 0595 25bf
00000160: cec7 88bf 0ac4 093e e122 d43c b7ca fcbf
00000170: f2ff 7cbf aa8a 25be 9c5b c2bd dfa6 3f3e
00000180: 900e d1bf b86a 753f f021 3dbf 7841 aabf
00000190: 4c61 dc3f 378b 49be 9b8d 5b3f 378a e13f
000001a0: 42ec c03e 4cac a53e 5d64 c23f de5a f23e
000001b0: aea9 73be dd42 7d3f 713a 7bbe c1f7 273f
000001c0: 41a7 ea3f 7fac f13f 02d0 ddbe 40c6 eebf
000001d0: 9c3b 6dbf f430 dfbe c2ce eebe e39d 033f
000001e0: f15d babf 1647 c9bb a155 c1be 77b3 d6bf
000001f0: 00c7 d8bf eead b8bf be26 01bf 7ea5 983f
00000200: bee1 a5be e93f cfbe 9a3a f03e e71d e73e
00000210: bb8b 76be f7e4 73bf fba0 7dbf 37f9 223e
00000220: 9a75 7ebd 04c6 743e 1552 293f be95 a83e
00000230: 6353 a13f 68a0 403f d4b7 0ebf a29c d13f
00000240: d61b 2b3e 8922 103f 423f ad3e 46c3 9bbf
00000250: 3043 ab3e 009f 903d 394f 133e 75d6 f2bd
00000260: cff2 12be 602d aebf 919c 5b3f 28e4 4e3d
00000270: 0e27 08bf 16c2 a7be fb60 df3e 5978 46be
00000280: d4de 863e cfa0 e4be 896a 063e bab4 24be
00000290: 6dc2 5f3f 14e6 443f c94e 963f 1a23 053f
000002a0: b2c7 92be 57c1 32bf a063 bd3e dfb5 aabe
000002b0: b126 a8be caf1 3e3f 3a1b 633f 1653 64bf
000002c0: c27b 99bd a681 46bf 4ae7 693e 036d a0bf
000002d0: 3427 b2bf c3d2 903d a0ac 083f 19b8 193e
000002e0: 3a50 453e ad61 ce3f f537 2abf c6f3 ebbc
000002f0: 8fcf 5a3e c770 e8bd 1800 c4bf 28d6 43bf
00000300: eb38 573f fcf0 50bf cbaf c5bd 5de8 aebf
00000310: b90a 8e3f 1f89 40be 3d49 833f 371e 173f
00000320: 4fbf 1cbf fa91 c1be 73ed fabd cb6d 393f
00000330: 3691 bfbf a6f7 cbbe f3ed 47bd b90e a5be
00000340: 79f0 ae3f 60e3 b0be d6fe 89bf a51c 193f
00000350: 49b3 513f 311b 2b3f 0ecf 813e 7257 173f
00000360: 5fb9 553f 7ab6 c63f 3ec4 db3e b3cc 763e
00000370: f38c aa3e 2827 493f 3775 823f 1e44 d4bf
00000380: fd1c b1be d2aa 663f 48fb 473f a28b 2bbf
00000390: 2793 0cbe 04f5 0ac0 691a 13bf f6dd 553f
000003a0: 28cd a13f 13f2 4d3f abd7 453f e997 073e
000003b0: 68fd 86bf 6d30 9e3e db1f c2be 183b e53e
000003c0: b95f acbe 8525 cc3e 2697 bbbe 5032 babe
000003d0: 1f0f c73f 902a 3dbe d26f 39bf 5585 00bf
000003e0: cc39 3fbf 12ac 92bd b4ac 013e 2609 9dbf
000003f0: 3e38 12be 38c3 8fbe 6e91 3e3f 888f e0bc

fc2.bias f4 [64]
0.2542536 0.212821 -0.12953125 0.18063901 0.2108971 0.15262267 -0.03917402 -0.41415545
0.35354173 -0.10069727 0.86568046 -0.164812 0.32579684 -0.12748618 -0.15669796 0.38544327
-0.058387898 0.40257004 0.63484347 -0.48134252 -0.5414483 0.17958067 0.29620078 -0.62985486
0.13999431 0.22641297 -0.7454799 0.011590245 -0.38547587 -0.26407665 -0.3234573 0.01751554
0.3452761 0.16350053 0.79370314 0.019675234 0.82487947 -0.11172811 -0.5724536 0.07710282
-0.09492445 0.4841912 -0.020202368 0.2791575 -0.53877884 -0.2780688 0.2967089 0.02415654
0.075825356 -0.071973495 0.3929853 0.16659494 0.54598004 -1.0091658 0.02773983 0.48924464
0.52312917 0.28969836 -0.67057425 -0.63515705 -0.23961583 -0.22407812 0.031735778 0.63013643
00000000: 872d 823e c0ed 593e d7a3 04be 6ff9 383e
00000010: 69f5 573e 1e49 1c3e f074 20bd 2f0c d4be
00000020: 6c03 b53e 5f3a cebd 3c9d 5d3f 7ac4 28be
00000030: d8ce a63e bd8b 02be 6e75 20be d258 c53e
00000040: 2628 6fbd a91d ce3e 1a85 223f 8772 f6be
00000050: 5b9c 0abf ffe3 373e a1a7 973e 2b3e 21bf
00000060: ab5a 0f3e cdd8 673e c5d7 3ebf 03e5 3d3c
00000070: 185d c5be 0e35 87be 329c a5be c07c 8f3c
00000080: 07c8 b03e af6c 273e 2130 4b3f f52d a13c
00000090: 4d2b 533f b5d1 e4bd 528c 12bf 15e8 9d3d
000000a0: c067 c2bd e9e7 f73e 707f a5bc bbed 8e3e
000000b0: 69ed 09bf 095f 8ebe 3bea 973e f0e3 c53c
000000c0: 534a 9b3d d766 93bd 5f35 c93e dd97 2a3e
000000d0: 59c5 0b3f 582c 81bf a43e e33c 467e fa3e
000000e0: cbeb 053f 5853 943e c1aa 2bbf a799 22bf
000000f0: da5d 75be bc74 65be 60fd 013d 9f50 213f

fc3.weight f4 [8, 64]
0.18734871 -0.40220013 -2.7049716 -0.22454675 -0.11219672 0.23956597 0.28819633 -0.14525583
0.4878003 -0.36328676 -0.23388968 0.07519947 -0.2341631 0.33981773 -0.29339632 -0.53278655
-0.14307733 -0.41338277 -2.2149026 -0.22438401 0.51707447 -0.108220994 -0.19653778 0.3822747
-0.33999303 -0.27193668 -0.34581104 -0.44006464 0.24561484 -0.21748962 0.8064174 -0.6822011
0.3243464 -1.3679161 0.0677218 -0.1541222 -0.52397746 0.06881622 0.34404677 -0.19726337
-0.012241342 0.26971346 -0.09721528 -0.65053314 0.5744503 0.27255633 -0.15853988 0.30702344
0.58822626 -0.017692573 -0.43886247 -0.4447526 -0.14468351 0.13761503 0.04658521 -0.27700752
0.026908018 0.18627895 -0.19892082 -0.21836397 -0.2703225 1.0113931 -0.2999299 0.46596465
-0.29729208 -0.35671866 -0.919681 0.23165075 -0.41057658 0.50310665 0.14672497 0.7782707
-0.9316129 -0.049890544 -0.71215606 -0.012237239 0.51186866 0.22225517 0.56362504 0.3166028
0.4919774 0.6986901 -2.1985734 0.26522592 0.58948267 0.46550176 -0.3827121 1.0822424
-0.17774661 0.07868408 0.5171732 0.51400274 0.64719886 0.57974815 -0.7081008 -0.7726586
0.3327899 -0.27836964 -0.46124077 -0.28141323 -0.3949956 -0.08831096 -0.69194454 0.3189317
0.7071663 0.5077483 0.3672389 -0.9361457 -0.71855265 0.8211644 0.34968287 -0.490134
0.733774 0.10095228 -0.36528975 -0.44157153 -0.16088551 -0.29430586 0.071211904 -0.81627417
0.2704131 -0.38043904 0.10129092 0.19919029 0.015580577 0.4951309 0.40451658 0.5562952
0.25926092 0.82906634 0.5115347 0.3270269 0.8965343 -0.8562872 0.7754615 -1.475219
-1.5826539 -0.5917087 -0.7173793 -0.09701528 0.87220114 0.5626676 -1.2197812 -0.54180014
1.2770846 -1.4880085 -3.035942 1.0017132 0.85867816 1.3737302 -0.32811025 0.9835019
0.5079831 -0.8711214 -0.2701028 -0.9564102 -0.4154639 1.5330074 0.6492347 -0.6732627
-0.107308954 -0.4244011 -0.54079396 0.7281346 -0.6952617 -0.057466667 -1.0815111 0.91580665
-1.747278 0.6948891 -0.42780912 -0.89345616 -0.10513646 -1.1034744 1.0387871 1.0187652
-0.48972985 0.03924195 0.4767131 -0.018429708 -0.8302066 -0.24770759 -0.07318835 1.1112897
-0.62118983 1.0292372 -0.20328291 -0.8631571 -0.9898674 -0.7493064 0.8611688 0.58566856
-1.2944666 2.1662972 -0.41507554 -0.6259465 -0.9661544 -1.473042 1.2581515 -1.0708266
-0.5200137 -0.6616109 -0.13892533 0.11389965 0.57351536 1.1252842 1.0064448 -0.688822
-0.7913472 1.2232611 -2.2253528 -0.735201 1.3810166 -0.799137 0.14193358 -1.5379983
1.008797 -0.8500577 0.5087052 -0.25314406 0.7523608 -1.3520964 -1.3880837 -1.4449657
0.45326674 0.5792526 0.73779994 1.0537734 0.060153916 0.10660971 0.46147504 -0.70621574
-0.99298275 0.6530177 -0.5639483 1.1677908 -0.9837539 0.7388009 -1.2133356 0.8332792
1.3815876 -0.09522978 -1.4204333 -0.7702939 -1.3689111 0.7133112 0.07499795 -1.1388324
-0.67248106 -1.4280987 0.44937015 1.0171642 1.1855642 -1.8553959 1.0174282 1.5267563
00000000: 57d8 3f3e 2ded cdbe 411e 2dc0 95ef 65be
00000010: 65c7 e5bd c850 753e 788e 933e f2bd 14be
00000020: f6c0 f93e b900 babe c780 6fbe 2e02 9a3d
00000030: 74c8 6fbe 97fc ad3e 0b38 96be b364 08bf
00000040: dd82 12be e8a6 d3be f7c0 0dc0 ecc4 65be
00000050: fe5e 043f f8a2 ddbd 3341 49be 82b9 c33e
00000060: 9113 aebe 493b 8bbe 250e b1be 2750 e1be
00000070: 7582 7b3e 99b5 5ebe 5f71 4e3f bba4 2ebf
00000080: bb10 a63e e017 afbf bab1 8a3d 36d2 1dbe
00000090: 6323 06bf 85ef 8c3d e626 b03e 69ff 49be
000000a0: e98f 48bc e217 8a3e ce18 c7bd 5789 26bf
000000b0: 2d0f 133f 818c 8b3e 4758 22be 2d32 9d3e
000000c0: ff95 163f 04f0 90bc 95b2 e0be 9db6 e3be
000000d0: ea27 14be f4ea 0c3e 22d0 3e3d eed3 8dbe
000000e0: 346e dc3c e9bf 3e3e e6b1 4bbe ce9a 5fbe
000000f0: b667 8abe 5475 813f 6990 99be eb92 ee3e
00000100: ab36 98be d4a3 b6be 3770 6bbf db35 6d3e
00000110: 1837 d2be 99cb 003f 123f 163e c03c 473f
00000120: 2f7e 6ebf 075a 4cbd dc4f 36bf b37e 48bc
00000130: d309 033f dc96 633e bb49 103f c319 a23e
00000140: 76e4 fb3e 5bdd 323f 6db5 0cc0 b1cb 873e
00000150: 56e8 163f 3f56 ee3e d7f2 c3be eb86 8a3f
00000160: 3503 36be 1e25 a13d 7665 043f af95 033f
00000170: d3ae 253f 606a 143f 1846 35bf f4cc 45bf
00000180: 7063 aa3e 7786 8ebe c027 ecbe 6515 90be
00000190: dd3c cabe 60dc b4bd 4723 31bf 044b a33e
000001a0: da08 353f cbfb 013f bd06 bc3e 3fa7 6fbf
000001b0: 11f3 37bf d537 523f a209 b33e d8f2 fabe
000001c0: 9dd8 3b3f 12c0 ce3d 4207 bbbe aa15 e2be
000001d0: 2cbf 24be 42af 96be 8cd7 913d 58f7 50bf
000001e0: 9673 8a3e e8c8 c2be 9d71 cf3d 8af8 4b3e
000001f0: ad45 7f3c cc81 fd3e cc1c cf3e 5d69 0e3f
00000200: d9bd 843e b13d 543f f0f3 023f 1270 a73e
00000210: 4683 653f a335 5bbf a584 463f fad3 bcbf
00000220: 6794 cabf 397a 17bf 2ba6 37bf f2af c6bd
00000230: 9348 5f3f fc0a 103f ca21 9cbf 6ab3 0abf
00000240: 8277 a33f 1077 bebf e04c 42c0 2338 803f
00000250: 55d2 5b3f 64d6 af3f 11fe a7be c8c6 7b3f
00000260: 2e0b 023f d001 5fbf ea4a 8abe 4dd7 74bf
00000270: afb7 d4be 9639 c43f 3f34 263f f25a 2cbf
00000280: ccc4 dbbd 1a4b d9be 7971 0abf 0767 3a3f
00000290: acfc 31bf 2b62 6bbd f56e 8abf 4e72 6a3f
000002a0: cea6 dfbf 41e4 313f cc09 dbbe 8bb9 64bf
000002b0: c951 d7bd a63e 8dbf faf6 843f e666 823f
000002c0: dfbd fabe 2bbc 203d bd13 f43e e6f9 96bc
000002d0: 6b88 54bf 0fa7 7dbe c6e3 95bd be3e 8e3f
000002e0: 4c06 1fbf 0bbe 833f 6529 50be ddf7 5cbf
000002f0: f367 7dbf 8bd2 3fbf 8f75 5c3f 60ee 153f
00000300: 15b1 a5bf 9da4 0a40 c884 d4be 083e 20bf
00000310: e555 77bf a48c bcbf 1c0b a13f d910 89bf
00000320: 9e1f 05bf 555f 29bf 7142 0ebe 3844 e93d
00000330: e7d1 123f 5009 903f 2fd3 803f a356 30bf
00000340: bb95 4abf d293 9c3f 2e6c 0ec0 2236 3cbf
00000350: 27c5 b03f 3e94 4cbf 0957 113e 21dd c4bf
00000360: 4320 813f 629d 59bf 813a 023f 199c 81be
00000370: b89a 403f 7f11 adbf baac b1bf a3f4 b8bf
00000380: 9412 e83e e649 143f 75e0 3c3f 0ce2 863f
00000390: f463 763d 3156 da3d 7546 ec3e 8eca 34bf
000003a0: 1e34 7ebf 2b2c 273f ea5e 10bf 2b7a 953f
000003b0: 4cd7 7bbf 0e22 3d3f 954e 9bbf c951 553f
000003c0: ddd7 b03f d507 c3bd c2d0 b5bf fb31 45bf
000003d0: 7b38 afbf 909b 363f 8698 993d 43c5 91bf
000003e0: b827 2cbf f0cb b6bf d813 e63e 7032 823f
000003f0: 91c0 973f 9d7d edbf 163b 823f c06c c33f

fc3.bias f4 [8]
-0.2367832 -0.25075048 0.5508416 0.22434598 0.00952402 0.5581602 -0.14734259 -0.009776109
00000000: 4c77 72be 5e62 80be f503 0d3f f4ba 653e
00000010: a30a 1c3c 96e3 0e3f fae0 16be f92b 20bc
