python_scripts/FasterForward/TMDS.pth (torch, 14079 bytes, 6 tensors)

fc1.weight f4 [32, 9]
00000000: 137f 7cbe 8e3a 6e3e 8387 5dbe cc2c 803e
00000010: ab66 783c a8d4 a9be 36cf 973e 3041 513e
00000020: 66d9 c03d 2372 703e ab29 d0bb ab2d 98bd
00000030: a0d1 8bbd 838d 9f3e e0a6 15bd 0026 7c3d
00000040: 78d1 0d3e 407f 02be d0a9 4e3e a2a6 9f3e
00000050: a7fc 82be a0ab 263e f6eb 83be 8e6d 063e
00000060: 866e 5abe d68a 00bd 7bba bebd 505c 233e
00000070: fb74 ecbd 4b14 68be 0043 5b3d f659 993e
00000080: 4845 5cbe 00d4 633e 30fa fc3d 5bf7 1a3e
00000090: ec06 94be 2b89 7ebd 5f60 82be 4bde 09be
000000a0: 8083 393e 309a c7bd c82c 6ebe e07f 223d
000000b0: 10a8 bb3d 6b9a 153e 1622 033e 06ab dcbd
000000c0: 98ba 1fbe 6b26 8d3c d609 733c 7b5d 273e
000000d0: 701a 9f3e 3ee4 4c3e 26e7 5c3e 40b6 14be
000000e0: 83be 26be b079 f33d 06c6 c03d c6c2 5b3e
000000f0: e630 703e c3a9 88be 0368 563e 5656 843b
00000100: 36e4 86bd 16bd b03d 26b9 c33d 9082 f13d
00000110: e30d 8dbe f085 f7bd 4bd8 23be 6b7a c1bd
00000120: 3339 16be 28f3 1a3e abe5 a53e 5673 d1bd
00000130: 73b4 973e 58ee 9abe 466f 71be d609 dbbc
00000140: 73d9 923e 5620 11be 5677 76bd 7b72 95bd
00000150: afe7 89be d2a6 a4be 20b3 a0be 0865 a53e
00000160: 4689 43be b07e 62be fb56 963e c054 c03d
00000170: f833 9c3e be61 47be 66b1 91be 6e0b 1dbe
00000180: d8ef 10be 0307 4e3e c609 8fbe e059 d0bd
00000190: 566d 56be d0bd a33e 06d6 50be eccc a43e
000001a0: 9e46 6fbe 4099 a83c 00eb b5bc 8088 12bc
000001b0: 20a3 9bbe 8e6b 80be 50c8 883e 3628 f23d
000001c0: c81d 3a3e 9e83 133e a31d 54be d6a2 3cbd
000001d0: fbc9 6ebe 706b 08be 9644 303d 70e6 5d3e
000001e0: fe1d 49be b39a a3be e648 05be a0db 62be
000001f0: 827c 933e 2020 a0be 50f5 e93d 6667 c33d
00000200: 809c 26be 20b9 d03d 2084 443e f6f9 46be
00000210: 532b 543e 0684 a63d 6eb2 12be 0f0e 9a3e
00000220: 6e72 7dbe 3617 5dbd 4e71 2dbe b3c4 a43e
00000230: 5605 af3c 3b2b 573e a774 8bbe 97bd 9a3e
00000240: 00af 1b3e 566b 4a3b 7003 40be 8325 903e
00000250: 16a2 50bd 3b97 4c3e 1017 42be fa20 8f3e
00000260: 5695 7cbd f656 b23d d8b0 513e 301e 1bbe
00000270: 53cd 573e d027 9f3e 2bec 203d 4bce 49be
00000280: 0ef5 3abe 5642 f23b 6ef3 89be 16ac d7bc
00000290: b068 f0bd 300c de3d d65a 553c ab4c 713e
000002a0: d6d4 dcbc 8b1d d83d 839a 38be f8cb 6d3e
000002b0: b01f 953e 5618 9abe 6c0f 803e b062 8b3d
000002c0: 8337 0bbe 808f 70bc 0040 9dba 5e4f 96be
000002d0: 404e ba3d 80b6 a5bd 62ca a5be cb96 753e
000002e0: a3de 743e fb06 063e 0805 8abe 6f80 9e3e
000002f0: 06b8 98bd 4cac 94be 30a1 fb3d e029 ab3d
00000300: 9029 89be bf03 9cbe 6bcb d23d 4002 e43d
00000310: d62e 5d3e 605c 26bd e0e6 9f3e e3ef 7cbe
00000320: bb44 d8bd ef1a 943e 6bc2 a53e ab25 323d
00000330: 0054 cb3b 76fc 713d 16ab aebc 401f 4ebe
00000340: 5e50 973e e6e9 47be 0ba3 01bd e842 6fbe
00000350: 0000 233d 2b00 4abd 561f 7e3c b0b1 28be
00000360: f0fc 77be 205f 07bd 8257 923e 5633 633b
00000370: c0a9 b33d c610 9abe 76c3 be3d 96fd a03c
00000380: 061a aa3d 00e3 473d 9b11 8cbe 20d8 1b3e
00000390: 7b60 64be fb0f d43d 406a d3bd 46a4 ad3d
000003a0: d677 50be f071 b43d c0b8 c9bc eb7d c03d
000003b0: ab42 f73b 807d 7b3d ae29 643e 1677 debc
000003c0: 8660 083e 96c7 02bd 8829 88be 8013 4f3d
000003d0: 6490 9a3e 28a7 a33e aca1 9d3e 5623 1e3c
000003e0: 207b 60be 6bd4 b63c d0d7 e9bd 0059 88bd
000003f0: ee78 2dbe 04a6 aa3e 988f 08be c0a2 b83d
-0.2465785 0.23264524 -0.21633725 0.25034177 0.015161197 -0.33170056 0.29650277 0.20435023
0.094164655 0.2348104 -0.0063526235 -0.074305855 -0.06827092 0.31162652 -0.036536098 0.061559677
0.13849437 -0.12743855 0.20181966 0.31181818 -0.25583383 0.16276407 -0.2576596 0.1312773
-0.21331224 -0.031382404 -0.09312912 0.15953183 -0.1154575 -0.22663991 0.053530693 0.29951447
-0.21510804 0.2224884 0.12352407 0.15133421 -0.2891153 -0.062142532 -0.2546415 -0.13463704
0.1811657 -0.09746206 -0.2325927 0.039672732 0.09162915 0.14609687 0.12805972 -0.10774808
-0.15598524 0.017230233 0.014833888 0.16344254 0.31074858 0.20008942 0.21572551 -0.14522648
-0.16283612 0.118884444 0.0941277 0.21461019 0.23456153 -0.26692018 0.20938115 0.0040386124
-0.065864965 0.08629815 0.09556799 0.11792481 -0.27549657 -0.120860934 -0.16000478 -0.094471775
-0.14670257 0.15131819 0.32401785 -0.10227077 0.2962986 -0.30259967 -0.23577604 -0.026738089
0.28681526 -0.14172491 -0.0601724 -0.07297226 -0.26934573 -0.32158524 -0.31386662 0.32303643
-0.19095334 -0.2211864 0.29363236 0.09391165 0.305084 -0.1947088 -0.28455657 -0.15336391
-0.14153993 0.20119862 -0.27937144 -0.10173392 -0.20940146 0.31980753 -0.20394143 0.32187593
-0.23366782 0.020580888 -0.022206783 -0.008943677 -0.30397892 -0.25082058 0.26715326 0.11824076
0.18175423 0.14405677 -0.2071443 -0.04605373 -0.23319237 -0.13322234 0.04303416 0.21669936
-0.19640347 -0.31953964 -0.1301609 -0.22154093 0.2880593 -0.3127451 0.11423743 0.09541206
-0.16270638 0.1019156 0.19191027 -0.1943129 0.20719652 0.0813065 -0.14325878 0.3008885
-0.24750683 -0.053977214 -0.16937754 0.3218132 0.021364849 0.21012585 -0.27237436 0.3022277
0.15203476 0.003088673 -0.18751311 0.2815362 -0.050935827 0.19979565 -0.1895411 0.27954847
-0.061665855 0.08707993 0.20477617 -0.15148234 0.21074419 0.31085062 0.039287727 -0.19707601
-0.18257543 0.0073931618 -0.26943535 -0.026327174 -0.117387176 0.10842168 0.013022145 0.23564403
-0.026956957 0.1055251 -0.18027692 0.23222339 0.29125738 -0.30096692 0.25011766 0.068059325
-0.13595395 -0.014682651 -0.0011997223 -0.29357427 0.09096956 -0.0809145 -0.32380968 0.23983304
0.23913054 0.130886 -0.26956964 0.30957362 -0.07456975 -0.29037702 0.122866035 0.083575964
-0.26789522 -0.30471608 0.10292705 0.11133242 0.21599898 -0.04061544 0.3123083 -0.24700885
-0.10559984 0.289268 0.32374892 0.043492954 0.006205082 0.059078656 -0.021321815 -0.20129108
0.29553503 -0.19522819 -0.03164963 -0.23365366 0.039794922 -0.049316566 0.015510401 -0.16474032
-0.24217582 -0.033049703 0.28582388 0.003466805 0.087726116 -0.30090922 0.09314625 0.01965217
0.08305745 0.04880047 -0.27357182 0.15219164 -0.2230243 0.103546105 -0.10323 0.08478598
-0.20358214 0.08810794 -0.024624228 0.09399017 0.0075457892 0.061398983 0.22281525 -0.027156394
0.13318071 -0.03192862 -0.26594186 0.050555706 0.30188286 0.31963468 0.30787408 0.009651979
-0.21921968 0.022318086 -0.11418116 -0.066576004 -0.16940662 0.33329785 -0.13336027 0.09015417

fc1.bias f4 [32]
00000000: e37d 0bbe dcba 923e 6041 4ebd f374 973e
00000010: 568b b93d d609 6ebc 3ed0 873e 6004 fd3d
00000020: 2b50 6b3e ab60 93bd f89b a83e d06a d03d
00000030: ab02 51be e07a 4f3d b618 69be 2b75 5a3c
00000040: 84ff 933e abbe d93a 36a9 edbd 7335 7cbe
00000050: 7a10 9ebe 0e6e 6f3e 00aa 253e 8e17 523e
00000060: db4c 24be ab1b 313e 5c6f 923e 7338 65be
00000070: 2b56 1ebd 9306 32be 00b0 bcb9 2021 e2bd
-0.1362224 0.28658187 -0.050355315 0.29581413 0.09059779 -0.014528712 0.26526064 0.1235435
0.229798 -0.07196172 0.32931495 0.10176623 -0.20411174 0.050654292 -0.22763333 0.013333599
0.2890588 0.001661261 -0.1160454 -0.24629764 -0.30871946 0.23381826 0.16178131 0.20516798
-0.16044943 0.1729571 0.28600585 -0.22384815 -0.038656395 -0.1738532 -0.00035989285 -0.11041474

fc2.weight f4 [64, 32]
00000000: deeb 93bd d888 7d3d 1b31 13be 1195 20bd
00000010: ee0a 273e 7892 1a3d 008d d5bd 970f 223d
00000020: 5613 f8bc 81a2 3d3c 3da3 c2bd 05b8 b6bd
00000030: 042b 43bc e10e fbbb 0dd6 a53d 2f30 763d
00000040: 026b d23d 3566 2f3d 2ac8 33bb 9b4e be3d
00000050: fc6b 05be fe29 77bd 59ba 04be 33fe 333e
00000060: 11fd 1d3e 8974 a5bd 0633 e1bd 563f 1f3e
00000070: f0c8 ab3d f6a2 bc3d 635c 9ebd 957c 20bd
00000080: da86 023e 526b a93d 3948 0b3e 985d 173e
00000090: 3e8f 403c 6552 a53d 6bd4 35bd 1689 64bd
000000a0: 5428 f23d 30fc 603d 3ae5 fe3c bf9f 13be
000000b0: 2ab8 16bd 21e9 23bc 3a0d 22bd 9503 673a
000000c0: 5d0f 1d3e 8e3c 323e 3b44 a53c 73d6 32be
000000d0: 7bac cc3c 8065 d13d 05d8 9abd f691 b13d
000000e0: 02a3 03be 8406 e2bd 9e99 a0bc 0dfd 1e3e
000000f0: aa68 213e e1db 003e 8aef 943d 384c 01bd
00000100: 3da0 8f3d c951 ed3d a782 2ebc 5053 ab3d
00000110: 8f19 88bd c579 9d3d f002 46bd 4e95 3ebb
00000120: 7120 86bd 605c 813c d3e7 1dbe f4aa f23d
00000130: 241f 143e cd53 f0bd 8b01 303e f995 8f3d
00000140: 1acf 013c f39f a23d bb2d 3b3d b289 f03d
00000150: 9128 753d d417 12be d2a6 83bd b59f 953d
00000160: 17c4 323e 505b 1a3e 2494 223e 561f 00be
00000170: 62e0 143e f86c afbc 312c 023e 9a56 843d
00000180: 12ed 183e 3b49 183e 0575 213e 389e 0dbe
00000190: e309 df3d 138e 11bd 61dd 0ebe b0fb bdbc
000001a0: 5284 ef3c c0c7 edbd cdaf 25bb a785 9cbd
000001b0: 010a 1ebe 2e29 13be 2244 d9bd c4c0 f63c
000001c0: 45ec 233d 0be8 2c3d 60e9 92bc e676 f9bd
000001d0: b0e4 31be ec9c 1c3e 4515 65bd f4cc 1f3c
000001e0: 666b 513d ba74 ff3c b951 2b3d 2254 dd3d
000001f0: 4d5f 943c 573e 673d 8ff2 b9bd 31c2 30be
00000200: f7c7 483d f4dd d53c 9e57 e13d 2bbe 353d
00000210: e604 473d 23a2 ff3d 884a fbbd 89c1 afbd
00000220: f639 633c 330a a23c da2d 633d b0bd 1ebe
00000230: 210f 15bd d217 d93d 8c5c dabc 7de6 e0bc
00000240: 7760 1ebe 290f 673c 4d05 153e 6104 2dbe
00000250: 92d5 1a3e ee6f c4bd 39b0 f43d 2c36 0bbe
00000260: c08f 94bd 01be c3bd c262 24be c337 87bd
00000270: 2ad9 8e3d 46d0 19be d349 e8bc 9b59 293e
00000280: f6b4 98bd ba51 123e f116 e2bc 507e cbbd
00000290: 741d b3bd bf21 b43d ddea 08bd 73a5 92bc
000002a0: 2c8d 9f3d 5cb4 053e 621f a7bd 1ef4 1ebd
000002b0: 5562 34be f1b5 b2bd edcc d53d f190 34be
000002c0: 42f4 463d 3cf1 e1bd a623 29be 8c21 1abe
000002d0: c7d1 2d3e 15af 273e a097 1f3e d2b2 113d
000002e0: 6a0d 15be fcd1 cd3d 0b61 acbd 09b7 a7bd
000002f0: b3e2 e03d 9698 213e 95f7 98bd 2c52 1c3e
00000300: 5e6a 7e3d 0d53 083e 0c81 233e d020 323e
00000310: 7f3e 513d ace8 cc3c 8a48 e23d 74e8 3f3c
00000320: 8e3e 533c ec7e 853d 2879 b3bd 22d1 2a3e
00000330: 3aeb d8bd 42ab b2bd b705 99ba 085e 2f3e
00000340: 3d33 003e f3be fdbd 4c2d 1cbe 66eb f0bc
00000350: a11f ee3d 6608 63bd 709e 673d 709f eabd
00000360: 1685 4f3d 53fd 56bd 318a eabd 70bb f6bd
00000370: 1bbf 1dbe 1a65 a9bd 2921 c9bd 089d 1d3e
00000380: 7966 9cbd 97d2 903d bb5c 8fbd 65df febd
00000390: a0ac ef3c be28 a7bd 3bc0 a53d c66a 783d
000003a0: 17fa 64bb dee2 173e 7f10 72bd 02c9 a2bd
000003b0: dc47 10be 45fe 4a3d 1b01 e9bd 8b0e 2c3e
000003c0: 9948 443c e8c7 64bd 6dba 1cbe 500a 213d
000003d0: 5d61 1cbe f83a 153d b0c3 d1bd 7635 403d
000003e0: 2430 693d 7b54 eb3c 5615 dfbd bde0 bb3c
000003f0: 4de8 343e afbd b9bd 52a8 83bd 46d1 15bd
-0.072227225 0.061898082 -0.14374201 -0.03920466 0.16312763 0.03773734 -0.10427284 0.03956565
-0.030282658 0.0115743885 -0.095037915 -0.08921818 -0.011912111 -0.007661686 0.080974676 0.060104545
0.10274316 0.04282208 -0.002743254 0.092923366 -0.13029474 -0.06034278 -0.12961711 0.17577438
0.15428568 -0.08078868 -0.1099606 0.15551504 0.08387935 0.0921077 -0.07732465 -0.03918131
0.12746754 0.08272423 0.1360177 0.14781797 0.011752902 0.08072356 -0.04439203 -0.055794798
0.11824098 0.054928005 0.031115163 -0.14416407 -0.036796726 -0.010004313 -0.039563395 0.00088124844
0.15337892 0.17405912 0.020174136 -0.17464618 0.024984589 0.10224438 -0.07560734 0.08670418
-0.12855151 -0.11036399 -0.0196045 0.15526219 0.15762582 0.12583877 0.07272251 -0.03156683
0.07012985 0.11587865 -0.010651267 0.083655 -0.066455 0.07689241 -0.048342645 -0.0029080692
-0.065491565 0.015791118 -0.15420465 0.11849013 0.14465004 -0.11734734 0.17188089 0.07011027
0.007922912 0.07940664 0.04569791 0.11745013 0.05985314 -0.14266902 -0.06428303 0.07305852
0.17457615 0.15073895 0.15876824 -0.12511954 0.1453872 -0.021414265 0.1271217 0.064618304
0.14934185 0.14871685 0.15767296 -0.13829887 0.108905576 -0.035535883 -0.13951637 -0.023191303
0.0292379 -0.11610365 -0.0025281787 -0.0764268 -0.15433504 -0.14371178 -0.106086984 0.030121215
0.040020246 0.04221348 -0.017933547 -0.12180881 -0.17372394 0.15294236 -0.055928487 0.0097534545
0.051127814 0.03118359 0.041825984 0.10807063 0.01811185 0.056455936 -0.090794675 -0.17261578
0.049018826 0.026106812 0.1100304 0.04437081 0.048588656 0.12482097 -0.12270075 -0.08581836
0.013868799 0.019780254 0.05546365 -0.15502048 -0.03639138 0.106002465 -0.026655458 -0.027453655
-0.15466486 0.014102736 0.14552803 -0.16896202 0.15120533 -0.095916614 0.11947674 -0.13594884
-0.07253981 -0.09557725 -0.16053298 -0.066024326 0.069750145 -0.15020856 -0.028355515 0.16538088
-0.074563906 0.14288989 -0.02759883 -0.099362016 -0.08745852 0.08795499 -0.033427108 -0.017901158
0.07790598 0.13057083 -0.08160283 -0.038807027 -0.17615636 -0.08726109 0.10439477 -0.17633416
0.048572786 -0.1103234 -0.16517505 -0.1505186 0.16974555 0.16375382 0.15585184 0.035570927
-0.14555898 0.10049817 -0.08416947 -0.08189208 0.109807394 0.15780863 -0.074690975 0.15265721
0.06211316 0.13312931 0.15967196 0.1739533 0.05108499 0.02501329 0.11048992 0.011713136
0.012893332 0.06518349 -0.08763343 0.1668134 -0.10591741 -0.08724071 -0.0011674677 0.17125714
0.12519546 -0.12389936 -0.15251654 -0.029409122 0.116271265 -0.05542793 0.056547582 -0.114561915
0.05066403 -0.052487683 -0.11452139 -0.120474696 -0.15404932 -0.08271237 -0.09820778 0.15391934
-0.076367326 0.07071417 -0.07000109 -0.12444953 0.029257119 -0.08162068 0.08093306 0.060648702
-0.0034939104 0.14832637 -0.059097763 -0.079484954 -0.14089912 0.049558897 -0.11377164 0.16802423
0.011980199 -0.055854708 -0.15305491 0.039316475 -0.15271516 0.03643319 -0.102424026 0.046925984
0.056930676 0.028726807 -0.108927414 0.022934312 0.1766674 -0.090693824 -0.06428589 -0.03657653

fc2.bias f4 [64]
00000000: 428b 06be 5260 333e 2b05 d7bc 4b48 95ba
00000010: 6f64 783c e0bd 8ebd 8359 57bd 28f1 803a
00000020: c6ce 44bc 712c 453d 214a 1cbe 2a68 d33d
00000030: f62a febd 3991 913d f3c7 2ebd 0f8c d3bd
00000040: 10e2 dd3c 414a 4dbd 4dc0 023e d622 913c
00000050: 45ab 903d 2e07 033d 959b 81bd 1a3b edbb
00000060: c379 e6bd 263f e6bd cae3 2ebe aa77 283e
00000070: 1c7c bf3d 8afd 943d 3158 86bd de34 483c
00000080: 1c0c 253e 0036 0fbe 10de 0d3e d0f3 0dbe
00000090: cd37 b63d ea33 153e 660f 283e e8e0 03be
000000a0: 7723 1c3d 1478 a6bd 7997 0a3e f60c febd
000000b0: f935 613d 462c d63d 28db ddbd 7cff 0abe
000000c0: 0d45 14bc 5511 c03d 8b74 1dbe 8685 fe3d
000000d0: 32f3 9fbd 7ab6 ad3d 0897 c63b b41a dbbd
000000e0: 67ff 30bb fba4 33be a5f6 01be a914 ca3d
000000f0: 10db 503d 59d8 b6bd 03d3 c9bc 385b 143e
-0.1313906 0.17517212 -0.026247581 -0.0011389343 0.015160664 -0.069698095 -0.0525756 0.0009837495
-0.012012189 0.048138086 -0.15262653 0.10322602 -0.12410538 0.07107777 -0.042671155 -0.103294484
0.027085334 -0.050119642 0.1276867 0.017716806 0.07063917 0.03198927 -0.06328503 -0.0072397115
-0.11253693 -0.11242513 -0.17079082 0.16451898 0.09349844 0.07274921 -0.0655979 0.012219636
0.161179 -0.13985443 0.13854241 -0.13862538 0.08897362 0.14570585 0.16412124 -0.12878764
0.03811976 -0.08128372 0.13534345 -0.12404816 0.054983113 0.10457663 -0.10832816 -0.13574022
-0.009049666 0.09378306 -0.15376489 0.12427811 -0.07810058 0.0848207 0.006060485 -0.106984526
-0.00270077 -0.17543404 -0.12691744 0.09867222 0.050990164 -0.08927984 -0.024636751 0.14487922

fc3.weight f4 [10, 64]
00000000: 18e7 3b3d 84bb 193d ca00 dbbd 9c58 c73d
00000010: ecbf 5b3d a8e3 2b3d b81e 923c 106a c63d
00000020: 3c4d b43d 8043 853b 882f 75bd 1401 3f3d
00000030: dc38 c23d 1890 82bc d615 a1bd 648a de3d
00000040: b26f a13d a062 cb3b 740d 06bd 2017 773c
00000050: b4f2 3f3d c82a 493d 4853 91bd 1470 febd
00000060: aac7 f1bd fa4c 8bbd d8f3 f8bc 38f6 48bd
00000070: b0b4 25bd 80aa 6c3c c07b 57bb 1809 c9bd
00000080: 6ec0 f1bd d852 0fbd e8f5 11bd d04d 353c
00000090: b8e0 60bd 5058 65bd 84a6 7fbd 4e6c c83d
000000a0: 308a 21bc 482a 823c 4892 ca3d a088 df3b
000000b0: d8e6 9abc 32cf f3bd 722a acbd 5a13 8abd
000000c0: d8fa 033d 7865 e43d ae52 9d3d 506d 4a3c
000000d0: 22b7 babd a87d 9dbc da7b 873d 30f3 13bd
000000e0: 702f 9d3d d00e a93d e86a 98bd 3e01 a2bd
000000f0: 7e8f 81bd 68e6 063d fc87 de3d c877 523d
00000100: d4d5 5cbd d47a 033d 603d e33d f2df b53d
00000110: f4d3 223d bc92 8abd a84e df3c d8ad 553d
00000120: 3c89 f8bd 80f8 99bc e4cb e53d 8e3b 803d
00000130: 48e9 873d cadd dbbd 7cc8 b63d feea f5bd
00000140: 10e9 d4bc 6c68 703d 2019 543c fc49 3fbd
00000150: d0a3 ebbd 006a df3d 643a ab3d 6ea5 b53d
00000160: ce68 c0bd 806e 063d 0c4a f23d 2490 4c3d
00000170: fc46 473d 6c13 a23d 2c62 febd b461 003d
00000180: 1e34 ad3d c2e6 b03d b89d a63d a078 e13b
00000190: b21c 943d b89d c4bd d87b b9bd 0cef 44bd
000001a0: 4cc0 91bd 28be 38bd 1649 8a3d 9468 3abd
000001b0: a0f9 893b f0a2 f43c e03e 0cbc a836 e7bd
000001c0: 78fa 643d 6c63 6abd 00c4 e3bc bcd3 89bd
000001d0: 2e91 a73d b864 113d 7629 803d c0b2 a3bb
000001e0: a6c8 88bd cc73 7dbd c8a8 df3c c01a fc3c
000001f0: 406c 7fbb 3e9e 953d 3830 f1bc 60d3 a83c
00000200: d84f ec3c f0f6 913d 8064 cebd 7e0c bcbd
00000210: 44ff 99bd 76cd cbbd 782d a4bc 90c0 e23d
00000220: e487 84bd 108f 833d 508f 283d 4a16 a9bd
00000230: 8010 d7bc b624 80bd 2222 f63d dc3e 96bd
00000240: 780a 27bd 004c bbbd 54e2 a93d e083 5fbd
00000250: 6023 ed3b 74f7 af3d 0a9d f5bd 58cc 97bd
00000260: 8cd5 7f3d a0c2 9dbc 4259 d43d 54f5 32bd
00000270: a038 203d c80c 783d d466 3ebd c0d1 c03d
00000280: a0f3 afbc 6e40 8ebd 1000 babc 5479 783d
00000290: 9438 803d 4ca8 dbbd 8214 bbbd 6a06 b93d
000002a0: d8b8 433d 6ae9 b43d d0ac c23d 7422 27bd
000002b0: 16ad d6bd d0a2 89bc 3c8b c03d 14b1 bebd
000002c0: f076 743d 58c0 7abd 7a6f 943d 4c3a 1a3d
000002d0: 50e5 babd 6ea9 fabd 042e 7b3d 507e ee3c
000002e0: 36ed fdbd 2c24 913d 440e f03d 403c b6bb
000002f0: 649a bf3d fc11 5abd 20d4 58bd 52b0 f93d
00000300: b8c8 41bd d492 86bd ace5 c2bd b2d8 853d
00000310: 76e1 dcbd 305e 26bd a8e8 89bd 8044 88bc
00000320: 50b6 2fbc 14f8 e4bd 100b 64bc 7885 b1bd
00000330: 6215 bc3d 80ce c03d 00a3 043d d816 3b3d
00000340: 94b8 033d 30d9 5fbc d6ae ca3d e47d 923d
00000350: a86d 963c 006d 07ba e405 093d dc83 b9bd
00000360: a627 e03d a61c d83d f02b f93d b482 e73d
00000370: fc4b afbd 905c 54bc 8803 65bd dc92 5a3d
00000380: 9002 543c 9ee3 c0bd 0037 c63b 8049 c03b
00000390: d8f6 d83c a8b8 f33c 34b1 87bd f4a7 fabd
000003a0: f8f1 6fbd b802 d9bd 2c5c dd3d 18f1 a93d
000003b0: ea61 843d 0cb8 eabd 78df d7bc f02e 13bc
000003c0: 8aa1 903d 6004 a1bc ae2e afbd b04e 52bc
000003d0: 5051 6ebc e84a f63c 4ca4 3f3d 4eff 8cbd
000003e0: f2ef d63d 6c32 d83d 2caf 4d3d c8e7 60bd
000003f0: 8a28 efbd 2049 d53d b020 1fbc a4b6 f63d
0.045874685 0.037532344 -0.1069351 0.09733698 0.053649828 0.041965157 0.017836913 0.096881986
0.08803794 0.0040668845 -0.059859782 0.046631888 0.09483501 -0.01593785 -0.07865493 0.1086624
0.07882632 0.0062068254 -0.032727674 0.015081197 0.04686232 0.049113065 -0.07095963 -0.12423721
-0.11805661 -0.068017915 -0.030389711 -0.049062937 -0.04045552 0.014444947 -0.0032880157 -0.098161876
-0.11804281 -0.034991115 -0.035634905 0.011065915 -0.05490181 -0.055992424 -0.06241466 0.097862825
-0.009859607 0.015889302 0.09891182 0.006821707 -0.018908903 -0.11904754 -0.08406533 -0.06741972
0.032221645 0.11152166 0.076817855 0.012355164 -0.09116961 -0.019224957 0.0661542 -0.036120594
0.076750636 0.082547784 -0.07442266 -0.07910393 -0.06326197 0.032934576 0.10865781 0.051383764
-0.05391486 0.03209956 0.11095691 0.08880605 0.039752916 -0.067662686 0.027259186 0.052167743
-0.121355504 -0.018795252 0.1122053 0.06261359 0.06636292 -0.10735662 0.08924958 -0.12007712
-0.02599004 0.058693334 0.012945443 -0.046701416 -0.11505854 0.1090889 0.083607465 0.08869444
-0.0939499 0.032820225 0.118305296 0.04994215 0.04865168 0.07913861 -0.124210685 0.031343177
0.08457206 0.086377636 0.08135551 0.0068808347 0.07232036 -0.09600395 -0.090568244 -0.048079535
-0.07116756 -0.045103222 0.06752221 -0.04550989 0.004210666 0.02986285 -0.008559912 -0.11289722
0.055902928 -0.057223722 -0.027803421 -0.06729838 0.08181988 0.035496444 0.06257908 -0.004995674
-0.06678896 -0.06187801 0.02730216 0.030774474 -0.0038974434 0.07305573 -0.029441938 0.020608604
0.028846666 0.07127178 -0.100777626 -0.0918207 -0.07519391 -0.09951298 -0.020041212 0.11071885
-0.064712316 0.064237714 0.0411523 -0.082562044 -0.026252985 -0.06257002 0.12018229 -0.07336208
-0.04078147 -0.09145355 0.08295122 -0.054569125 0.007236883 0.0859212 -0.119928434 -0.07412022
0.062459514 -0.019257843 0.10368587 -0.043690994 0.0391165 0.060559064 -0.046484783 0.09415007
-0.021478474 -0.06945883 -0.022705108 0.060662583 0.062607914 -0.107254595 -0.09134771 0.090344265
0.047783703 0.08833583 0.095056176 -0.04080434 -0.10482232 -0.016801268 0.09401557 -0.09311119
0.05968374 -0.06121859 0.07247825 0.037653252 -0.09125769 -0.122393474 0.06132318 0.029112965
-0.1239876 0.07086977 0.11721471 -0.0055613816 0.093556195 -0.053239807 -0.052936673 0.121918336
-0.04731056 -0.06570974 -0.09516463 0.06535472 -0.10785191 -0.040617168 -0.06733829 -0.016634226
-0.010724619 -0.1118013 -0.013918653 -0.08668035 0.09183766 0.09414387 0.03238201 0.045676082
0.03215845 -0.013662621 0.098966286 0.07152918 0.018362835 -0.00051660836 0.033452883 -0.09058353
0.10945062 0.10552339 0.121665835 0.113042265 -0.08559415 -0.012961522 -0.05591157 0.053362712
0.012940064 -0.094184145 0.006049037 0.005868137 0.026484892 0.029751137 -0.06625596 -0.12239066
-0.05858037 -0.10596222 0.10808596 0.08297938 0.06463988 -0.114608854 -0.026351675 -0.008983359
0.07062061 -0.019655406 -0.08553825 -0.012836143 -0.014545754 0.030065015 0.046787545 -0.06884633
0.10494985 0.10556492 0.050215885 -0.054908544 -0.11677654 0.10414338 -0.009712383 0.12046555

fc3.bias f4 [10]
00000000: 8623 883d a893 e03d 88b0 09bd fc0e f0bd
00000010: 6ceb 813d c022 403d 78be 84bc b8bf e9bc
00000020: 18b6 93bd 7ce2 f53d
0.066474006 0.10965663 -0.03361562 -0.11721608 0.06343731 0.04690814 -0.016204104 -0.028533801
-0.07212466 0.12006089
