python_scripts/indicatrizC.pth (torch, 70135 bytes, 7 tensors)

fc1.weight f4 [64, 2]
0	0xbca81624	-0.02051837
1	0x41037de0	8.218231
2	0xbe41ee55	-0.18938573
3	0x3d3747f4	0.044746354
4	0xbf22bd0c	-0.6356971
5	0xbe99738d	-0.2997097
6	0xbf32c25a	-0.69827807
7	0x3f85592b	1.0417837
8	0xbe781689	-0.24227346
9	0x4080c8fd	4.0245347
10	0x3e07091c	0.13187069
11	0xbf856230	-1.042059
12	0xbf28b09a	-0.6589447
13	0xbf411825	-0.75427467
14	0xbeb45b2f	-0.35225818
15	0xbbe31627	-0.006930131
16	0xbf26fe8a	-0.65232146
17	0xbfdd8808	-1.7307138
18	0xbf15ca2b	-0.5851161
19	0x3e8ce379	0.27517298
20	0xbea34288	-0.31886697
21	0xbe86ca81	-0.26326373
22	0xbeed5800	-0.463562
23	0x3cfdc814	0.030979194
24	0xbedc62a7	-0.43044016
25	0x3c9f057b	0.019411793
26	0x3e72dca2	0.23716977
27	0xbe9e85bd	-0.3096141
28	0xbec42aac	-0.38313806
29	0xbcc0e5d2	-0.023547087
30	0x3c1cdfba	0.009574825
31	0xbcb4f26d	-0.022088254
32	0xbe6836d2	-0.22677162
33	0x3b06e446	0.002058284
34	0xbeb1bde0	-0.34715176
35	0x3f38f8c2	0.72254574
36	0xbbdeee05	-0.0068032765
37	0xc0a5a334	-5.1761723
38	0xbf144494	-0.5791714
39	0xbf4d79e7	-0.80264133
40	0xbd99b184	-0.075045615
41	0x3d653767	0.05596104
42	0x3ee5ae42	0.4485951
43	0xc08a8dec	-4.3298244
44	0xbe70aeae	-0.23504135
45	0xbe623517	-0.22090565
46	0x3ad3305e	0.0016112437
47	0x3e0c5b0e	0.1370661
48	0xbb5a31a5	-0.003329375
49	0x3deffab5	0.117177404
50	0xbf304bbf	-0.6886558
51	0x3ecdce98	0.4019668
52	0xbec1291c	-0.37726676
53	0x40e2276a	7.0673113
54	0x3ef04e6e	0.46934837
55	0x3c1846a8	0.0092941895
56	0xbf25b32c	-0.6472652
57	0xbf047c32	-0.51752007
58	0xbee9dd8b	-0.45676836
59	0xbf2a2e6c	-0.66477084
60	0xbf3229a9	-0.6959482
61	0x3c013f84	0.007888678
62	0xbf1d40df	-0.6142711
63	0xbe94a451	-0.29031613
64	0xbf07a280	-0.5298233
65	0x4088a294	4.269846
66	0xbf36a2eb	-0.71342343
67	0xbf0f79c4	-0.56045175
68	0xbf020e57	-0.5080313
69	0xbe428ba5	-0.18998583
70	0xbec8aa7f	-0.39192578
71	0x3e9fda68	0.31221318
72	0x3e49992e	0.1968734
73	0xbfabe3cb	-1.3428892
74	0xbd2e4de4	-0.04255475
75	0x3f068f69	0.52562577
76	0xbf032a43	-0.5123636
77	0xbf387473	-0.7205269
78	0xbcf56da0	-0.0299595
79	0x3f95333a	1.1656258
80	0x3e3ab3e5	0.18232687
81	0x400db981	2.2144473
82	0x3e3a72d9	0.18207873
83	0x408073fa	4.0141573
84	0x3db6385e	0.0889747
85	0xc06bb2c5	-3.6827862
86	0xbebfe19b	-0.3747681
87	0x3f0c0171	0.546897
88	0x3e384a2f	0.17997049
89	0xbd9e9247	-0.07742744
90	0xbda13579	-0.07871527
91	0xbf1357ff	-0.57556146
92	0xbe00f6fb	-0.12594216
93	0x401d7553	2.460286
94	0xbee11338	-0.43959975
95	0x3b290d99	0.0025795458
96	0xbc29de41	-0.010367931
97	0xbd7b0f5f	-0.061293956
98	0xbeba32fa	-0.36367017
99	0x403a74e7	2.9133852
100	0xbd747012	-0.05967719
101	0x4100b6f7	8.044669
102	0x3e3baf78	0.18328655
103	0xbf1a0c87	-0.60175365
104	0xbf0b9014	-0.5451672
105	0xbd4fdf36	-0.05074998
106	0xbf885954	-1.0652261
107	0x3fe25f5d	1.7685353
108	0xbe28b3ff	-0.16474913
109	0xc033a35b	-2.8068454
110	0xbf11a5f9	-0.5689388
111	0xbe9dedd0	-0.308455
112	0x3e86e24d	0.2634453
113	0x40aabe28	5.3357124
114	0xbe9d4759	-0.30718496
115	0xbb431529	-0.002976725
116	0xbf226588	-0.63436174
117	0x3ee32ee3	0.4437171
118	0xbf5254c7	-0.8216061
119	0x3f504416	0.8135389
120	0xbef16ded	-0.4715418
121	0xbf1da5bb	-0.6158101
122	0x3ab28d5b	0.001362245
123	0x3da31107	0.07962232
124	0xbf118ee9	-0.5685869
125	0x3b5d9414	0.0033810185
126	0xbf092808	-0.5357671
127	0xbcf408e2	-0.029789392

fc1.bias f4 [64]
0	0x40fc9d07	7.8941684
1	0x41128515	9.157491
2	0x4018c4b4	2.3870058
3	0x3fa3e260	1.2803459
4	0x3fa2a778	1.2707357
5	0xc0806652	-4.0124903
6	0xbf010bf2	-0.5040885
7	0x3f1f194f	0.6214799
8	0x3f68c847	0.909306
9	0x3efec743	0.497614
10	0xbc73237a	-0.014840001
11	0x40500574	3.2503328
12	0x400adb00	2.1696167
13	0xc0621ff7	-3.533201
14	0x3f2ee6ca	0.68320906
15	0xc08ec2c3	-4.4612746
16	0x40fc9d80	7.894226
17	0x3e2dad51	0.16960646
18	0x40ad4bac	5.4154873
19	0xbc60a4ae	-0.013711138
20	0xbe7e45a7	-0.24831258
21	0xc00cbfa9	-2.199198
22	0xbf216ddc	-0.6305826
23	0xbf8ccef7	-1.1000661
24	0xbf140d3a	-0.5783268
25	0x3ea2f03e	0.31823915
26	0xbf44160f	-0.7659616
27	0xc0953012	-4.662118
28	0xbda6f80d	-0.08152781
29	0x3ffdb6d0	1.9821415
30	0x402c61dc	2.6934729
31	0x3f9839fd	1.1892697
32	0x402bf148	2.6866016
33	0xbcbcc421	-0.02304274
34	0x40546d9b	3.3191898
35	0xbe9bb5f1	-0.30412248
36	0x3ea285b7	0.3174264
37	0xc0025412	-2.0363812
38	0xbc1dc26b	-0.009628872
39	0x40cb1efa	6.3475313
40	0x4093d69f	4.619949
41	0x3fbbd257	1.4673566
42	0x409d135b	4.9086127
43	0x3ee46e01	0.44615176
44	0xc16c40cf	-14.765822
45	0x411489f3	9.283679
46	0x411a2867	9.634864
47	0x3fa3a708	1.2785349
48	0xbe93c030	-0.28857565
49	0x414a8ccb	12.659373
50	0x407cb30a	3.9484277
51	0xc12a8902	-10.658449
52	0x409d7563	4.9205794
53	0x401334b7	2.3000925
54	0xc003aee4	-2.0575495
55	0x400575d6	2.0853171
56	0x3f1db151	0.6159869
57	0x3f5dedb6	0.86690843
58	0xbdf5f83a	-0.12010236
59	0x3c24fa33	0.010069418
60	0x3f73ec16	0.95282114
61	0xbf2c10d3	-0.6721317
62	0x3fd5e7b7	1.6711339
63	0xbea1babf	-0.31587788

fc2.weight f4 [128, 64]
0	0x3c49c86e	0.012315853
1	0xbcb0be28	-0.021575049
2	0xbc7e1964	-0.015508983
3	0x3e52b750	0.2057774
4	0xbd91ff12	-0.07128729
5	0xbe58f84f	-0.21188472
6	0xbed5d785	-0.4176599
7	0x3bdb9c05	0.0067019486
8	0x3ed287d5	0.41119257
9	0x3dd82aac	0.10555014
10	0xbdebff88	-0.11523348
11	0x3d06b24c	0.03288488
12	0xbeb70b81	-0.35750964
13	0xbdeb3ce8	-0.11486226
14	0xbe31a294	-0.17347175
15	0xbf68bc11	-0.90911967
16	0x3db7a6c7	0.08967357
17	0xbdd1431a	-0.10217877
18	0x3dc001d3	0.09375348
19	0xbe082c2b	-0.13298099
20	0xbe0a2efd	-0.13494487
21	0xbd0f3d66	-0.034970663
22	0xbe018ecf	-0.12652133
23	0xbed122aa	-0.4084676
24	0xbe2fe9d7	-0.17179047
25	0x3c428007	0.011871344
26	0xbd708170	-0.05871719
27	0xbf0d7a9e	-0.55265224
28	0xbe48dd0a	-0.1961557
29	0x3e941353	0.28920993
30	0xbf0b6472	-0.5445014
31	0xbeb7f07d	-0.35925665
32	0xbe0b21ad	-0.13587065
33	0xbe18b2cf	-0.1491196
34	0x3d64deda	0.05587659
35	0x3dce8790	0.1008445
36	0xbd58797b	-0.052850228
37	0xbdde0fe4	-0.10842875
38	0xbddac869	-0.106827565
39	0xbe897597	-0.26847526
40	0xbec7d840	-0.39032173
41	0xbb61fc10	-0.0034482516
42	0xbe5e04c3	-0.21681504
43	0x3e58e77a	0.21182051
44	0xbeb83f4b	-0.3598579
45	0xbcfec417	-0.031099362
46	0xbec6499d	-0.38728037
47	0xbf0f53e7	-0.559874
48	0xbfcc37e9	-1.5954562
49	0x3de262e7	0.110540204
50	0x3d268e6d	0.04066317
51	0xbeeda77f	-0.46416852
52	0xbf18921e	-0.5959796
53	0x3e8ad0d2	0.27112442
54	0xbd297c8c	-0.041378543
55	0x3e5c2455	0.21498235
56	0xbedac22d	-0.4272627
57	0xbea032bc	-0.31288707
58	0xbd516fc4	-0.05113198
59	0x3e800be7	0.2500908
60	0xbed07dbb	-0.40720925
61	0xbf92acd9	-1.1458999
62	0xbf3b4ae8	-0.7316117
63	0xbd362ce0	-0.04447639
64	0x3e35bc46	0.17747602
65	0xbd91f554	-0.07126871
66	0xc0458def	-3.086788
67	0xbee26bc4	-0.44222844
68	0xbd0c28f5	-0.034218747
69	0xbf8ec36e	-1.115339
70	0x3cfa8d65	0.030585
71	0xbca08652	-0.019595299
72	0xbef89a6d	-0.48555318
73	0xbaacc19f	-0.0013180262
74	0xbdfa9bec	-0.12236771
75	0x3f187741	0.5955697
76	0x3d9011aa	0.07034619
77	0x3d342c3a	0.04398749
78	0xbdf4abe1	-0.11946846
79	0x3eef44e7	0.46732256
80	0x3f8fe2a1	1.1241037
81	0xbca943da	-0.020662237
82	0xc054c66b	-3.3246105
83	0xbda253a0	-0.079261065
84	0xbd87b3eb	-0.066261135
85	0xbf63175b	-0.8870751
86	0xbc5312cb	-0.012882899
87	0x3df1a537	0.1179909
88	0x3d9ea483	0.07746222
89	0xbe7456b5	-0.23861201
90	0x3cc84a03	0.024449354
91	0x3dd08059	0.101807304
92	0x3c26b1e9	0.010174253
93	0x3e445dc2	0.19176391
94	0x3fbc8dbd	1.4730755
95	0xbc914cfb	-0.017736902
96	0xbdf4dee5	-0.11956576
97	0x3d921139	0.07132191
98	0xc039d8af	-2.9038503
99	0xbeada7d9	-0.3391712
100	0xbe93e5c4	-0.28886235
101	0x3b42a9b0	0.0029703192
102	0xbd8c3960	-0.06846881
103	0xbcd00977	-0.025395138
104	0xbd3e451d	-0.04645263
105	0xbdc31121	-0.095247515
106	0xbe098f5d	-0.13433595
107	0x3d20e6e8	0.03928271
108	0xbe1e5796	-0.15463099
109	0xbe0def1b	-0.13860743
110	0xbd340d17	-0.043957796
111	0x3cc980f9	0.024597632
112	0x3d69e60a	0.057104148
113	0xbf387641	-0.7205544
114	0x3e0bdb23	0.13657813
115	0xbeca4f50	-0.39513636
116	0xbfb124c6	-1.3839347
117	0x3e8e50c3	0.2779599
118	0xbfb4b8ef	-1.4118937
119	0xbe151b16	-0.14561114
120	0xbdb846bd	-0.08997867
121	0x3dd7429e	0.10510753
122	0xbe565bc5	-0.20933445
123	0x3f405b3a	0.751392
124	0xbdd91077	-0.105988435
125	0x3dd89027	0.1057437
126	0x3d3542d1	0.044253174
127	0xbdd7a736	-0.1052994
128	0x3f219bc3	0.631283
129	0xbf039198	-0.51394033
130	0xbd9c94f0	-0.07645595
131	0x3f52f8e4	0.82411027
132	0x3f5d7247	0.865025
133	0xbf84df1a	-1.0380585
134	0xbe9accae	-0.30234283
135	0xbf1b3e5a	-0.60642016
136	0xc06b7b21	-3.6793902
137	0x3ea2cded	0.31797734
138	0x3d62e0ba	0.055390097
139	0x3f66ed44	0.9020579
140	0x3f0df9c5	0.55459243
141	0xc02b0591	-2.6722147
142	0xbe089c25	-0.13340814
143	0xbff21f72	-1.8915846
144	0x3f3830ca	0.71949446
145	0xbe36993a	-0.17831889
146	0x3fd7280d	1.6809098
147	0x3ed3fe72	0.41405064
148	0xbf2f303f	-0.6843299
149	0x3e949e6a	0.2902711
150	0x3e85fd83	0.26169977
151	0xbea5cd39	-0.32383135
152	0xbfbb584b	-1.463632
153	0x3f08d068	0.53443
154	0x3f97b3a5	1.1851698
155	0xc098bd61	-4.7731175
156	0xbdb62ba8	-0.088950455
157	0xc032bbcf	-2.792713
158	0xbf51e6d5	-0.81992847
159	0xbde39830	-0.11113012
160	0x3fc9c8a9	1.5764362
161	0xbe954aba	-0.29158574
162	0x3fa2ced9	1.2719375
163	0x3e339554	0.17537433
164	0x3ed8cea4	0.42345154
165	0xc01e76bc	-2.475997
166	0xbddb4c97	-0.10707968
167	0xbdd24c4c	-0.10268459
168	0xbfb37a2c	-1.4021659
169	0xbe44291d	-0.19156308
170	0xbf0c4ef3	-0.54807967
171	0x3ec6f79d	0.3886079
172	0xbe4a6f53	-0.1976903
173	0xbf371a9e	-0.7152499
174	0xbf547422	-0.82989705
175	0x3e407d72	0.18797854
176	0xbfdf0e6b	-1.7426275
177	0xbf422a2b	-0.75845593
178	0x3f53515d	0.82546026
179	0xbe8f4a4e	-0.27986377
180	0xbf9ebe66	-1.2401855
181	0x3f8d6039	1.104499
182	0x3ee8db98	0.45480037
183	0x3f6d686c	0.9273746
184	0xbf651924	-0.89491487
185	0xbdc0003d	-0.093750454
186	0x3e398a0d	0.18119068
187	0x3f152098	0.5825286
188	0x3e7bcc06	0.24589548
189	0xbff37828	-1.9021044
190	0xbfb58169	-1.4180118
191	0x3d247bf8	0.04015729
192	0xbd1229a8	-0.035684258
193	0xbe652ec0	-0.22381115
194	0xbe13e0db	-0.14441244
195	0x3d984fe1	0.07437111
196	0xbd30975a	-0.04311309
197	0x3c4a0396	0.0123299565
198	0x3df116de	0.1177194
199	0xbd614a97	-0.055002775
200	0xbb928240	-0.0044710934
201	0x3d17e580	0.037084103
202	0xbdc4221e	-0.0957682
203	0xbde1c265	-0.11023406
204	0x3df18b42	0.117941394
205	0xbd4316c8	-0.047629148
206	0xbe050c39	-0.12992944
207	0xbdbd7bf3	-0.09252157
208	0xbe574eae	-0.21026108
209	0xbd6f859b	-0.058477025
210	0xbd711412	-0.05885703
211	0xbda684f0	-0.081308246
212	0x3d22cfdc	0.03974901
213	0x3c317b66	0.010832643
214	0xbd271a08	-0.04079631
215	0xbbb3657b	-0.005474744
216	0x3c27ceb0	0.010242149
217	0x3c5a5f65	0.013328408
218	0x3d37add9	0.04484353
219	0xbd7e055d	-0.062016834
220	0xbdc9313e	-0.09823845
221	0x3dc2c710	0.095106244
222	0x3cd9d3db	0.026590278
223	0xbc96cfc0	-0.01840961
224	0xbd64c215	-0.055849154
225	0xbd3db370	-0.046313703
226	0xbe0265bc	-0.12734121
227	0x3dbfe527	0.09369879
228	0xbe01a69e	-0.12661216
229	0xbe5154bc	-0.2044248
230	0x3dcf5810	0.101242185
231	0xbe2abec7	-0.16674338
232	0xbda18dfa	-0.07888408
233	0xbea38590	-0.31937838
234	0x3d20c175	0.039246995
235	0xbd999615	-0.07499329
236	0xbdf586d6	-0.119886085
237	0xbd62cc2c	-0.055370495
238	0xbd93dbd0	-0.0721966
239	0xbd9c3c6c	-0.07628712
240	0xb92f4cfc	-0.0001671798
241	0xbd3605aa	-0.044438995
242	0x3da5f121	0.08102632
243	0xbd56ecde	-0.052471988
244	0xbd7135a0	-0.05888903
245	0xbe0a3173	-0.13495426
246	0x3e16368a	0.14669243
247	0xbd8c1a94	-0.06841007
248	0xbea6d253	-0.3258234
249	0xbdb99ea2	-0.0906346
250	0xbd1b9b89	-0.037990127
251	0xbdd68ae9	-0.10475714
252	0x3d62c8d0	0.05536729
253	0xbe1e0935	-0.154332
254	0xba70b254	-0.00091818464
255	0x3c8a8a30	0.016911596

fc2.bias f4 [128]
0	0x3e57d022	0.2107549
1	0xbf4de358	-0.80425024
2	0xbf4bca09	-0.79605156
3	0xbddb0c44	-0.10695699
4	0x3df959db	0.12175342
5	0xbf9b7f8a	-1.2148297
6	0x3da65117	0.081209354
7	0x3eff12b6	0.49818963
8	0x3def0be4	0.1167219
9	0xbea8f749	-0.33001164
10	0x3d3359e6	0.043786906
11	0x3f24c00a	0.6435553
12	0x3e1ab0d6	0.1510652
13	0x3fe43fb5	1.7831942
14	0xbd9f68fc	-0.07783696
15	0xbff4753f	-1.9098281
16	0x3e854746	0.2603094
17	0xbdc79cb2	-0.09746684
18	0xbe0abe08	-0.13549054
19	0xbe62c960	-0.22147131
20	0x3c81511b	0.015785744
21	0x3dde1535	0.10843889
22	0x3e3b6a83	0.1830235
23	0xbef3777d	-0.475521
24	0x4025d3cb	2.5910518
25	0x3e21d6c7	0.15804587
26	0x3e4503cb	0.19239728
27	0xbe0ecfea	-0.139465
28	0xbe513c03	-0.20433049
29	0xbe661c02	-0.22471622
30	0xbd9ac26e	-0.07556616
31	0x4098e8e1	4.7784276
32	0xbea912de	-0.33022207
33	0xbf09590c	-0.536515
34	0x3d2aebac	0.04172866
35	0xbf8d284b	-1.1027921
36	0xbc16e96b	-0.009210925
37	0xc00527d5	-2.0805562
38	0xbe19068e	-0.14943907
39	0x3e3d57a8	0.1849047
40	0xbded262b	-0.115795456
41	0xbf240032	-0.640628
42	0xbc86e62d	-0.016467178
43	0x3ef9a1ce	0.4875626
44	0x3f01f585	0.5076526
45	0xbec6acd5	-0.38803735
46	0xbdd38ede	-0.10329984
47	0x3cd27799	0.025691794
48	0xbdb7904a	-0.08963068
49	0x3f90c3d8	1.1309767
50	0x3cc7332d	0.024316395
51	0xbcd6d5af	-0.02622494
52	0x3f9856e7	1.190152
53	0x3d9a99a6	0.07548837
54	0x3ed8e010	0.42358446
55	0xbf11e1bd	-0.56985074
56	0xbd773f55	-0.060363133
57	0x3e44c16d	0.19214411
58	0x3e8bfb29	0.27340057
59	0xbf3368c4	-0.70081735
60	0xbe9eaff9	-0.3099363
61	0xbdc83836	-0.097763464
62	0x3e45ee11	0.19329096
63	0xbe21fbe8	-0.15818751
64	0x3e123fb2	0.1428211
65	0xbddbfe64	-0.107418805
66	0x3d3a98b7	0.045555796
67	0xbe5d6759	-0.21621455
68	0x3effd96b	0.49970564
69	0x3fc785d4	1.5587716
70	0xbeb26933	-0.34845886
71	0xc0670d8d	-3.610202
72	0x3fec9a1b	1.8484529
73	0xbe9d6ea9	-0.3074849
74	0x3ef06284	0.4695016
75	0xbebb76b8	-0.36614013
76	0xbd7476f0	-0.05968374
77	0x3e6fce33	0.23418503
78	0x3e88afc5	0.26696602
79	0x3d369063	0.04457129
80	0x3e969d55	0.2941691
81	0xbda2999d	-0.07939456
82	0xbc8cc002	-0.0171814
83	0xbeb42df4	-0.3519131
84	0xbd80e899	-0.062943645
85	0x3e740139	0.23828591
86	0xbe646514	-0.22304183
87	0x3db2cd38	0.087305486
88	0xbf8bae83	-1.0912632
89	0x3eb4fa1a	0.35347062
90	0x3d29d528	0.041463047
91	0xbe38dbbf	-0.18052576
92	0xbf1cc169	-0.6123262
93	0x3db2b9d9	0.08726854
94	0xbe0f5be3	-0.13999896
95	0xbfb79a7e	-1.4344022
96	0xbf55b8a9	-0.83484894
97	0x3ec8dbd4	0.39230216
98	0x3f4d8276	0.8027719
99	0xba38e716	-0.00070534775
100	0x3f235c91	0.6381312
101	0x3fbc60a3	1.4716991
102	0x3e0e40b3	0.13891868
103	0xbdca310b	-0.098726355
104	0xbf3141de	-0.6924113
105	0x401c69c9	2.4439566
106	0xbea8ba80	-0.32954788
107	0xbd09ffe8	-0.033691317
108	0x3f375096	0.7160734
109	0xbfb14bbb	-1.3851236
110	0xbe5b8aec	-0.21439713
111	0x404fd7b8	3.2475414
112	0xbd261cfc	-0.040554985
113	0x40b53519	5.6627316
114	0x3f437398	0.7634826
115	0x3e61a1a1	0.22034313
116	0xbe988569	-0.29789284
117	0x3fee9e61	1.8642083
118	0x3ccb89c4	0.024845965
119	0x3dead773	0.11466875
120	0xbf470002	-0.77734387
121	0x3f9a6507	1.2062081
122	0x3ecab2bf	0.39589497
123	0xbfb2af09	-1.3959666
124	0xbd2bae2c	-0.04191415
125	0x3ff42db7	1.9076451
126	0xbf65bb4b	-0.8973891
127	0xbd2b88f8	-0.04187867

fc3.weight f4 [64, 128]
0	0x3e5cd0c0	0.21564007
1	0xbd8c4182	-0.06848432
2	0xbf0efcb1	-0.55854326
3	0x3df929fc	0.12166211
4	0xbe93bc54	-0.2885462
5	0xbe4a1e7d	-0.19738193
6	0xbf717863	-0.9432432
7	0xbe1fcf1f	-0.15606354
8	0xbe4d3bba	-0.20042315
9	0xbe1d200e	-0.15344259
10	0x3c78d81f	0.015188246
11	0xc0e7082b	-7.219747
12	0xbede04af	-0.43362948
13	0xc1c4ec0e	-24.615261
14	0x3c2d3600	0.010571957
15	0xbffbc84a	-1.9670498
16	0xbe6fc3ef	-0.23414586
17	0xc09529b1	-4.6613393
18	0x3f164345	0.58696395
19	0xc1334d79	-11.206414
20	0xbdfb2b81	-0.12264157
21	0xbf0ff122	-0.56227314
22	0x3ed5adee	0.4173426
23	0xbe7d1d87	-0.24718295
24	0xc0bf12cf	-5.971046
25	0xbe81b02d	-0.25329724
26	0xbf1f8d1a	-0.6232468
27	0x3d93e2ff	0.072210304
28	0x3ed6a92c	0.41925943
29	0x3fda3f32	1.7050536
30	0xbdc2f68c	-0.09519681
31	0x40003695	2.0033314
32	0xbda22906	-0.07917981
33	0x3d299a8b	0.04140715
34	0x3f9bbf11	1.2167684
35	0x3eddbad3	0.43306598
36	0x3e0ac0b0	0.13550067
37	0xbdb18576	-0.08668034
38	0xbf0f9c99	-0.56098324
39	0xbef3410b	-0.4751056
40	0xbda7a2f2	-0.08185376
41	0x3e8e67dc	0.27813613
42	0xbef98558	-0.48734546
43	0xbed89302	-0.42299658
44	0xbe8e05d1	-0.27738813
45	0x3dfe7877	0.124253206
46	0xbd92a0b4	-0.07159558
47	0x3ea0c002	0.3139649
48	0xbeefbf76	-0.4682576
49	0xc05a367f	-3.4095762
50	0xbf2019c9	-0.62539345
51	0x3e48d5f2	0.19612864
52	0xbf193a8c	-0.5985496
53	0xbc20cb53	-0.009814101
54	0xbe62adcd	-0.22136612
55	0xbf864596	-1.0489986
56	0xbf4433df	-0.7664165
57	0xbd6b8278	-0.05749747
58	0xbdf22197	-0.11822813
59	0xbda27d1c	-0.07934019
60	0xbdbe3803	-0.09288027
61	0x3d3030ec	0.043015406
62	0xbea11604	-0.3146211
63	0x3f07158e	0.52767265
64	0xbea4287a	-0.3206213
65	0xbea3e50d	-0.3201069
66	0x3cb67720	0.0222736
67	0x3f873a0f	1.0564593
68	0x3f398c5e	0.7247981
69	0x3f0f5ec3	0.5600397
70	0xbe0e9b9c	-0.13926548
71	0xbfda0b6c	-1.7034736
72	0xbee51ed1	-0.44750074
73	0xbe7940b5	-0.2434109
74	0xbf062ca9	-0.52411896
75	0x3d015397	0.031573858
76	0xbe94962f	-0.2902083
77	0xbf7ad5eb	-0.9798266
78	0x3f1be17b	0.6089093
79	0xbefd7796	-0.495053
80	0x3ca31587	0.019907726
81	0xbd4b5f9a	-0.04965172
82	0xbd137747	-0.036002424
83	0x3d54107d	0.051773537
84	0x3f9eca62	1.2405512
85	0xbe502288	-0.20325673
86	0x3da4b04d	0.08041439
87	0xbd855a98	-0.0651142
88	0xbe83e32e	-0.25759262
89	0x3d00ba92	0.031427927
90	0xbf2e26ff	-0.68028253
91	0xbd61711f	-0.05503952
92	0x3e1fe24b	0.15613668
93	0xbf5295d0	-0.82259846
94	0xbd9596fe	-0.0730419
95	0xbc8cff9e	-0.017211732
96	0xc1d22982	-26.270267
97	0xbe68eb9a	-0.22746125
98	0x3d1937eb	0.037406843
99	0xbe24697b	-0.16055863
100	0xbe117b1f	-0.14207123
101	0x3eedfab1	0.46480325
102	0xbebd3cb5	-0.36960378
103	0x3e312a53	0.17301302
104	0x3bedbaaa	0.007254918
105	0x3f036cf2	0.5133811
106	0x3e3d45d7	0.18483673
107	0x3e6d7e72	0.23192766
108	0x3d52f6cb	0.05150489
109	0xbe010d59	-0.12602748
110	0x3e23e589	0.1600553
111	0x3f437b8e	0.76360404
112	0xbe96caa2	-0.29451472
113	0x3d91c1f5	0.071170725
114	0x41483013	12.511737
115	0xbf0a45c7	-0.5401272
116	0xbe3f3337	-0.1867188
117	0x3e3faf7c	0.18719286
118	0xbc84cbeb	-0.016210517
119	0xbf8bf1d1	-1.0933172
120	0xbd99fec5	-0.075192966
121	0xbda20c23	-0.07912471
122	0x3f10839e	0.5645083
123	0xbdf726fc	-0.120679826
124	0x3daed7a0	0.08537221
125	0xbf280c43	-0.6564371
126	0xbed89c3d	-0.423067
127	0xbd5cd46a	-0.05391351
128	0xbf900450	-1.1251316
129	0x3ebb1f5d	0.36547366
130	0xbf2aba83	-0.66690844
131	0xbda6d5f7	-0.08146279
132	0x3e16d5b6	0.14729962
133	0xbd1181fb	-0.03552435
134	0xbf45ffb2	-0.77343285
135	0x3fd9be87	1.7011269
136	0xbe1c68a5	-0.15274294
137	0xbd836331	-0.06415404
138	0x3dfb10eb	0.12259086
139	0x406bd1a9	3.6846716
140	0xbedcb1df	-0.43104455
141	0x3f90cb68	1.1312075
142	0xbd3c8aa5	-0.04603066
143	0x3de2f8b1	0.1108259
144	0x3d80fa94	0.06297794
145	0xc10578b3	-8.341968
146	0xbf98d8fa	-1.1941216
147	0xc034da0f	-2.8258092
148	0xbdc8d899	-0.09806938
149	0xbdeb4756	-0.114882156
150	0xc0163a44	-2.3473063
151	0xbf07c04a	-0.53027785
152	0x3f1126c7	0.56699795
153	0x3f1cad96	0.6120237
154	0xbedf09b8	-0.43562102
155	0x3cbd3819	0.023098039
156	0xc0051a16	-2.0797172
157	0x3f899ae8	1.0750399
158	0xbe7d2ab2	-0.24723318
159	0xbe25c68c	-0.16189021
160	0x3b4cf26c	0.0031272424
161	0xbe562078	-0.20910823
162	0xbf81baab	-1.0135092
163	0x3dc57c36	0.09642832
164	0xbf1e7e60	-0.6191158
165	0xbf9a6dc6	-1.206475
166	0xbe17896e	-0.14798519
167	0xbdc19f02	-0.094541565
168	0xbeb1ff7a	-0.34765226
169	0xbe21416d	-0.15747614
170	0xbecf52e8	-0.4049294
171	0x401b8733	2.430127
172	0xbee4bd11	-0.44675496
173	0xbe1631dd	-0.14667459
174	0xbf0ca88a	-0.5494467
175	0xbc48c1f5	-0.012253274
176	0xbf092648	-0.5357404
177	0xbf9b2b6c	-1.2122626
178	0xbee96d7f	-0.4559135
179	0xbe674939	-0.22586526
180	0x3e58551e	0.2112622
181	0xbd97bd35	-0.07409135
182	0x403cb0c3	2.9482887
183	0xbfb51663	-1.4147457
184	0xbf37299d	-0.7154787
185	0x3c42be34	0.011886168
186	0x3cde8ed3	0.027167713
187	0xbccce778	-0.025012717
188	0xbc964c91	-0.018347057
189	0xbda85b9e	-0.082205996
190	0xbdcb465e	-0.09925531
191	0x3eaacf88	0.3336146
192	0x3cf52344	0.029924043
193	0xbe51d9a5	-0.20493181
194	0x3d49f5b8	0.0493066
195	0x3f0bef8c	0.54662395
196	0xbde9bf68	-0.11413461
197	0xbe85429c	-0.2602738
198	0xbdaf791c	-0.08568022
199	0xbf497b53	-0.787038
200	0xc0a26c42	-5.075715
201	0xbf45cf55	-0.7726949
202	0xc0628105	-3.5391247
203	0x3da5b755	0.080916084
204	0x3d85895e	0.06520341
205	0xbf1ff103	-0.6247713
206	0xbd1651bb	-0.036699038
207	0xbdf6cf97	-0.12051313
208	0x3d5ba84b	0.053627294
209	0x3c9a13f5	0.018808344
210	0xbc28185d	-0.010259715
211	0xbe8a9f43	-0.27074632
212	0xbf132dc0	-0.57491684
213	0x3c9cc909	0.01913883
214	0x3f0102b6	0.5039476
215	0xbe1c3752	-0.15255478
216	0xbe90a45f	-0.28250405
217	0xbd285912	-0.04110057
218	0xbf1e243c	-0.6177404
219	0xbcaf0f33	-0.021369552
220	0x3cb414b8	0.021982536
221	0xbf5b4b3a	-0.8566166
222	0x3d8fddde	0.0702474
223	0x3f254c1f	0.64569277
224	0xbeb84f00	-0.35997772
225	0xbd86d082	-0.065827385
226	0xbcaf8638	-0.021426305
227	0xbe4517d9	-0.19247378
228	0xbefd5083	-0.49475488
229	0x3e7aec90	0.24504304
230	0xbdc83042	-0.097748294
231	0x3c914c84	0.01773668
232	0xbf50e8aa	-0.8160502
233	0xbf1ac961	-0.6046353
234	0xbd9e25bc	-0.07722041
235	0x3e05867c	0.13039583
236	0xbed26fa5	-0.41100803
237	0xbe9def06	-0.30846423
238	0xbe226e29	-0.15862335
239	0x3dda293e	0.106523976
240	0xbe5b2e69	-0.21404423
241	0xbf2a510c	-0.6652992
242	0xbe77f85b	-0.24215834
243	0xbed1cdaf	-0.40977237
244	0xc0a64895	-5.19636
245	0x3d7d2be8	0.06180945
246	0x3aae99a2	0.0013320933
247	0xbf480869	-0.7813783
248	0xbf91b643	-1.1383747
249	0xc0583295	-3.3780873
250	0xbe195289	-0.14972891
251	0x3d950d35	0.0727791
252	0x3b8a416f	0.004219226
253	0xc056a689	-3.3539145
254	0x40a03e61	5.0076146
255	0xbd2b1739	-0.041770194

fc3.bias f4 [64]
0	0x3f9d611b	1.2295259
1	0xbe80f704	-0.25188458
2	0xc09e1abe	-4.9407644
3	0xbe05354c	-0.13008612
4	0xbf9c777a	-1.2223961
5	0x3e05742b	0.13032596
6	0x3ffea292	1.9893363
7	0xbe018b37	-0.12650762
8	0xbf00e8b2	-0.50355065
9	0xbd817cfd	-0.06322668
10	0xbfa41c49	-1.2821132
11	0x3ed9eb62	0.42562395
12	0xbfcfe2d3	-1.6241096
13	0xbe2dc3c0	-0.16969204
14	0xbf73e21f	-0.9526691
15	0xbeea3207	-0.45741293
16	0x3d2dae2f	0.042402443
17	0xbe4402f5	-0.19141753
18	0xbee8da49	-0.45479038
19	0xbc5c327a	-0.013439769
20	0xbf12d9b7	-0.57363456
21	0xbc4ee240	-0.012627184
22	0xbf8cf278	-1.1011496
23	0xbfc0c656	-1.5060527
24	0xbdc16bf2	-0.09444417
25	0xbe9c9221	-0.30580238
26	0xbdc1bc80	-0.09459782
27	0x3d62dbd8	0.05538544
28	0xbf8dda3c	-1.1082225
29	0xbeb13d8c	-0.3461727
30	0xbff67ec0	-1.9257431
31	0xbf2caa11	-0.67447
32	0xbf3769f2	-0.71646035
33	0x3f1eff01	0.62107855
34	0x3f68a0af	0.90870184
35	0x3ab8c553	0.0014096893
36	0xbdc69626	-0.09696607
37	0xbf0553d5	-0.5208104
38	0xbddf053a	-0.10889669
39	0x3ecb55d5	0.39713922
40	0xbda23812	-0.07920851
41	0xbd14f0d5	-0.036362488
42	0x3edf9c5f	0.4367399
43	0xbf87b5d6	-1.0602367
44	0xbfc5f694	-1.5465875
45	0xbf0aa055	-0.541509
46	0x3fcaa9a4	1.583302
47	0x3c3f4f91	0.011676685
48	0x3d9f47b0	0.07777345
49	0xbe3fe4bb	-0.18739597
50	0xbeaddb46	-0.33956355
51	0xbf0f0be7	-0.55877537
52	0x3f398d64	0.7248137
53	0xbddc95c4	-0.10770753
54	0xbffb312f	-1.9624385
55	0xbfb0728f	-1.378496
56	0xbf872b6b	-1.0560125
57	0xbf641338	-0.89091825
58	0xbf8f04a1	-1.1173288
59	0xbca3ec88	-0.020010248
60	0xbdeaba5b	-0.11461326
61	0xbdeae999	-0.114703365
62	0xbf4d1d42	-0.8012277
63	0xbe1390b7	-0.14410673

fc4.weight f4 [1, 64]
0	0x4008b573	2.1360748
1	0x4185a3ae	16.704922
2	0xc035eff4	-2.8427706
3	0xbe661b6c	-0.22471398
4	0x40d5535f	6.666427
5	0xbfb24c35	-1.3929507
6	0xc038a9bc	-2.8853598
7	0x3c2de525	0.010613714
8	0xc0934d01	-4.60315
9	0xbf80671a	-1.0031464
10	0xc02c2db8	-2.6902905
11	0x40943acf	4.632179
12	0x3e9c83c9	0.30569294
13	0xc1307f50	-11.031082
14	0xc119f6a4	-9.622715
15	0x410f31d5	8.949666
16	0x3cb32eb7	0.021872861
17	0x402aeeea	2.6708322
18	0xbf802ab6	-1.0013034
19	0x3fe5d12a	1.7954457
20	0x405bc8c5	3.434129
21	0xbd787f17	-0.060668077
22	0x41196daa	9.589273
23	0x40c1fe1f	6.0622706
24	0x3d384866	0.04499092
25	0xbeb3471f	-0.350152
26	0xbce27ad0	-0.027646452
27	0xc0938e44	-4.6111164
28	0x3f5732d9	0.8406196
29	0x4057a5de	3.3694987
30	0xbf66212f	-0.89894384
31	0xc01949f9	-2.39514
32	0x404beee9	3.186457
33	0x3fe96355	1.8233439
34	0xc036197b	-2.8453052
35	0x3d259d37	0.040433135
36	0xbecf6294	-0.40504897
37	0x3f60245c	0.8755548
38	0xc0850235	-4.1565194
39	0x40247951	2.5699046
40	0x3d251ff9	0.040313695
41	0xbdb8adfc	-0.0901756
42	0xbf60d0be	-0.87818515
43	0x40992e6a	4.786916
44	0x409eeda3	4.9665084
45	0xbf3d410d	-0.73927385
46	0xbfe0df2c	-1.7568107
47	0x3d3799a9	0.044824276
48	0xc0ae97ba	-5.4560213
49	0x3ff34d0c	1.9007888
50	0xbcbef130	-0.023308367
51	0x3faedfd0	1.3662052
52	0x40b17a0c	5.5461483
53	0x3c955b0c	0.018231891
54	0xbf7706a2	-0.96494496
55	0x3fafd01e	1.3735387
56	0xbfa85097	-1.3149594
57	0xbf8f1407	-1.1177987
58	0xbe896e48	-0.2684195
59	0xc0395f83	-2.8964546
60	0xc0b73f84	-5.7265034
61	0xbe167244	-0.14692026
62	0xbfa7d58d	-1.3112046
63	0xbc35086a	-0.011049369
