python_scripts/indicatrizC.pth (torch, 14839 bytes, 7 tensors)

fc1.weight f4 [60, 9]
0.7267363 0.7031238 0.7342795 0.71072304 0.7370533 0.7069088 0.7253039 0.7312624
-0.012911275 0.65132207 0.6679678 0.6531774 0.58682966 0.57000256 0.6518894 0.6377124
0.6171912 0.0035829411 0.64295095 0.65159774 0.6066771 0.64839756 0.5773075 0.64596003
0.5861606 0.64975697 0.0037006906 -0.44592983 -0.44258144 -0.42467192 -0.452104 -0.44762248
-0.44232482 -0.44798747 -0.4308598 2.8156154 -0.71792674 -0.7006873 -0.7136343 -0.7119167
-0.70060575 -0.7266646 -0.68797594 -0.7026446 0.03172545 -0.57771075 -0.50192255 -0.63945436
-0.6149901 -0.6146848 -0.5043799 -0.50352484 -0.5987202 0.010429623 0.55170447 0.5861042
0.6263388 0.67405576 0.6206632 0.52415824 0.53745335 0.5463036 0.01541495 0.3370481
0.33481517 0.33395186 0.3441787 0.3394959 0.3417486 0.34019655 0.3352572 -2.1558313
0.4573294 0.56267613 0.444242 0.51071984 0.6108684 0.5209002 0.59084696 0.5008125
0.031782784 0.6534075 0.63295335 0.5695964 0.6314953 0.5735623 0.5825553 0.6617116
0.6518501 0.008966434 1.1659496 0.8007599 0.85673964 1.3393902 1.1916846 1.1839684
1.2104161 1.2054057 0.54595035 -0.5579666 -0.38857606 -0.42072517 -0.53819054 -0.4211487
-0.5006476 -0.49786198 -0.50580764 -0.040322505 0.47793594 0.44717956 0.47803402 0.38151747
0.43910336 0.42723292 0.444738 0.424512 1.4160627 0.74382263 0.70173347 0.73612624
0.7530224 0.7138887 0.73756665 0.7366321 0.7445299 -0.015061562 0.6687016 0.6529995
0.6719013 0.6142439 0.5497229 0.66637766 0.6564561 0.5627468 0.0020356777 0.74069506
0.7277609 0.74566317 0.74536026 0.74731857 0.72885287 0.7379854 0.7469902 -0.015870292
-0.6836182 -0.6523549 -0.67728704 -0.67636 -0.66952837 -0.6581356 -0.6766235 -0.61484945
0.022917487 0.66973346 0.6811876 0.628827 0.6816343 0.653664 0.64515704 0.70206577
0.6959927 -0.004210379 0.66915226 0.67011136 0.69212556 0.6996737 0.65046394 0.67367435
0.65239716 0.7004645 -0.0056173736 1.0991813 0.8579772 1.3405943 1.3621502 1.2071738
1.0412136 0.906574 1.1412712 0.4868565 -0.71990705 -0.67010397 -0.7159356 -0.6675087
-0.68566173 -0.7261403 -0.68679434 -0.6966166 0.042270247 -0.72612953 -0.73566306 -0.7222115
-0.7298276 -0.7369752 -0.74531007 -0.7242497 -0.69502765 0.0330834 -0.6921155 -0.7084339
-0.71535397 -0.68758297 -0.7092228 -0.71855277 -0.70037043 -0.7000181 0.03789417 0.63354284
0.64683163 0.67612815 0.6638385 0.6364554 0.61574125 0.613854 0.65205467 0.0018549088
0.91861945 1.1192017 0.74261767 1.0410357 1.1121951 1.1007174 0.723457 0.8461387
0.43640244 0.77191335 0.7820395 0.7865118 0.7641561 0.7772438 0.782913 0.75080323
0.76717615 -0.021936579 -0.23287715 -0.23021922 -0.20819096 -0.24298275 -0.20585929 -0.23710974
-0.23864529 -0.1714458 2.1131165 1.2473451 0.94663745 1.3729917 1.190507 1.2975656
1.407102 1.4485651 1.2915545 0.34756166 -0.43000606 -0.62695616 -0.48682624 -0.36819723
00000000: 640b 3a3f ecff 333f bef9 3b3f f2f1 353f
00000010: 86af 3c3f faf7 343f 84ad 393f 0334 3b3f
00000020: d089 53bc 0bbd 263f f0ff 2a3f a236 273f
00000030: 783a 163f b0eb 113f 39e2 263f 1f41 233f
00000040: 3e00 1e3f c7cf 6a3b 6f98 243f 1ccf 263f
00000050: 314f 1b3f 62fd 253f 6dca 133f a35d 253f
00000060: 9f0e 163f 7956 263f 4987 723b ea50 e4be
00000070: 099a e2be 996e d9be 2d7a e7be c62e e5be
00000080: 6678 e2be 9d5e e5be a899 dcbe 0b33 3440
00000090: 0cca 37bf 3e60 33bf bdb0 36bf 2c40 36bf
000000a0: e65a 33bf b106 3abf 311f 30bf 84e0 33bf
000000b0: 8cf2 013d dae4 13bf ff7d 00bf 48b3 23bf
000000c0: fe6f 1dbf fc5b 1dbf 0b1f 01bf 01e7 00bf
000000d0: ba45 19bf 02e1 2a3c 813c 0d3f ed0a 163f
000000e0: bd57 203f eb8e 2c3f c9e3 1e3f 3c2f 063f
000000f0: 8b96 093f 8dda 0b3f fd8e 7c3c 9291 ac3e
00000100: e56c ab3e bdfb aa3e 3138 b03e 68d2 ad3e
00000110: acf9 ae3e 3e2e ae3e d5a6 ab3e 24f9 09c0
00000120: 1427 ea3e 8b0b 103f b073 e33e 89be 023f
00000130: df61 1c3f b759 053f bf41 173f 3f35 003f
00000140: aa2e 023d b745 273f 3b09 223f 12d1 113f
00000150: ada9 213f fbd4 123f 5822 153f ee65 293f
00000160: a6df 263f f3e7 123c d63d 953f 9afe 4c3f
00000170: 4a53 5b3f 2371 ab3f 1f89 983f 478c 973f
00000180: eaee 9a3f bc4a 9a3f 67c3 0b3f e6d6 0ebf
00000190: 71f3 c6be 4a69 d7be dbc6 09bf cda0 d7be
000001a0: 712a 00bf c4e7 febe 9c7c 01bf 3629 25bd
000001b0: 05b4 f43e b8f4 e43e e0c0 f43e 4256 c33e
000001c0: 28d2 e03e 46be da3e b3b4 e33e a359 d93e
000001d0: 8b41 b53f 296b 3e3f cea4 333f c572 3c3f
000001e0: 13c6 403f 69c1 363f 2bd1 3c3f ec93 3c3f
000001f0: 8399 3e3f c5c4 76bc 0730 2b3f fa2a 273f
00000200: b901 2c3f 173f 1d3f a4ba 0c3f ba97 2a3f
00000210: 820d 283f 2d10 103f 0169 053b 319e 3d3f
00000220: 8a4e 3a3f c8e3 3e3f eecf 3e3f 4550 3f3f
00000230: 1a96 3a3f 9cec 3c3f c03a 3f3f 6a02 82bc
00000240: 9a01 2fbf bb00 27bf af62 2dbf ee25 2dbf
00000250: 3666 2bbf 937b 28bf 3337 2dbf c666 1dbf
00000260: 74bd bb3c a773 2b3f 5062 2e3f cefa 203f
00000270: 967f 2e3f 8656 273f 0329 253f 95ba 333f
00000280: 942c 323f 38f7 89bb 904d 2b3f 6b8c 2b3f
00000290: 242f 313f d11d 333f ce84 263f ec75 2c3f
000002a0: 8003 273f a451 333f f211 b8bb f9b1 8c3f
000002b0: 65a4 5b3f 9898 ab3f f05a ae3f ac84 9a3f
000002c0: 7d46 853f 3c15 683f 2d15 923f 4145 f93e
000002d0: d44b 38bf ef8b 2bbf 8e47 37bf dae1 2abf
000002e0: 8787 2fbf 55e4 39bf c1d1 2fbf 7755 32bf
000002f0: 9123 2d3d a0e3 39bf 6a54 3cbf dae2 38bf
00000300: fbd5 3abf 68aa 3cbf a4cc 3ebf 6e68 39bf
00000310: 55ed 31bf 7682 073d 7b2e 31bf ed5b 35bf
00000320: 7021 37bf 7005 30bf a08f 35bf 13f3 37bf
00000330: 7a4b 33bf 6334 33bf eb36 1b3d dd2f 223f
00000340: c296 253f bc16 2d3f 52f1 293f beee 223f
00000350: 38a1 1d3f 8925 1d3f 0eed 263f 6920 f33a
00000360: a52a 6b3f 0042 8f3f 311c 3e3f a840 853f
00000370: 695c 8e3f 4fe4 8c3f 7a34 393f 8c9c 583f
00000380: 2470 df3e 1d9c 453f be33 483f d658 493f
00000390: bc9f 433f 73f9 463f fd6c 483f a434 403f
000003a0: a865 443f 57b4 b3bc 5977 6ebe 96be 6bbe
000003b0: 0330 55be 78d0 78be c7cc 52be e5cc 72be
000003c0: 6e5f 74be 7d8f 2fbe 4d3d 0740 01a9 9f3f
000003d0: d556 723f 31be af3f 8962 983f a116 a63f
000003e0: eb1b b43f 956a b93f a851 a53f 9af3 b13e
000003f0: c129 dcbe 3380 20bf 4a41 f9be 5984 bcbe

fc1.bias f4 [60]
-2.4228034 -2.0457761 -2.0385015 1.618135 2.185759 1.5282995 -1.8802865 -1.2708453
-1.7116169 -2.05472 0.49914196 1.4317317 1.09442 -2.4792063 -2.0449018 -2.5016391
2.0010016 -2.2003171 -2.226951 -0.22401609 2.0520926 2.2933822 2.1233075 -2.09619
-0.2163464 -2.637836 0.59372324 -0.31462842 1.56453 -0.16732594 2.0307395 1.5248545
1.5291423 -0.8625037 1.0971589 -0.9767482 -2.185032 -2.0388482 0.27916977 0.15341483
2.2819445 1.4431348 1.9888419 1.5897809 -0.45762914 1.9007831 -2.3095906 -2.0484524
1.4625258 0.46614653 -2.394644 1.2649559 -0.18927017 1.9267061 0.9148936 1.2832144
-0.61332834 1.7206416 -0.22396836 -1.865251
00000000: 360f 1bc0 ffed 02c0 cf76 02c0 0c1f cf3f
00000010: 7ae3 0b40 519f c33f 3aad f0bf 0fab a2bf
00000020: 4316 dbbf 8880 03c0 898f ff3e fc42 b73f
00000030: f415 8c3f 51ab 1ec0 acdf 02c0 db1a 20c0
00000040: 6910 0040 ffd1 0cc0 5d86 0ec0 7964 65be
00000050: 7c55 0340 c6c6 1240 45e4 0740 fa27 06c0
00000060: e989 5dbe 4ed2 28c0 3ffe 173f fa16 a1be
00000070: 8542 c83f 7e57 2bbe a3f7 0140 6f2e c33f
00000080: efba c33f 0bcd 5cbf b46f 8c3f 2c0c 7abf
00000090: 90d7 0bc0 7d7c 02c0 57ef 8e3e c718 1d3e
000000a0: 610b 1240 a4b8 b83f 5f92 fe3f f17d cb3f
000000b0: 5e4e eabe dc4c f33f 55d0 13c0 d819 03c0
000000c0: 0c34 bb3f c2aa ee3e d941 19c0 13ea a13f
000000d0: 0ad0 41be 4e9e f63f 7836 6a3f 5f40 a43f
000000e0: 1603 1dbf fc3d dc3f f657 65be 8bc0 eebf

fc2.weight f4 [30, 60]
0.5827053 0.7879371 0.65639323 1.0526694 -0.9159198 -0.74764264 0.6179939 -0.73443866
0.5957798 0.6725424 -1.0891924 -0.42834312 -0.03120187 0.7062815 0.7193348 0.84114456
-0.89989763 0.58511317 0.799671 -1.1410291 -0.91536754 -0.98112905 -0.92967653 0.65398926
-1.0136747 0.61133254 0.51384413 -1.1568502 -0.8495432 -1.0617748 -0.8442769 1.1205444
-0.46226823 -0.7562427 0.9820101 -0.84864354 0.62408376 0.76508623 -1.0763036 -1.0350704
-0.8229286 1.0494423 -0.9168175 -0.5027123 -0.13209064 -0.784149 0.83140725 0.72980607
-0.4793654 0.24141671 0.757962 0.47447115 -0.9961091 -0.9280014 -0.27520692 -0.25171638
-0.94177943 1.1549706 -0.9420813 0.7866162 1.0460088 0.77022153 0.7985313 1.2565749
-0.35255226 -0.11606831 0.81038284 -1.4285171 0.5440247 0.88978046 0.15855101 -0.17860767
-0.65823394 0.9723217 0.7381385 1.1440303 -0.4579682 0.8315212 1.0345851 -0.1347971
-0.11468155 -0.43391055 -0.17815591 0.9588777 0.11595553 0.97028583 0.85300255 -0.25404683
-0.55498827 0.031858336 -0.3799321 1.2020617 0.5463591 -1.4194695 1.5161445 -1.489165
0.862854 0.63098294 0.17718056 0.11164178 -0.5290875 1.4785365 -0.41771725 -0.2855855
0.30782723 -0.467093 1.0566057 0.78626704 -0.018933654 -0.3394496 0.97574615 1.4864471
-0.41564626 -0.38828138 -0.8223418 -0.70792425 -0.18584974 1.2806766 -0.8250455 0.7422089
0.6093836 0.64124346 0.5137584 1.2729186 -0.34654972 -0.3622434 0.5186986 -1.2283257
0.32306513 0.43259382 0.123301744 -0.30731577 -0.4692799 0.8175704 0.52148527 0.7096984
-0.34108004 0.68587345 0.66730064 -0.028393298 -0.39081925 -0.44672945 -0.19017655 0.6648047
0.13324212 0.73880106 0.6064598 0.05019807 -0.45157945 0.02788521 -0.37333494 1.1447911
0.27160007 -1.1634445 1.466138 -1.1250637 0.6712314 0.7051147 0.13592432 0.17075184
-0.5994459 1.1459029 -0.38846165 -0.22188728 0.33778697 -0.3574922 0.61446285 0.58543026
-0.07007094 -0.22719748 0.50103027 1.0391713 0.009597441 -0.29167214 -0.51775616 -0.48056108
-0.07279683 1.1573203 -0.32001323 0.573536 0.7289665 0.59093076 0.6128993 1.3035448
-0.40764797 -0.21507472 0.65307605 -1.3123581 0.61543936 0.5665233 0.23368901 -0.14045532
-0.48624444 0.7292714 0.77117544 0.94403005 -0.35140362 0.6622576 0.63000834 0.13826276
-0.28000477 -0.34756446 -0.40274754 0.5129438 -0.0057936786 0.78317374 0.68220043 -0.24601494
-0.5826356 0.04653702 -0.45338997 1.2053398 0.43431544 -1.1681342 1.3819779 -1.1026767
0.81456864 0.80123067 0.06886634 0.1509971 -0.41363087 1.2052933 -0.5002632 -0.1806726
0.44444022 -0.48555627 0.5980265 0.7201347 0.11247204 -0.29881433 0.55060875 1.1446767
-0.21655542 -0.36037883 -0.560384 -0.43930638 -0.1510237 1.1697817 -0.4068224 0.5884716
0.79756874 0.72198516 0.67120624 0.95038867 -1.2356663 -1.0936103 0.736684 -1.4183977
0.41662 0.6176269 -0.60375994 -1.0668715 -0.3464124 0.9449942 0.75851935 0.83556235
00000000: 2d2c 153f 3fb6 493f 6309 283f dfbd 863f
00000010: b879 6abf 8265 3fbf d934 1e3f 2c04 3cbf
00000020: 0685 183f bd2b 2c3f a86a 8bbf ca4f dbbe
00000030: 109b ffbc ddce 343f 5326 383f 4055 573f
00000040: b15f 66bf fac9 153f 3db7 4c3f 3e0d 92bf
00000050: 8755 6abf 462b 7bbf 48ff 6dbf d76b 273f
00000060: 18c0 81bf 4a80 1c3f 4a8b 033f ab13 94bf
00000070: aa7b 59bf 3de8 87bf 8822 58bf 006e 8f3f
00000080: 6cae ecbe 1f99 41bf 0465 7b3f b440 59bf
00000090: f4c3 1f3f b1dc 433f 51c4 89bf 307d 84bf
000000a0: 73ab 52bf 2054 863f 8db4 6abf c1b1 00bf
000000b0: c542 07be fdbd 48bf 1bd7 543f 92d4 3a3f
000000c0: 626f f5be f135 773e cc09 423f e2ed f23e
000000d0: 0201 7fbf 8091 6dbf ece7 8cbe f8e0 80be
000000e0: 7518 71bf 14d6 933f 3d2c 71bf ae5f 493f
000000f0: 9ee3 853f 3d2d 453f 8c6c 4c3f 72d7 a03f
00000100: bb81 b4be 39b5 edbd 4075 4f3f a6d9 b6bf
00000110: 3445 0b3f a7c8 633f 325b 223e eee4 36be
00000120: 0582 28bf 13ea 783f a5f6 3c3f 966f 923f
00000130: cf7a eabe 93de 543f 496d 843f 4008 0abe
00000140: 29de eabd 8629 debe 816e 36be 0279 753f
00000150: 187a ed3d a764 783f 605e 5a3f 6d12 82be
00000160: b613 0ebf e37d 023d 7686 c2be 28dd 993f
00000170: 31de 0b3f 2db1 b5bf 0611 c23f f59c bebf
00000180: 00e4 5c3f 1988 213f d26e 353e 72a4 e43d
00000190: 4772 07bf af40 bd3f 09df d5be 4338 92be
000001a0: 889b 9d3e d026 efbe db3e 873f cc48 493f
000001b0: c01a 9bbc 57cc adbe 80ca 793f e643 be3f
000001c0: 96cf d4be d1cc c6be fe84 52bf 863a 35bf
000001d0: 654f 3ebe 36ed a33f 2f36 53bf 6701 3e3f
000001e0: 9000 1c3f 8828 243f ac85 033f ffee a23f
000001f0: f76e b1be f877 b9be 6ec9 043f c739 9dbf
00000200: cb68 a53e f07c dd3e a085 fc3d 7e58 9dbe
00000210: 7445 f0be 4b4c 513f 0f80 053f cbae 353f
00000220: 0ba2 aebe 6795 2f3f 37d4 2a3f 1099 e8bc
00000230: 7619 c8be b9b9 e4be a4bd 42be a430 2a3f
00000240: 9f70 083e 1122 3d3f f340 1b3f 7e9c 4d3d
00000250: 6c35 e7be 866f e43c c225 bfbe 8488 923f
00000260: 2a0f 8b3e c0eb 94bf 69aa bb3f 1602 90bf
00000270: d2d5 2b3f 6682 343f bf2f 0b3e 92d9 2e3e
00000280: 4975 19bf f2ac 923f 72e4 c6be 6b36 63be
00000290: 6af2 ac3e 3809 b7be 704d 1d3f c2de 153f
000002a0: 5a81 8fbd 75a6 68be 8543 003f 9103 853f
000002b0: 963e 1d3c 0d56 95be ab8b 04bf 1a0c f6be
000002c0: 8116 95bd 1223 943f c6d8 a3be 41d3 123f
000002d0: 8c9d 3a3f 3d47 173f f8e6 1c3f 8eda a63f
000002e0: 3cb7 d0be 8c3c 5cbe fe2f 273f 5afb a7bf
000002f0: 6f8d 1d3f ac07 113f 2c4c 6f3e 85d3 0fbe
00000300: 08f5 f8be 88b1 3a3f c16b 453f f4ab 713f
00000310: 2deb b3be b789 293f 3a48 213f c194 0d3e
00000320: c95c 8fbe f8f3 b1be ed34 cebe 4950 033f
00000330: e6d8 bdbb 137e 483f b0a4 2e3f 57eb 7bbe
00000340: 9b27 15bf 9a9d 3e3d bb22 e8be 9348 9a3f
00000350: 985e de3e 6c85 95bf a7e4 b03f 8324 8dbf
00000360: 9287 503f 741d 4d3f cc09 8d3d fc9e 1a3e
00000370: 6dc7 d3be 0d47 9a3f 4011 00bf 3d02 39be
00000380: ab8d e33e d59a f8be 4418 193f bf5a 383f
00000390: be57 e63d 31fe 98be b2f4 0c3f c484 923f
000003a0: b4c0 5dbe 9383 b8be 5375 0fbf c4ec e0be
000003b0: f5a5 1abe 68bb 953f 074b d0be 13a6 163f
000003c0: 772d 4c3f 05d4 383f 2cd4 2b3f ac4c 733f
000003d0: 502a 9ebf 6cfb 8bbf 5397 3c3f 0e8e b5bf
000003e0: 374f d53e cc1c 1e3f 0390 1abf 3f8f 88bf
000003f0: f75c b1be 24eb 713f 532e 423f 6ae7 553f

fc2.bias f4 [30]
-0.6677812 -0.18287131 -0.13196523 -0.29706022 -0.8664495 -0.36524653 -0.21426436 -1.0210215
0.9643854 -0.2715954 -0.22712785 0.26430923 -0.3559608 -0.9177028 -0.094281904 0.20007019
-0.13448825 -0.3040368 -0.28510225 -0.1983528 -0.863539 0.16920842 -0.11171519 -0.82090676
-0.91897744 0.24255927 -0.21039017 0.70812494 -0.1840891 -0.19604267
00000000: b5f3 2abf 9e42 3bbe e521 07be 4718 98be
00000010: a2cf 5dbf 9801 bbbe 1e68 5bbe d5b0 82bf
00000020: f6e1 763f 8d0e 8bbe 3494 68be 8a53 873e
00000030: 7e40 b6be 92ee 6abf df16 c1bd 33df 4c3e
00000040: 4ab7 09be b6aa 9bbe ecf8 91be ff1c 4bbe
00000050: e410 5dbf f944 2d3e efca e4bd f226 52bf
00000060: 1b42 6bbf 7561 783e 8570 57be ad47 353f
00000070: da81 3cbe 69bf 48be

fc3.weight f4 [20, 30]
1.1358132 -0.53652614 -0.30101186 -0.30620068 0.8211939 -0.2368695 -0.1308347 0.73888546
0.853159 -0.1639472 -0.5837409 0.5644073 0.22320372 1.0831954 -0.23576334 0.4859771
-0.66161305 -0.18496813 -0.2892001 -0.07992545 1.047583 0.75708723 -0.6298219 0.8258007
1.0540528 0.84937984 -0.13926154 1.1023937 -0.5919023 -0.55920863 -1.2371495 0.49074626
0.3898689 0.12452243 -0.873679 0.05610713 0.031965066 -0.7844985 -0.7519999 0.2205356
0.43854812 -0.59215605 -0.20063895 -0.7710233 0.41536036 -0.49550685 0.5317833 0.38311416
0.4212302 0.2774617 -1.0444537 -0.62072664 0.42295286 -0.73573047 -0.7609519 -0.69529825
0.23117244 -1.0232409 0.45157358 0.36928603 1.3200183 -0.7114488 -0.45447904 -0.3341999
1.0307543 0.048745774 -0.30912167 0.8496288 0.8769045 -0.4497629 -0.62736833 0.8590611
0.33217788 1.3584939 -0.5469238 0.7419224 -0.5194629 -0.12457196 -0.19029625 -0.17795189
1.222878 0.7330895 -0.6160176 0.8490218 0.96670943 0.9600854 -0.15858893 1.3378202
-0.7214704 -0.38987482 1.2092168 -0.58447134 -0.15360284 -0.2901582 0.93941194 -0.25989684
-0.38545525 0.8677862 1.0444672 -0.22569613 -0.44717374 0.513151 0.16963862 1.058024
-0.26316518 0.7243457 -0.5782825 -0.42347205 -0.16452342 -0.14520164 0.8948155 0.71827906
-0.6914462 1.0008188 0.7967222 0.7021173 -0.2051797 0.9421391 -0.6447461 -0.24007462
-1.3507843 0.5577594 0.15726711 0.35187548 -0.90483224 0.23413973 0.3912405 -0.7381875
-1.0200554 0.13419993 0.42058402 -0.77200174 -0.11418956 -0.9402536 0.35811844 -0.64650023
0.67637646 0.2829635 0.34687832 0.2156435 -0.9777594 -0.570187 0.3163916 -0.8845525
-0.7573615 -0.72877204 0.26131704 -1.1797347 0.65637666 0.26209617 -1.4184545 0.90141326
0.28570637 0.43159318 -1.0524509 -0.12158176 0.48247194 -1.1138502 -1.3018161 0.25270173
0.73919255 -0.8019987 -0.6490015 -1.666637 0.31565446 -0.9687918 0.63365966 0.32313088
0.40890244 0.13766372 -1.0776539 -0.8700897 0.7883919 -0.79854 -0.9048192 -1.0761493
0.17846145 -1.3371116 0.78348804 0.49895623 1.3702985 -0.3760175 -0.21434097 -0.42515308
0.97256476 -0.09231435 -0.2968118 0.84710413 0.9225077 -0.2818477 -0.4092862 0.7026779
0.37300152 1.1394651 -0.28112385 0.63944066 -0.5525268 -0.43220016 -0.44021878 -0.19983739
0.81653607 0.64741534 -0.33982646 0.7098253 0.8176835 0.8336247 -0.23097205 1.1874381
-0.7154537 -0.42317113 -1.7589387 1.0915221 0.51495403 0.48305264 -1.065284 -0.36706302
0.39457044 -1.0357656 -1.4084282 0.22457896 0.93047315 -1.0843583 -1.1490299 -1.9246004
0.72769946 -1.0858383 0.87065053 0.30688268 0.43846607 0.19969338 -1.1351185 -0.8512629
0.8945386 -1.127755 -1.0929402 -1.1717465 0.37478128 -1.4884449 0.8677199 0.6964288
-1.6194327 0.69183385 0.41838038 0.56534827 -1.067627 -0.20450045 0.38612372 -0.95172036
-1.4198508 0.3942113 0.72658044 -1.040148 -0.54475456 -1.542476 0.4310038 -0.9523548
00000000: 5462 913f c759 09bf 3a1e 9abe 56c6 9cbe
00000010: c339 523f eb8d 72be 88f9 05be 9927 3d3f
00000020: a168 5a3f c6e1 27be 0b70 15bf ff7c 103f
00000030: 848f 643e 26a6 8a3f f26b 71be fed1 f83e
00000040: 795f 29bf 4968 3dbe 0912 94be f4af a3bd
00000050: 3317 863f 78d0 413f 023c 21bf ad67 533f
00000060: 34eb 863f f570 593f 949a 0ebe 3d1b 8d3f
00000070: e986 17bf 4c28 0fbf ea5a 9ebf 1843 fb3e
00000080: e59c c73e 9e05 ff3d 6da9 5fbf 97d0 653d
00000090: cded 023d e5d4 48bf 1183 40bf 16d4 613e
000000a0: 6189 e03e 8a97 17bf 4c74 4dbe c861 45bf
000000b0: 1daa d43e 13b3 fdbe f322 083f 8a27 c43e
000000c0: 7cab d73e 760f 8e3e a9b0 85bf f1e7 1ebf
000000d0: 478d d83e d558 3cbf becd 42bf 11ff 31bf
000000e0: 78b8 6c3e 8ff9 82bf a734 e73e 0f13 bd3e
000000f0: 5cf6 a83f 8221 36bf 7ab1 e8be 401c abbe
00000100: c2ef 833f a6a9 473d 3245 9ebe 4681 593f
00000110: d07c 603f 5347 e6be 369b 20bf 6eeb 5b3f
00000120: 3813 aa3e 21e3 ad3f 3303 0cbf a0ee 3d3f
00000130: 85fb 04bf 951f ffbd 05dd 42be 0539 36be
00000140: 4487 9c3f c1ab 3b3f 54b3 1dbf 7e59 593f
00000150: 457a 773f 28c8 753f 2365 22be b13d ab3f
00000160: 49b2 38bf ac9d c7be 9ec7 9a3f ea9f 15bf
00000170: 104a 1dbe 9e8f 94be 4d7d 703f 3311 85be
00000180: 645a c5be 3d27 5e3f 1ab1 853f e31c 67be
00000190: f5f3 e4be dd5d 033f bfb5 2d3e 556d 873f
000001a0: 96bd 86be b86e 393f 520a 14bf 54d1 d8be
000001b0: d478 28be bdaf 14be a112 653f 23e1 373f
000001c0: 9e02 31bf d51a 803f fcf5 4b3f f6bd 333f
000001d0: a11a 52be 0730 713f 150e 25bf 1fd6 75be
000001e0: 80e6 acbf 52c9 0e3f a10a 213e 0629 b43e
000001f0: 16a3 67bf 53c2 6f3e ad50 c83e dbf9 3cbf
00000200: 2d91 82bf b56b 093e ca56 d73e e8a1 45bf
00000210: 37dc e9bd 76b4 70bf 4d5b b73e 0a81 25bf
00000220: 0227 2d3f 98e0 903e 099a b13e a6d1 5c3e
00000230: 714e 7abf c6f7 11bf 14fe a13e 0872 62bf
00000240: 71e2 41bf ce90 3abf 59cb 853e 8c01 97bf
00000250: 4d08 283f 7831 863e eb8f b5bf 05c3 663f
00000260: 1b48 923e c8f9 dc3e b6b6 86bf dcff f8bd
00000270: 9006 f73e a592 8ebf e9a1 a6bf 1f62 813e
00000280: b93b 3d3f c94f 4dbf f624 26bf 5c54 d5bf
00000290: 769d a13e bd02 78bf 8537 223f 6971 a53e
000002a0: a95b d13e b8f7 0c3e 90f0 89bf 33be 5ebf
000002b0: 0dd4 493f 1e6d 4cbf 3ba2 67bf 43bf 89bf
000002c0: 99be 363e 7926 abbf ac92 483f 3177 ff3e
000002d0: f165 af3f 5e85 c0be 337c 5bbe aaad d9be
000002e0: 01fa 783f 4e0f bdbd b7f7 97be d1db 583f
000002f0: 7729 6c3f 574e 90be f68d d1be b3e2 333f
00000300: 0efa be3e fed9 913f 77ef 8fbe 62b2 233f
00000310: 6572 0dbf 5749 ddbe 5b64 e1be 2ca2 4cbe
00000320: 8208 513f 03bd 253f bcfd adbe 1cb7 353f
00000330: b553 513f 6e68 553f f083 6cbe f9fd 973f
00000340: f927 37bf e3a9 d8be e724 e1bf ffb6 8b3f
00000350: 07d4 033f ad52 f73e 3a5b 88bf afef bbbe
00000360: 2305 ca3e f893 84bf 6047 b4bf 07f8 653e
00000370: 7d33 6e3f 41cc 8abf 6913 93bf 4e59 f6bf
00000380: 834a 3a3f c0fc 8abf f4e2 5e3f ba1f 9d3e
00000390: a07e e03e 6c7c 4c3e 904b 91bf 5eec 59bf
000003a0: 7b00 653f 475a 90bf 77e5 8bbf cafb 95bf
000003b0: 55e3 bf3e 5d85 bebf e422 5e3f 2849 323f
000003c0: 9249 cfbf 061c 313f f435 d63e aaba 103f
000003d0: 00a8 88bf 9168 51be 02b2 c53e f2a3 73bf
000003e0: acbd b5bf 10d6 c93e 2d01 3a3f 9223 85bf
000003f0: 0975 0bbf db6f c5bf 88ac dc3e 86cd 73bf

fc3.bias f4 [20]
0.3154791 -0.39658165 0.18021278 0.35133797 -0.21171673 -0.1428763 0.19145893 -0.6396207
-0.47291002 -0.15604348 -0.64568114 0.5056114 -0.38507235 0.15127742 0.23765862 -0.26875257
-0.30248293 -0.20075114 0.28635862 -0.3724546
00000000: 7a86 a13e c00c cbbe b389 383e 92e2 b33e
00000010: 45cc 58be 2a4e 12be cf0d 443e 2fbe 23bf
00000020: 4321 f2be ddc9 1fbe 5c4b 25bf c06f 013f
00000030: 3428 c5be 78e8 1a3e c85c 733e f099 89be
00000040: 0bdf 9abe b591 4dbe 999d 923e 5fb2 bebe

fc4.weight f4 [1, 20]
1.1565526 -0.91087204 1.4915999 1.3273951 -0.97568744 -1.168637 1.4007486 -1.1452886
-1.0781565 -1.0428694 -1.1903679 1.2957166 -0.9402856 1.3396533 1.5089489 -0.9758295
-1.0820911 -0.9081573 1.3133653 -1.1713086
00000000: ea09 943f e92e 69bf bfec be3f 15e8 a93f
00000010: a7c6 79bf e695 95bf bb4b b33f d198 92bf
00000020: 0801 8abf bf7c 85bf fa5d 98bf 0bda a53f
00000030: 8fb6 70bf c279 ab3f 3d25 c13f f6cf 79bf
00000040: f681 8abf ff7c 68bf 5b1c a83f 71ed 95bf
