python_scripts/indicatrizE.pth (torch, 70135 bytes, 7 tensors)

fc1.weight f4 [64, 2]
000000 22 c4 06 bf 5c db 2d 3f f5 f2 2f bf 7c ba 0e 3f
       -0.52643025 0.6791284 -0.687301 0.557533
000010 67 72 cc be 9a ff 60 bb d3 ef 47 bf 32 70 33 c0
       -0.39931032 -0.0034332038 -0.7810032 -2.8037229
000020 9d ee 9f 3d e3 dd 6d 40 71 df 9a bd b2 69 ba 3c
       0.07809184 3.716668 -0.07562149 0.022755478
000030 55 c2 88 3d 8f b9 9c 40 cb 3a e1 3d 5d 41 a1 3e
       0.06677691 4.897651 0.10997542 0.3149518
000040 20 98 88 bf 61 51 9e bf aa f9 85 be 4c 19 cb 3e
       -1.0671425 -1.2368585 -0.2616704 0.39667737
000050 51 bc 32 be 98 79 0b 40 9a b6 a8 3d e9 ba 2e 3d
       -0.1745465 2.1792965 0.082379535 0.04265872
000060 aa ca fe 3c f9 ae 7d c0 76 66 2d bf 8e 80 7b be
       0.031102497 -3.9638045 -0.6773447 -0.24560758
000070 23 65 bd 3d a7 59 6b bf 25 9e be be 2f 5c e8 c0
       0.09247806 -0.91933674 -0.3723003 -7.261253
000080 c7 6a 44 3e 1c 5b 1e c0 88 29 b1 be 6e 3a cb bb
       0.19181357 -2.4743109 -0.34601998 -0.0062020337
000090 a1 eb 44 be 4d ef 8a 40 fc 16 d0 3d fa 60 df b9
       -0.1923051 4.3417115 0.10160634 -0.00042606128
0000a0 81 96 9f be 57 19 21 c0 66 9f 14 bf 11 95 7d 3f
       -0.31169513 -2.5171716 -0.5805572 0.9905558
0000b0 6a 30 3f bf 63 79 9b 3f 5f ed 11 bb 73 ba 80 40
       -0.7468325 1.2146419 -0.0022266728 4.02276
0000c0 29 58 0a bb 2d d3 8a 3c 05 30 29 3e c6 63 97 c0
       -0.0021109676 0.0169464 0.16522224 -4.7309294
0000d0 03 6e 40 bd 07 5e 6b 38 63 7d d9 be ce b8 bc be
       -0.046979915 5.6115936e-05 -0.42478475 -0.36859745
0000e0 ad c3 23 bf 5e 93 37 3e a2 98 2b bf f7 d9 ba 3f
       -0.6397045 0.1792731 -0.67029774 1.4597768
0000f0 fc 55 89 bd 2e 15 9f 40 89 be cb be 17 55 45 3c
       -0.06705853 4.9713354 -0.39793804 0.012044213
000100 4b 8e 48 bf f5 e0 35 3f e2 8a 47 bc f9 9d d3 bd
       -0.7834212 0.7104638 -0.012179108 -0.10332865
000110 1b 5a df be 7d 29 80 be 77 cc 9f 3c aa 91 85 bf
       -0.43623433 -0.25031653 0.019506676 -1.0435078
000120 b6 e4 87 bd 83 ab d1 bd 20 ea f1 bc ab a6 92 40
       -0.0663542 -0.102377914 -0.029530585 4.582845
000130 b3 7b 11 3e 5d 82 38 39 54 8d ad be fc e5 1f 3c
       0.14207344 0.00017596172 -0.33896887 0.009759422
000140 ad fa 3c 3d 0d f5 ec c0 2b 37 a9 3d 23 46 ab 3f
       0.0461375 -7.4049134 0.082624756 1.3380779
000150 c9 16 44 bf b8 0d 17 bf b1 35 03 be aa a9 67 3d
       -0.7659727 -0.5900531 -0.1281345 0.05655829
000160 d9 ae b6 be 52 66 09 3a 4e 7a 6f bf b3 ab 1b 3f
       -0.35680273 0.0005241382 -0.93546 0.6080887
000170 dc e7 48 3e a9 81 51 40 b8 66 fb be fc ef c6 bc
       0.19619697 3.2735388 -0.49101806 -0.024284355
000180 ba 4d 38 bf d5 7e 71 3f 5b d8 88 bf 78 e5 92 bf
       -0.719936 0.94334155 -1.0691026 -1.1476278
000190 b2 53 0f 3e 4d e7 32 c0 57 f2 47 bf 10 ea 86 bf
       0.13996771 -2.7953675 -0.78104156 -1.054018
0001a0 e0 9f eb be 7a 71 31 3c 57 da 88 be 4a 86 f3 bf
       -0.46020412 0.010830278 -0.2672908 -1.9025357
0001b0 f2 84 50 bf 37 e0 28 3f 12 d4 f9 be 2b 7c c1 39
       -0.8145286 0.65967125 -0.4879461 0.0003690434
0001c0 52 c5 e4 3d a7 5f 30 40 02 af bf 3e 45 55 d7 bf
       0.11170448 2.7558382 0.37438208 -1.6822897
0001d0 64 ce 98 be 7d af 80 bf 83 9b 2b bf 09 20 a2 be
       -0.29844964 -1.0053555 -0.6703417 -0.31665066
0001e0 f3 7d d0 bc 5e 64 8c c0 a2 b9 77 be a2 01 a4 3c
       -0.025450682 -4.387252 -0.24191907 0.02002031
0001f0 7c a4 fd be 5e bb af be 13 f7 35 bf f6 44 cd be
       -0.49539554 -0.34322637 -0.7108013 -0.40091676

fc1.bias f4 [64]
000000 4c 92 15 bd df ba f3 bc a7 2f 0d 40 91 42 0a 40
       -0.036516473 -0.029752193 2.2060335 2.160313
000010 d3 58 ae bf 65 65 e5 40 82 bd 81 c0 33 16 22 c0
       -1.3620857 7.1686273 -4.0543833 -2.532605
000020 b2 cb 3c 40 76 50 df 40 cb f4 99 40 8b 84 06 bf
       2.9499326 6.978572 4.811132 -0.52545995
000030 c9 5c 91 40 d2 82 53 3f 93 3a f6 c0 d0 e9 10 c0
       4.5425763 0.8262149 -7.69465 -2.2642708
000040 3b 48 a8 3e 8e 01 6d 40 f5 08 17 40 6d 0d 1c c1
       0.32867607 3.70322 2.3599217 -9.753278
000050 21 4b ed 40 c9 ea ca 3c 78 e7 41 40 ad e2 69 40
       7.415421 0.024770157 3.0297527 3.6544602
000060 5c a8 e4 be 15 bb 42 c0 9f 56 10 41 09 a6 e2 be
       -0.44659698 -3.0426686 9.021148 -0.442673
000070 05 33 34 bf 01 e5 95 3e b1 4d e9 40 b4 d3 89 3f
       -0.7039035 0.2927628 7.290734 1.0767732
000080 7a 2d b4 3f c5 3b d6 be a5 f1 11 be 51 65 15 c1
       1.4076378 -0.41842476 -0.14252336 -9.337235
000090 3b 62 a1 be 4c 81 5d c0 8d c5 13 c1 2b fc 8f 40
       -0.31520256 -3.4610167 -9.23573 4.499532
0000a0 65 38 0a c0 fc 72 04 c0 f8 57 4e 40 55 da ce be
       -2.159692 -2.069518 3.2241192 -0.4040095
0000b0 ff fa 22 bf 3b ec b2 3f 27 a3 c1 bf e0 96 58 40
       -0.6366424 1.3978342 -1.5127915 3.3842087
0000c0 95 31 0a 40 a4 d0 20 40 7b b3 0c bc a2 c8 2a 3f
       2.1592762 2.5127344 -0.008587713 0.6671239
0000d0 8d 1c a2 3f 5e c1 95 40 c5 8e 99 bc 41 94 f5 3f
       1.2664963 4.6798544 -0.018744836 1.9185869
0000e0 f6 10 06 40 f5 ee db c0 cf 37 11 40 04 18 fd 3e
       2.0947852 -6.8729196 2.2690313 0.49432385
0000f0 70 06 e3 c0 1f 5b 00 41 e6 d9 2e 3f 62 8c 8f 3e
       -7.094536 8.022246 0.68301237 0.2803679

fc2.weight f4 [128, 64]
000000 c3 5b 5b bd 67 2f 9d 3d 58 f8 0c be 9e 79 e1 bc
       -0.053554308 0.07675057 -0.1376661 -0.027523812
000010 04 24 5e 3d fd ec 86 bd 9c 65 2f bd 6b 1f ed 3d
       0.054233566 -0.06588171 -0.04282151 0.11578258
000020 cc d8 21 bd 0c 92 04 3d d0 33 c3 bc 29 cf f5 bd
       -0.039513394 0.032365844 -0.023828417 -0.12002403
000030 46 bc b3 bd 2f 77 c8 3c e3 af 78 bd a6 2e 7d bd
       -0.08776145 0.024470894 -0.060714614 -0.061812066
000040 2e b4 92 3d 13 96 83 3d 9a 33 e9 bc 88 2e d5 bd
       0.07163273 0.06425109 -0.028466988 -0.10409266
000050 d0 37 bb 3d 9c 84 f4 bc 7c b9 b8 bd b8 46 ca bd
       0.09141505 -0.02984839 -0.09019753 -0.0987677
000060 5c 83 9a 3d bc eb 1e be 1f 74 14 3d 8f 1f d0 bd
       0.07544586 -0.15519613 0.036243554 -0.10162269
000070 48 5c dc 3d 40 2b 7c bc b7 f0 99 bd 39 cb 97 3d
       0.10759789 -0.015391171 -0.07516616 0.074118085
000080 cf 6e ee 3d 44 4a 11 3d 0c d1 cf 3d 2a 5b ca 3d
       0.11642229 0.035471216 0.101472944 0.098806694
000090 df 39 4b 3d 9e 0e 43 bc e7 ab 03 be 81 e8 00 bc
       0.049615737 -0.0119053405 -0.12858544 -0.007867933
0000a0 e2 47 8c bd 98 43 db bd ed 0d 32 3d 6c d9 8d bd
       -0.06849648 -0.10706252 0.043470312 -0.069262356
0000b0 f0 97 30 bc c2 72 2a 3d 46 6f 67 bd 28 33 d8 bd
       -0.010778412 0.041613348 -0.056502603 -0.10556632
0000c0 ad 29 37 bc aa af f2 3c f7 aa 0e be c3 07 fa bd
       -0.01117937 0.029624779 -0.13932405 -0.12208512
0000d0 14 fa e6 bb 59 44 d2 3d 22 2f 8f 3d 10 8b 4e 3c
       -0.0070488546 0.102669425 0.06991412 0.012606397
0000e0 79 c3 a2 bc 90 90 8d 3d 21 ef 84 3d 17 3b bd 3c
       -0.0198686 0.06912339 0.06490923 0.023099465
0000f0 b9 3c 6d 3d 85 6d ad bc 64 17 f7 3a cb be 07 bd
       0.057919238 -0.021170387 0.0018851575 -0.03314094
000100 80 18 ee bd 70 88 42 3d ef af 5d 3e 39 ac cb bd
       -0.11625767 0.0474934 0.21649145 -0.09944958
000110 14 d1 3c 3c 52 a8 72 bd 4b c3 03 be 12 ca 97 bd
       0.0115244575 -0.059242554 -0.12867467 -0.07411589
000120 53 2c 7b 3e 1f 8f c1 3c de d7 94 be ee 72 aa be
       0.24528627 0.023627816 -0.29070944 -0.3329081
000130 29 50 8c bd 63 0b b5 3e cc c7 8e be 79 91 a9 3b
       -0.06851227 0.3536025 -0.27886808 0.0051748124
000140 97 3a b6 bd 35 fe bd be 71 8b 3a be b0 8c e6 be
       -0.08897894 -0.37108007 -0.18217255 -0.4502921
000150 c8 95 a9 3b 00 13 5f ba cb 22 8e be a7 fe 13 bf
       0.005175326 -0.0008509606 -0.2776092 -0.57810444
000160 dd 03 75 be 06 f3 c2 bd ee d3 e3 bd fe 23 12 3e
       -0.23927255 -0.09519009 -0.11124407 0.14271542
000170 80 19 01 3b 06 10 42 be c6 e0 b0 3d 3f 67 e8 bd
       0.0019699037 -0.18951425 0.08636622 -0.11347818
000180 c7 a3 e0 be bb f4 4d bd 2c a1 81 3c 54 ff dd bd
       -0.43874952 -0.05028222 0.015823923 -0.108397156
000190 f6 0c 6b be df db ad be 1f 6c 23 be 68 a6 0e bd
       -0.22954163 -0.3395681 -0.15959214 -0.034826666
0001a0 8a 17 6f bd 89 00 2b be ec 88 9e 3d 7c e1 90 3d
       -0.058372058 -0.16699423 0.077409595 0.07074258
0001b0 ce b6 80 bd ff 86 06 bf d4 c5 37 3c d4 a5 9b be
       -0.06284867 -0.5254974 0.0112165995 -0.30399954
0001c0 8d e1 18 bf 0f 3d 3c 3d 16 1a ad bd c0 d7 68 bd
       -0.59719163 0.045956668 -0.08452241 -0.05684638
0001d0 8e 26 16 3f 77 b7 07 3c 27 12 9f bd 8a d0 df 3e
       0.5865258 0.0082834875 -0.07767134 0.4371379
0001e0 d6 ca 49 be 9f 09 ab be 2a 0a 90 bd 64 c6 a6 3e
       -0.19706282 -0.33405778 -0.07033189 0.32573235
0001f0 78 63 ce bb c2 cf c2 3d 0e 1c cd 3d c5 fd 3e 3e
       -0.0062984787 0.09512283 0.10015117 0.18651493
000200 71 d3 8b 3e 58 6e b1 3d b3 c6 dc 3e f8 5b 63 bd
       0.27309754 0.086636245 0.43120345 -0.05550763
000210 34 e6 85 be 24 d6 f1 be 7c 08 ea 3e 09 89 e5 be
       -0.26152194 -0.4723369 0.45709598 -0.44831112
000220 4c e4 46 3e 0c ab 6a c0 d2 90 16 bf b1 3a 15 bf
       0.19423026 -3.6666899 -0.5881473 -0.5829268
000230 a4 4a 41 3f f3 cd 36 3e 09 99 af be 96 5d b9 be
       0.7550452 0.17852001 -0.34296444 -0.36204213
000240 bc bc b4 be b3 db a7 c0 83 bc 04 be 86 b7 13 bf
       -0.35300243 -5.2455688 -0.12962537 -0.5770191
000250 69 64 e3 be d9 93 86 be bd 7a 88 3e 2e 83 37 3e
       -0.44412544 -0.26284674 0.26656142 0.17921135
000260 1c 7d 28 bf f6 56 52 be fe 7b dc be f9 a1 27 3d
       -0.658159 -0.20540985 -0.4306335 0.040925954
000270 4d 6c 88 bd f4 18 7f 3f e1 a6 a4 3d 58 25 ec bd
       -0.06661282 0.9964745 0.08039642 -0.1153056
000280 c3 4f 59 3d a6 d0 82 be a0 fc 1f be d5 1e 36 be
       0.053054582 -0.2554981 -0.15623713 -0.17785199
000290 76 d8 89 be fc 9c ca 3d 4f 14 6a be 7a e8 29 40
       -0.2692296 0.09893224 -0.2285931 2.6548142
0002a0 d5 ea 41 3f b3 cc 79 be 8e 01 04 3d e8 6d 03 bd
       0.7574895 -0.24394493 0.032228045 -0.032087237
0002b0 8e 01 8d 3d a5 05 29 3e 7d 16 a7 3d c1 0d c2 be
       0.06885062 0.1650606 0.08158586 -0.37901118
0002c0 08 22 98 be 3f 5d 9c 3e 8e 99 87 be d7 f0 c8 bc
       -0.29713464 0.3053989 -0.2648434 -0.024528904
0002d0 00 79 07 3e 82 3c aa bd ad 21 3b 3e f0 6b 43 3f
       0.13229752 -0.08312322 0.18274565 0.76336575
0002e0 03 33 95 3c 9b d8 36 bf 28 63 19 3e a0 64 44 3e
       0.0182128 -0.71424264 0.14979231 0.1917901
0002f0 2d 4e ca be 04 f3 6b bf 8d 3a 92 3e fb be dc 3e
       -0.39512768 -0.9216769 0.28560296 0.43114457
000300 45 75 f5 3d ba 70 68 3e a2 c3 8f 3e 95 d7 33 bf
       0.11985258 0.22699252 0.28078943 -0.7025083
000310 b2 5f 81 bf cf 15 a6 bd 50 87 e7 bf 82 22 15 be
       -1.0107329 -0.081096284 -1.8088169 -0.14563945
000320 db f8 6b 3f 8b 27 fd 3e 56 70 09 be 07 6c 32 3e
       0.921766 0.4944423 -0.13421759 0.17424022
000330 84 0f f9 be cc c8 a7 3f e2 63 af 3e 59 3b 0c bf
       -0.4864465 1.3108153 0.34255892 -0.5477806
000340 0f 4c 34 3f df a1 c3 bd 8c ba b3 3e a3 77 ae bd
       0.70428556 -0.09552359 0.3510326 -0.08518913
000350 8b c8 7a bc 11 7c e7 3d f8 14 56 be 96 eb 5e 3e
       -0.015306602 0.11302961 -0.20906436 0.21769556
000360 bf 2c 0e 3d b9 e5 3d bf e6 0d 1b be aa 38 91 bd
       0.034710642 -0.74178654 -0.1514202 -0.07090886
000370 29 18 89 3d 9b 4f dc bc 5b fc b5 bd 72 a0 8d be
       0.06694061 -0.026893428 -0.088860236 -0.27661473
000380 ae a2 e9 3e 45 4b 5a be 4c 26 76 bd 10 26 28 3d
       0.45631927 -0.21317776 -0.060095116 0.041051924
000390 3c 8f dc bd 53 e7 cf be bb 95 41 be 26 a8 64 3e
       -0.10769507 -0.40606174 -0.18904774 0.22329769
0003a0 a8 61 7b bf dd 79 1d be bc a4 20 3f ac bc 92 3d
       -0.98195887 -0.15378518 0.62751365 0.071648926
0003b0 00 7e 48 3c f6 cc 71 3f 5e bc 99 bf 33 7b 76 bd
       0.012237072 0.9445337 -1.201061 -0.060176086
0003c0 40 72 9a bd 4a b7 d0 3e f6 36 b8 3e 17 24 7c be
       -0.07541323 0.40764838 0.35979432 -0.24623142
0003d0 4f fe 24 bf 25 48 dd bd 6b db 02 3f 0f 0d c8 3d
       -0.64450544 -0.10804776 0.51116055 0.09768116
0003e0 c8 d6 23 bf e1 26 00 bd 1b 1a f7 bc 47 ac 99 3f
       -0.63999605 -0.031287078 -0.030163815 1.20057
0003f0 03 00 8e be d1 b0 5a 3f a0 e3 8e 3f f8 c5 9d 3f
       -0.27734384 0.8542605 1.1163216 1.232604

fc2.bias f4 [128]
000000 f2 df ef bd b7 6d 6e 3e 29 a0 af 3e ce 1c 52 3e
       -0.11712636 0.2328404 0.3430188 0.205188
000010 67 0c 04 3e ea 31 2b 3e 56 40 20 3e c0 e2 85 3d
       0.12895356 0.1671826 0.15649542 0.0653739
000020 e3 bf 92 3b c5 8b b4 bf ac ac 4d bd a3 07 0c c0
       0.004478441 -1.4105154 -0.0502135 -2.187966
000030 4a 70 d7 3d e7 45 ef 3d a5 f8 f2 bd 04 7e 85 bd
       0.10519464 0.11683255 -0.118638314 -0.06518176
000040 ad 5e 98 bd 3e 78 29 bc a5 ce e2 3f 24 c0 5a bf
       -0.07439933 -0.010343609 1.7719313 -0.85449433
000050 c7 c1 9a bd 90 ed 38 3f 50 3d 54 3d 9c 0d 03 3f
       -0.07556491 0.7223749 0.051816285 0.5119264
000060 8c 6c 97 be ba 4a 2b 3c 92 d1 13 be 91 57 83 bd
       -0.29575002 0.010454828 -0.14435413 -0.06413186
000070 a4 9a d0 bd 53 2c 82 bc 71 66 28 3d c5 05 95 bd
       -0.10185745 -0.015890276 0.04111332 -0.07276491
000080 10 41 a8 bd 0f 90 f5 be 56 6f ab bd 92 85 d4 bd
       -0.08215535 -0.4796147 -0.08370845 -0.10377039
000090 f0 22 a4 3e b8 2d da bd 36 e7 52 c0 4b f2 9d 3e
       0.32057905 -0.106532514 -3.295362 0.30848917
0000a0 64 d0 9f 3e 25 67 94 3e a8 19 3f 3d b1 2f da 3f
       0.31213677 0.28984943 0.046655327 1.7045804
0000b0 2d c2 79 3d ff d4 53 bf b2 ec ca 3e e0 89 4d 3c
       0.060976196 -0.8274688 0.3963371 0.012545079
0000c0 21 4e 0b bd 37 87 09 3d 93 fb 45 bf 7a a2 b2 3d
       -0.034010056 0.033576217 -0.77336997 0.08722396
0000d0 02 5e 26 be 10 cb 8a bd dd d3 ab bd b7 b5 5e 3f
       -0.16246799 -0.06777012 -0.08390019 0.86996025
0000e0 a7 5f 2c be 1b a2 24 c0 e3 21 0f bc 49 17 50 3d
       -0.16833363 -2.5723941 -0.008736107 0.050803456
0000f0 2d f5 3b 3e 64 0d a1 bd ad e3 db 3f 2e 58 08 bc
       0.18355246 -0.07863882 1.7178856 -0.008321805
000100 68 a4 dc be 2a b5 bc bc f1 ab 67 bd 8a fb 8b 3c
       -0.43094182 -0.023035605 -0.05656046 0.017087717
000110 9b fd 68 bd 98 e5 91 bf 00 b2 9f bc f8 dc e9 3d
       -0.056882482 -1.1398191 -0.019494057 0.114190996
000120 86 4c 01 3f 57 cc 0e be 1d 65 91 bd 1c a0 9f be
       0.5050739 -0.13945137 -0.07099364 -0.3117684
000130 7b 97 8f bf d4 9c ae 3d f8 5b c8 3d fd f7 06 3e
       -1.1218103 0.08526006 0.09783167 0.13180538
000140 ce eb 14 3e f0 81 84 3d d2 d2 d2 3d ef a2 d2 3e
       0.14543077 0.06470096 0.10294117 0.41139933
000150 89 06 31 3f 5f c5 4a bd 00 02 6e bc 58 b6 c6 3e
       0.69150597 -0.049504634 -0.014526844 0.38810992
000160 53 a3 3c bd 78 b0 d8 bf 1b fc b7 3e 29 40 4e bf
       -0.046054196 -1.6928854 0.3593453 -0.8056665
000170 95 1c 6f bc be 67 56 bf c5 66 b2 3e 3c 28 c6 3f
       -0.014594217 -0.8375205 0.34844032 1.5481029
000180 a1 68 72 40 5b 8b 20 3d 26 9e d9 bd 1d 2f dd 3e
       3.787636 0.0391954 -0.106258675 0.43200007
000190 51 0f a1 3e ec b9 93 3f 75 01 a2 3d ad 38 77 3c
       0.31456998 1.1541114 0.07910434 0.015089196
0001a0 46 84 29 c0 8c c4 58 c0 98 45 43 3e 86 31 74 bd
       -2.6486983 -3.3869963 0.19069517 -0.05961754
0001b0 35 29 ad 3f bf 01 83 40 57 95 57 bd db 23 79 3e
       1.35282 4.093963 -0.052632656 0.24330084
0001c0 4c 98 27 3d 2e 84 0a 3e d0 03 13 40 17 61 e8 3e
       0.040916726 0.13526985 2.2971077 0.45386574
0001d0 53 03 0c be d5 81 b4 bd 1d 90 2f 3f e5 02 21 bd
       -0.13673143 -0.08813826 0.68579274 -0.0393094
0001e0 be 9d 83 3e 78 61 58 be 9d 95 a0 be bb 16 0f 3f
       0.25706285 -0.21130931 -0.31364146 0.5589406
0001f0 e8 13 a4 3d 3f 96 86 3e ff ca 9a bd 5f 2e 17 be
       0.08011609 0.26286504 -0.0755825 -0.14763783

fc3.weight f4 [64, 128]
000000 4e 67 9b 3d 25 7b 6b be 40 ba 64 bf 25 5e 16 3b
       0.07588063 -0.22996195 -0.89346695 0.0022944298
000010 b4 04 69 3d be de ae bd a8 74 0a 3d 0f f3 43 bc
       0.05688925 -0.085385785 0.03380266 -0.011959805
000020 16 bf 0d bc b7 f3 39 be c7 f2 21 3d 43 cb 3b bf
       -0.0086515155 -0.18159376 0.03953817 -0.7335703
000030 80 9b 98 be e6 91 0a be 9a 2f 88 be 5a 5b 7c 3d
       -0.29806137 -0.13532218 -0.26598817 0.061610557
000040 ac 71 2b bd 1d ed bd 3d 88 37 28 c1 15 c1 7f 3f
       -0.041856453 0.092737414 -10.513557 0.99903995
000050 e6 19 0d 3e 37 83 3d 40 3e 5a 1f 3e 9c 87 ea 3e
       0.1377941 2.9611337 0.15561768 0.45806587
000060 84 04 1c bf 0e 58 d3 be 41 50 6e bd 18 81 69 be
       -0.6094439 -0.41278118 -0.058182005 -0.22803152
000070 ec 3f 7f 3d 08 85 29 bf b2 d0 0e 3d 10 bc d6 bc
       0.06231682 -0.66218615 0.034866996 -0.026212722
000080 2d b7 28 c1 2f 50 f0 be 35 c1 16 bd 73 37 2f bd
       -10.544721 -0.46936175 -0.03680535 -0.04277749
000090 ce 66 ae bd 3d af 05 3c f0 28 a0 3b 22 c9 0c bf
       -0.08515702 0.008159456 0.0048876926 -0.54994404
0000a0 72 03 c9 bf 2d b6 4c bf c7 5d b7 3d 9e 60 96 3e
       -1.5704176 -0.7996548 0.089534335 0.29370588
0000b0 19 c1 38 be b8 fb 75 3e d7 9f 06 3e a9 7c be bc
       -0.18042411 0.24021804 0.13146912 -0.023252802
0000c0 01 36 68 bf d7 67 52 3f 06 89 1b 3e 0f ac b8 be
       -0.90707403 0.821897 0.15188989 -0.3606877
0000d0 d7 0a 05 bd 10 ac 87 bd 63 59 5b bf 34 c6 27 c0
       -0.03248104 -0.06624615 -0.8568327 -2.6214724
0000e0 61 eb ef 3c b8 d0 2e 3f 5c 38 96 bd c9 e4 60 3e
       0.029287042 0.6828723 -0.073349684 0.21962275
0000f0 35 1f fe bd f7 51 12 3d 2f 0b 59 c1 04 d8 20 3d
       -0.12408296 0.0357227 -13.56523 0.03926851
000100 ff d4 91 bd 22 d9 53 3c d3 e5 12 be 68 c2 3a bb
       -0.07120704 0.012930186 -0.14345483 -0.0028497223
000110 a8 df c1 3e 19 cb a4 3c f2 d1 de bc d6 55 56 3e
       0.3786595 0.020116376 -0.02719972 0.20931181
000120 8f 7c d6 3d b9 93 9e 3d 99 a8 43 3c 6d cd ed bf
       0.104729764 0.077430196 0.011942052 -1.8578316
000130 b7 67 17 bf de 11 4d be 8f 37 c5 bf cf 06 42 bf
       -0.5914263 -0.20026347 -1.540758 -0.7579164
000140 75 17 bb 3e be 44 99 be e1 d7 13 3e 4f 74 b6 3c
       0.36541334 -0.2993526 0.1443782 0.022272257
000150 39 27 d2 bc d8 8d 89 bc e5 66 75 be 7f 8a 2c be
       -0.025653468 -0.01679127 -0.23965032 -0.16849707
000160 3a 13 ee 3d d9 5c 6f be 6d 48 e6 bf a6 4e 82 3e
       0.11624761 -0.23375262 -1.7990853 0.2545063
000170 5e 37 68 c0 e6 2d d3 3c 91 bf 25 bd 2c d7 4c be
       -3.6283793 0.025778722 -0.040465895 -0.20003957
000180 77 1d 52 3d e2 ab a3 bf 2b 19 40 3d 69 0b f6 3e
       0.05129763 -1.278683 0.046899002 0.4805558
000190 ac b2 95 3f 1b 5f 51 be eb 54 b4 3d 05 46 28 be
       1.1695151 -0.20446436 0.08805259 -0.1643296
0001a0 0a b8 45 ba 82 82 eb be 39 f1 33 3d c4 df 81 bd
       -0.00075423776 -0.45998007 0.04393122 -0.06341508
0001b0 06 be f6 3e 86 ee 5a bf c8 21 46 be 51 37 11 bf
       0.4819185 -0.8552021 -0.19348824 -0.5672503
0001c0 cd 7e 8e be 5f d9 c9 be 60 16 24 bd d4 5f 04 3e
       -0.27831116 -0.39423653 -0.0400604 0.1292718
0001d0 d6 d4 a6 be 99 61 21 3d b7 20 0d 3e 17 e2 0e 3d
       -0.32584256 0.039399717 0.13782011 0.034883585
0001e0 a1 70 df 3d db 22 f1 be 8d 2c 07 bd e8 06 e4 be
       0.10910154 -0.47096905 -0.03300147 -0.4453652
0001f0 7e 8e 07 3d 8b 77 0a c0 16 3a 8f 3d 88 61 91 bd
       0.033094876 -2.1635463 0.06993501 -0.07098681
000200 f6 b0 e3 bc 27 fa 5e 3e b4 58 1b c0 c5 56 b5 bd
       -0.027794342 0.21775113 -2.427289 -0.088544406
000210 53 56 96 bc 98 ba 83 3f 2e 4c 07 be 20 42 08 bd
       -0.01835171 1.0291319 -0.13212654 -0.033266187
000220 60 15 bb 3a 56 e5 80 3f 7e e1 01 bd 19 4d eb 3f
       0.0014273338 1.0069988 -0.031709187 1.8382903
000230 0c 1c 1b 3e b4 07 ca c0 46 85 87 bf ee 7b a3 bc
       0.15147418 -6.3134403 -1.0587547 -0.019956555
000240 00 b5 a4 3d f5 98 8f bd 52 bf 94 bd 97 69 e1 3f
       0.080423355 -0.07011596 -0.07263054 1.7610348
000250 61 10 36 bc be 6d ad bf 87 c7 11 bb 61 08 ab 3e
       -0.0111123035 -1.3549116 -0.0022244172 0.3340483
000260 b0 97 33 be 78 64 16 3e f1 13 a0 3d 19 5e bf 3d
       -0.17538333 0.14686763 0.078163035 0.093441196
000270 79 78 c2 bd ff b1 8b c0 ee 8d 6b bd da 77 8b bd
       -0.094956346 -4.365478 -0.0575084 -0.06809969
000280 0b c8 0f be f2 c4 75 3f 45 74 b1 bd 68 dd 95 3d
       -0.14041154 0.9600364 -0.08664755 0.073176205
000290 38 a3 3f 3f e0 12 8c bd f7 4b 0f bf 4e 7c d5 3e
       0.7485843 -0.068395376 -0.5597529 0.416964
0002a0 6b 34 f1 3e 49 88 5f bc af 1c 8e 3b 72 32 ca c1
       0.47110304 -0.013643333 0.0043369154 -25.274632
0002b0 1f 53 b9 3d 37 08 0e c1 b1 9e 62 3c 13 09 78 bd
       0.09049057 -8.877006 0.01383178 -0.06055553
0002c0 b1 e3 9e be bc 73 81 bf 19 4f 04 c1 3c c9 4e 3f
       -0.3103309 -1.0113444 -8.269311 0.8077581
0002d0 94 da c9 bd 80 72 8b 3d cd 3f 96 3b 6d 6a 68 bf
       -0.098561436 0.068089485 0.0045852424 -0.9078739
0002e0 73 31 7c 3d 29 dc 67 40 19 af 73 bc c9 50 2b bd
       0.061570596 3.6228125 -0.0148732895 -0.04182509
0002f0 e7 2a be b8 a5 d4 36 bd 71 24 76 bf 6e 5a d0 bb
       -9.067897e-05 -0.044636387 -0.96149355 -0.0063584363
000300 67 5c c4 be 0d 79 56 bd 80 9c 1d bc f5 45 84 bd
       -0.38351747 -0.052361537 -0.009619832 -0.06458656
000310 92 f3 20 bc 78 89 bb 3e 84 85 98 bd ab 4f 55 3d
       -0.009823697 0.36628318 -0.07447341 0.05207793
000320 10 7f 5b 3e 9c 51 26 3d fe 7f 2f 3d 5a 5e be be
       0.21435189 0.040605173 0.042846672 -0.3718136
000330 96 34 08 c0 52 d1 6d 3e a6 49 61 bd 8b dd 0e 3d
       -2.1282096 0.2322438 -0.055001877 0.03487925
000340 1d 85 94 bd 98 6a 4b 3d a2 61 d9 bd f1 59 99 be
       -0.07251952 0.049662203 -0.10614325 -0.29951432
000350 40 55 66 3f 0c f1 82 3a ca 03 91 3d 79 b4 3d 3f
       0.8997383 0.000999005 0.07080801 0.74103504
000360 d6 10 8a bd 13 27 fd c0 cd ee 25 3e 71 a1 5c 3f
       -0.067414925 -7.91102 0.16204377 0.8618384
000370 7a db 3f bf 11 cd 20 40 52 56 01 3e d6 ec e9 3f
       -0.7494427 2.5125163 0.12630585 1.8275402
000380 52 19 18 be 23 c8 f3 bd c5 33 90 bd 89 a7 5d 40
       -0.14853409 -0.119034074 -0.07041124 3.4633505
000390 76 14 db be 42 49 17 3f 51 0e 86 bd ab 77 e7 bd
       -0.42789048 0.5909616 -0.065456994 -0.11302122
0003a0 ed 25 a2 3d 56 e7 cc bd 6d 07 05 be 1e 51 ae 3c
       0.0791739 -0.10005061 -0.12991114 0.021278914
0003b0 f2 f5 c9 bf 30 56 6d bf 42 39 ed 3d f6 47 ce be
       -1.5778182 -0.92709637 0.11583187 -0.40289277
0003c0 e4 db 6e 3e 0b 6b 48 3e 45 96 2a 41 e1 b8 80 bb
       0.23326069 0.19572084 10.661687 -0.0039282893
0003d0 a3 7c a0 3d ef b8 35 3d 59 bf c1 be 44 b9 5f bd
       0.078362726 0.04436582 -0.378413 -0.054620042
0003e0 52 dd 32 3f 1c 32 d6 3d 48 06 07 bf 47 44 64 bf
       0.6986896 0.10458776 -0.5274396 -0.8916668
0003f0 85 4a 07 bd 4b c9 58 40 0a 19 5b 3d d2 01 b1 bc
       -0.03303005 3.387286 0.053490676 -0.021607313

fc3.bias f4 [64]
000000 d9 0a a3 be 7a 38 61 bf da 38 74 bf b3 12 b8 3e
       -0.31844214 -0.879768 -0.9539925 0.35951766
000010 80 56 90 3b ea d9 7c bf 81 21 19 bf d0 e9 05 bf
       0.004404843 -0.9877001 -0.5981675 -0.52309895
000020 f4 82 f8 bd e4 67 43 bd fc 08 8c be 68 53 90 be
       -0.12134352 -0.0477065 -0.27350605 -0.28188634
000030 69 07 2c 3d 73 a9 18 bf b2 a7 20 be 21 82 3e 3d
       0.041999254 -0.5963356 -0.1568897 0.04651082
000040 37 be a2 be 71 bc 7a be a8 57 df be 2e 26 b6 bd
       -0.31785747 -0.24485947 -0.43621564 -0.08894001
000050 76 dc 4d 3f 5f 7c b6 bd 52 48 a8 3d 09 ca 95 be
       0.8041452 -0.08910441 0.08216919 -0.29255703
000060 13 c5 62 3d 93 42 00 bf 23 4b 79 bc 89 da 34 bf
       0.055363726 -0.50101584 -0.015215668 -0.7064596
000070 01 17 39 40 9c 02 63 3e d8 c0 69 3d 74 96 db 3f
       2.892029 0.22168964 0.057068676 1.715529
000080 00 7a 86 bf fc 6f bd 3e 00 5c 5c bf 0d 92 08 bf
       -1.0505981 0.369995 -0.8607788 -0.53347856
000090 60 96 df be ad dd fe 3f 57 fa d8 bd c5 1e 89 3f
       -0.43669415 1.99114 -0.105946235 1.0712515
0000a0 67 e6 83 3d aa 24 c5 ba 40 cf a1 be 6b a2 1b bd
       0.0644043 -0.0015040834 -0.31603432 -0.03799669
0000b0 3e d2 e7 3f 82 ef 2b 3f e7 2b 7b bf 56 01 b2 3f
       1.8111036 0.67162335 -0.98113865 1.3906658
0000c0 d8 c7 dc bd e6 d0 83 be d1 5a a3 3e 38 f4 88 bf
       -0.10780305 -0.25745314 0.31905225 -1.069953
0000d0 8a 43 43 be 62 79 33 3f 97 05 86 3b 4d d9 c0 be
       -0.19068733 0.7010709 0.004090022 -0.37665787
0000e0 5d 1d d7 3e 9c 41 8c 40 9d 54 79 bf 4a e7 07 3e
       0.4201459 4.383009 -0.97394735 0.13271824
0000f0 35 0c 05 bf 1b 8d 25 be d1 67 77 bb 4e 84 01 be
       -0.5197175 -0.16167109 -0.0037751088 -0.12648126

fc4.weight f4 [1, 64]
000000 9b 97 0b 40 22 db 8c bf e7 62 29 40 ec f3 15 3f
       2.1811283 -1.1004374 2.6466615 0.5857532
000010 58 45 ed bc 32 6f 83 40 65 3e 0d bf 75 ab 78 c0
       -0.02896373 4.1073236 -0.5517333 -3.885465
000020 ff ff 68 3c f6 c8 dc 3f 1e c2 40 bf 53 8d dc 3e
       0.0142211905 1.7248828 -0.752962 0.43076572
000030 c4 f5 57 3e ea 64 3a c0 05 cb 66 3e 13 22 aa 3d
       0.21089846 -2.9124093 0.22538383 0.083072804
000040 35 71 34 3d b3 54 f0 3d ef ae 5d c0 16 f9 85 3d
       0.044053275 0.11734905 -3.463802 0.0654165
000050 6b c7 5f 40 87 ce 10 be e4 ac 73 40 1a b0 e7 bf
       3.4965465 -0.14141284 3.8074274 -1.8100617
000060 3a a4 2c bf a9 3f ef bf 6c e5 ba bb 69 2c a5 c0
       -0.6743809 -1.8691303 -0.0057036187 -5.161671
000070 bc 8e fb 3f 39 f9 d8 3f 94 a8 12 bc 19 88 a2 3f
       1.9652934 1.6951057 -0.008951325 1.2697784
000080 c1 81 93 be ed 67 f7 3f 7e 96 22 c1 a6 85 4d c0
       -0.28809932 1.9328591 -10.161741 -3.2112823
000090 83 88 7f 3f d8 ce af 3f 88 7a 5c bd 88 25 0c 40
       0.99817675 1.3734999 -0.053827792 2.1897907
0000a0 56 5f 47 bf d4 d6 b9 bd 6b f9 b2 bb 54 9f 93 3e
       -0.77879846 -0.09074178 -0.005461862 0.28832495
0000b0 cf d1 0d 41 a7 f1 ff 3f 53 72 97 bf be f5 c2 3f
       8.863723 1.9995621 -1.1831764 1.5231245
0000c0 52 8b c9 bf 87 d0 ca 3e 54 33 41 40 38 95 ff 3f
       -1.5745642 0.3961222 3.0187578 1.9967413
0000d0 ac 3d fd bc b8 73 26 3f e8 f7 38 bf e2 8f 4b c0
       -0.030913197 0.6502032 -0.72253275 -3.180657
0000e0 62 2e 7e 3f 73 8e ab 3f c6 c6 b1 bf db 32 a3 3e
       0.99289525 1.3402847 -1.3888786 0.31874737
0000f0 db 38 e7 be 01 1a 89 c0 15 54 00 bc 07 28 05 3a
       -0.45160565 -4.2844243 -0.007832547 0.0005079512
