python_scripts/indicatrizE.pth (torch, 14839 bytes, 7 tensors)

fc1.weight f4 [60, 9]
00000000: 4072 b33d 6d6c bb3d c76f ae3d 880e 9d3d
00000010: 2ef2 b53d d889 b73d c8a5 b33d 1fa7 b93d
00000020: f1f3 0f40 c9a5 2e3f 530d 2f3f b501 333f
00000030: a24b 2f3f 2de3 2f3f cb75 2c3f f667 203f
00000040: 592c 2f3f df6d e93f 626e 453f 9bf1 463f
00000050: 67f5 463f 8748 493f b36a 433f 9ff1 363f
00000060: c85b 443f 12e1 453f 6f92 d43f 9f6a 543e
00000070: c61b 5d3e 3144 543e dd43 593e 17b2 613e
00000080: a602 5d3e d3d8 563e 261b 543e 13f2 f33f
00000090: 5ac5 9e3d 8dd4 d83d 93b6 e43d 737a ed3d
000000a0: 22d6 003e 0378 c43d 3490 c03d 3176 d43d
000000b0: 144d 02c0 fc22 6dbf 757e 6cbf d06e 77bf
000000c0: 5d10 6dbf a404 6dbf 3ebe 6cbf a0ab 6cbf
000000d0: f8d9 6cbf 38ec 0b3a 48f8 dd3d 7fc6 d83d
000000e0: bd55 d93d e2bb f13d b0a7 a83d 1c38 de3d
000000f0: e4ce af3d 1896 d93d 2cc4 0e40 e078 cc3e
00000100: ccd3 d53e ec6a ca3e 8791 d43e 82fe cd3e
00000110: db81 d33e 083b d63e fa2c d53e 3e26 f93f
00000120: cc90 3e3e 3ce3 6b3e 06e3 623e 558d 673e
00000130: ceb3 553e 4584 563e 034f 0b3e 2e73 153e
00000140: e8f8 f1bf da74 af3d 940d ab3d 5f7b 9d3d
00000150: 2b94 ac3d a2de ab3d d2c3 ab3d 906e 8d3d
00000160: 26a0 9c3d 7649 1040 ebad 223e 04fa 2d3e
00000170: 8b15 253e 5b5b 283e f010 3c3e 0610 293e
00000180: c243 003e 5f8c 083e 3859 13c0 4bba ab3d
00000190: f9df c73d 451d eb3d 0a7b da3d 35e4 d33d
000001a0: f990 bf3d f6ea cf3d f353 cb3d b099 0b40
000001b0: 4e23 4b3d dc71 2d3d 675a 553d 9731 7e3d
000001c0: 2cb1 6e3d e565 3c3d 215b 893d 2020 843d
000001d0: 6c91 0940 c43b 59bf dedf 58bf 9c80 66bf
000001e0: c3aa 59bf 8fa5 59bf 861d 59bf f0ab 58bf
000001f0: 2565 59bf d1d7 07bb 96ff df3d e9fb fb3d
00000200: 759a 023e b86b d83d 040d fe3d 022d ea3d
00000210: adc8 d03d 71ac d33d 000b 0f40 5ad6 da3d
00000220: eeb1 6b3d 46ab dc3d da3e a33d 8600 853d
00000230: 6904 cf3d b845 ef3d dd3f e03d 502b 02c0
00000240: 47c8 1b3f 903a 1c3f fbaa 163f 4fb3 1b3f
00000250: 6b8f 173f 110d 1c3f bfb2 1b3f 3a09 1c3f
00000260: c0a3 09c0 dec9 61bf b560 61bf f9ed 69bf
00000270: 82d2 61bf 30cf 61bf 9d6c 61bf a566 61bf
00000280: 178a 61bf 19a6 fbb9 79c3 4bbf 187c 4ebf
00000290: 2083 5cbf 9afa 4ebf d55d 4ebf 0c89 4ebf
000002a0: cb50 4ebf 65a2 4ebf 243e 95bb 2ffd 823e
000002b0: fd56 7b3e 45c8 853e 7fc4 873e e0fd 703e
000002c0: ea32 8a3e 0c75 883e 8617 833e 23c3 f73f
000002d0: cd78 6b3d a758 783d 304b 473d 256b 473d
000002e0: dfb1 733d d78d 673d 9864 773d f82a 713d
000002f0: 80cf 1940 2763 453f 967b 433f 5633 5b3f
00000300: f208 443f 9a33 4b3f 8dda 4f3f 74bf 443f
00000310: 05c3 473f 75d2 b13f 2e17 33bf a040 3dbf
00000320: 4503 40bf 6154 2bbf 960b 3dbf b107 33bf
00000330: 9a73 3bbf 8e14 34bf e4d0 0440 0517 923e
00000340: 0c58 9c3e 053b 903e 9e34 5c3e 9d18 7d3e
00000350: 7991 693e dd5b 9b3e 010b 893e 0dca d3bf
00000360: eee2 2e3e fa7d 363e 8d97 1a3e c4fb 633e
00000370: 46ac 643e 222f 3b3e cf7f 073e bc64 2b3e
00000380: 1b46 f3bf 3398 993d 7e12 973d 66f8 be3d
00000390: b61c 9b3d ca92 b43d 5495 a73d 69c0 b03d
000003a0: da77 953d 4333 1040 478a 6fbf 071c 6fbf
000003b0: e86a 79bf d36f 6fbf 3081 6fbf 97e4 6ebf
000003c0: d91b 6fbf 474a 6fbf e467 bd3a 08eb cc3d
000003d0: 8a9e b33d bc57 c73d fbbd c33d 858a a93d
000003e0: b947 b83d e55b ce3d 3d3f d03d a075 1340
000003f0: ccd5 2e3f 718f 2c3f 2019 2b3f 3fac 313f
0.08762026 0.0915154 0.085174136 0.07668787 0.08884083 0.089618385 0.08771855 0.09065079
2.249264 0.6822172 0.68379706 0.6992448 0.6847478 0.6870602 0.6736724 0.6265863
0.68427044 1.8236655 0.77121556 0.7771241 0.77718204 0.7862629 0.76334685 0.71462435
0.7670255 0.77296555 1.6607188 0.20743798 0.21592626 0.20729138 0.21217294 0.22040592
0.21583042 0.2098115 0.20713481 1.905825 0.077524856 0.10587416 0.11167636 0.11595621
0.12581685 0.09593203 0.094025046 0.10374106 -2.0359545 -0.92631507 -0.9238046 -0.9665346
-0.92603093 -0.92585206 -0.92477787 -0.9244938 -0.92520094 0.00053376285 0.108383715 0.10584735
0.106120564 0.11803414 0.08235109 0.10850546 0.08584383 0.10624331 2.2307234 0.3993597
0.4176315 0.395347 0.4151728 0.40233237 0.4131001 0.41841912 0.41635877 1.9464796
0.18609923 0.23035902 0.22156915 0.22612508 0.20869371 0.20948894 0.1360436 0.14594719
-1.8904085 0.085672095 0.08352199 0.07689547 0.08426698 0.08392073 0.08386959 0.06905854
0.076477334 2.2544837 0.15886657 0.16989905 0.16121499 0.164411 0.18365836 0.16510019
0.12525848 0.13334797 -2.3023205 0.08385142 0.09759516 0.11480192 0.10667999 0.103462614
0.09353823 0.10152237 0.099281214 2.1812553 0.049594216 0.042344913 0.052088168 0.06205901
0.058274433 0.04599561 0.067068346 0.0645144 2.1495008 -0.8485682 -0.84716594 -0.9003999
-0.85026187 -0.8501825 -0.84810674 -0.84637356 -0.8491996 -0.0020728002 0.10937421 0.123039074
0.12754233 0.10567421 0.12404826 0.11434366 0.10194526 0.10335625 2.2350464 0.106854156
0.057542734 0.10774855 0.07970972 0.064942405 0.10108263 0.1168322 0.10949681 -2.0338936
0.60852474 0.6102686 0.58854645 0.6082048 0.59203213 0.6095744 0.6081962 0.6095158
-2.1506195 -0.8819865 -0.8803819 -0.9137874 -0.88211834 -0.8820677 -0.88056356 -0.8804725
-0.88101333 -0.00047998203 -0.7959514 -0.806581 -0.8613758 -0.8085114 -0.80611926 -0.80677867
-0.8059203 -0.80716544 -0.004554527 0.2558379 0.24544902 0.26129356 0.26517102 0.23534346
0.2699197 0.266518 0.25603884 1.9356426 0.05748825 0.06063142 0.04865569 0.048686165
0.059495803 0.056531753 0.060398668 0.05887887 2.4032898 0.7710442 0.7636045 0.8562521
0.7657615 0.7937561 0.8119286 0.76854634 0.7803195 1.3892351 -0.69957244 -0.73926735
-0.7500499 -0.66925627 -0.73845804 -0.6993361 -0.7322327 -0.70343864 2.0752497 0.28533188
0.30535924 0.28170028 0.21504447 0.2471642 0.228094 0.30343524 0.26766208 -1.6546036
0.17078754 0.17821494 0.15096875 0.2226401 0.22331342 0.18279698 0.13232349 0.16737646
-1.900577 0.07499733 0.07376574 0.09324722 0.075738356 0.0881706 0.08182779 0.08630449
0.072982505 2.2531288 -0.9357037 -0.9340214 -0.9742875 -0.93530005 -0.935565 -0.9331755
-0.9340187 -0.93472713 0.0014450517 0.10005766 0.08770473 0.09733531 0.0955772 0.08278374
0.08998055 0.10076121 0.10168312 2.3040543 0.6829498 0.67406374 0.6683521 0.6940345

fc1.bias f4 [60]
00000000: 2427 cdbf 80ff 943e 972e 913e 55f4 e33e
00000010: 23f4 d7bf 090b 4040 fcfb d3bf 8bd7 353e
00000020: 82e9 06c0 a8cf c8bf 3684 f8bf 388b d9bf
00000030: ae27 c1bf b5b3 2740 3aa2 debf 3a42 bebf
00000040: 218e a43e e75b 3240 24f5 1a40 47fa 093f
00000050: 2aac cbbf 9a41 553f 5e04 4ebf e787 0ec0
00000060: e295 02c0 7c7c cbbf 229a 4340 e637 d3bf
00000070: e026 813e efba 2940 2084 4cbe 8bc7 3b40
00000080: 865b 0a3f a56e 2b40 077a a3bf e0e6 39c0
00000090: afd3 fcbf 0743 f43f 1d05 d2bf 54ec c0bf
000000a0: 888d 3a40 3d85 3140 bcb2 4540 6253 3bbf
000000b0: bab7 da3e dfae 1140 4614 d7bf 25d1 3a40
000000c0: 6dd8 2540 edc9 efbf 3967 3940 71df 49bf
000000d0: 88ce eebf 7b54 3740 bd8b 5c3f 6aec 44be
000000e0: cff3 3540 ee36 babf c76d abbf c0fe bbbf
-1.602757 0.2910118 0.28355858 0.44522348 -1.687138 3.0006735 -1.6561275 0.17758004
-2.1080022 -1.5688372 -1.9415348 -1.6995611 -1.5090234 2.6203434 -1.7393258 -1.4863961
0.32139686 2.7868593 2.4212122 0.5389752 -1.5911915 0.83303225 -0.80475414 -2.2270448
-2.0403981 -1.5897365 3.0562825 -1.6501434 0.25224972 2.6520345 -0.19972277 2.9340541
0.54045904 2.6786282 -1.2771615 -2.9047165 -1.9752101 1.9082955 -1.640781 -1.5072122
2.9148884 2.7737572 3.089034 -0.7317411 0.42718297 2.2762983 -1.6803062 2.9190152
2.5913346 -1.8733498 2.8969252 -0.7885657 -1.8656778 2.8645313 0.86150724 -0.1923081
2.843006 -1.4548013 -1.3392876 -1.4687119

fc2.weight f4 [30, 60]
00000000: 42a6 46bf 1a2d fe3e 74e9 3c3f dc8a e03e
00000010: 0a12 33bf 9feb 2f3c 360f 46bf 643e 3e3f
00000020: c400 51bf 9f75 60bf 6678 82bf b175 49bf
00000030: 20f4 78bf d0ff 25be eb88 4dbf aa02 46bf
00000040: 5c55 4f3f 150e 05be 7a5c 0bbd 8ea5 313f
00000050: 7ba5 5ebf 301c 203f 79a6 4dbf 0ef8 62bf
00000060: bcc9 61bf 4537 85bf 18a3 e53b ebbf 70bf
00000070: c650 2c3f 748f 5ebe a584 6cbf c7f7 bdbd
00000080: c6bc 153f 375b 84be 4780 4cbf d02b 42bf
00000090: 872e 51bf bde5 00be 08c3 6fbf ddb3 5abf
000000a0: d546 8b3e 604e fe3c 9339 c43c ec54 5ebf
000000b0: 8669 3d3f f02a fabd 8412 69bf 7a7e 5dbd
000000c0: c52d 0fbe 10fe 56bf 715a 1fbe c4c4 41bf
000000d0: cf12 46bf 9815 623d 870b 083f 011c 363f
000000e0: 86a8 cfbc b86a 8dbf 0a0f 5abf f6ed 5bbf
000000f0: cf91 cabe ed92 adbe 4204 18be b604 cabd
00000100: 5742 84be 8a74 ed3f c60f cdbe c223 d0be
00000110: 9528 ecbe 13f5 e3be e689 12bf db9a b7be
00000120: 7048 a2be f374 eb3f c214 f2be 77c1 91be
00000130: d58a 4abf d43d e03f f60c d13f 3816 adbe
00000140: 3d9e f6be 9adb 833d b012 cd3d bbb1 57bf
00000150: 0d0e 22bf 997c afbe 3cd6 f53f a4ca 09bf
00000160: 5b8b 43bf 7e26 f83f 29f5 413f 6c9e e93f
00000170: 34bb 65be 727e ee3f b8d3 28bd b911 83bf
00000180: bedc 24bf d541 ce3f e979 46be ee08 cbbd
00000190: 452e b33f 1373 e53f 9cd6 e83f fab7 ad3e
000001a0: 756a 0abf 480c e63f 7d9e dfbe b958 db3f
000001b0: ffed dd3f 9f6e 09bf 154d eb3f c2d2 dc3e
000001c0: 8da7 c6be e95c e13f 72c8 813e 0432 23bf
000001d0: 4f3a e13f 75ec 6ebe 5782 6bbd 161b 4fbe
000001e0: cf41 a63f 334c 64bf b53d 5dbf dece 54bf
000001f0: a4b1 a13f cf6f 8abd 358b 963f b928 88bf
00000200: 1301 9a3f 3efc 8f3f 2ea9 a23f bcd3 a63f
00000210: c0c1 a43f f172 8f3e 6ad0 a53f 6674 893f
00000220: f62c 7cbf 9f56 b03c be4b 873d 56f1 73bf
00000230: bbb8 8e3f c2fb 43bf 6fc5 8a3f e2f7 893f
00000240: a482 923f bfb4 ae3f fbf5 ffbc 131c 9d3f
00000250: b066 70bf 8c93 ad3d 8060 843f e047 1dbe
00000260: e40a 8abf b64b 143e b73d a43f e628 843f
00000270: 7589 8c3f a906 8dbd 244c 943f 2ef8 ab3f
00000280: 1961 a7be a2c8 72be b6d8 a8bd bfb5 9d3f
00000290: 3069 9abf d4b4 ccbd eb4b 943f ced5 13be
000002a0: 2fe4 c23d 22bf 983f 8c56 5b3d b98e 9b3f
000002b0: ac5e 8e3f 03cd febd 5577 60bf 6727 5ebf
000002c0: bb71 09bd 07bf 953f d67f a73f d6e8 983f
000002d0: 99f2 2f3f 17f3 d6be 88b8 fabe 32c1 a8be
000002e0: c436 4f3f c205 34bc c0c5 373f 2567 20bf
000002f0: 8a88 493f ddc9 563f e05e 393f e6bb 233f
00000300: 52b0 403f 241f 7f3e d271 463f 5233 273f
00000310: 7808 04bf 14da eb3d a71a a23d 21dd 37bf
00000320: 2718 3f3f 1fb0 02bf 7605 173f d765 453f
00000330: 4ea9 2d3f c8ce 693f 5056 cc3d 22c0 533f
00000340: 606f 13bf e93d b3bd d6a2 1c3f 3b15 9dbd
00000350: 549f ffbe 8fb4 1d3e 5918 253f a569 393f
00000360: 58c7 613f 4e8a b1bd 1a94 133f 1b5f 223f
00000370: 3a6e 1abd 26b9 1abd 001c 07bd a9d7 073f
00000380: 1873 38bf e7e2 303e 3285 353f 9a59 1a3e
00000390: 99ca 283e 85e2 5e3f 2c3e c33d 135b 233f
000003a0: d6e6 4a3f 1f57 cfbd 949d d7be 5d64 1dbf
000003b0: 813f 8c3d 476b 423f 5f0b 543f 753e 593f
000003c0: deb3 3ebf 5c98 283f 3926 1a3f 66f9 d03e
000003d0: 81fd 3dbf 7467 87bd 8562 58bf 2d81 233f
000003e0: 27dd 34bf 0e24 77bf b4d4 4dbf 3e41 42bf
000003f0: 57fc 55bf 241e 88be a7b7 71bf 5ff6 61bf
-0.7759744 0.49643785 0.7379372 0.4385594 -0.699494 0.010737329 -0.7736696 0.7431395
-0.81641793 -0.87679476 -1.0192993 -0.7869521 -0.97247505 -0.16210866 -0.80287045 -0.77347815
0.80989623 -0.12993653 -0.03402374 0.6939324 -0.86971253 0.6254301 -0.8033214 -0.8865975
-0.8819845 -1.0407492 0.0070079677 -0.94042844 0.6731075 -0.2173441 -0.923899 -0.092757754
0.5849117 -0.2585084 -0.79883236 -0.758481 -0.8171162 -0.12587638 -0.9365697 -0.854307
0.27202478 0.031043231 0.023953235 -0.8684833 0.7398914 -0.12215221 -0.9104388 -0.054075696
-0.13982303 -0.8398142 -0.15561844 -0.75690866 -0.7737245 0.055196375 0.5314259 0.7113648
-0.025348913 -1.1048193 -0.851792 -0.85909975 -0.39564368 -0.33901158 -0.14845374 -0.0986418
-0.25831863 1.855119 -0.40051097 -0.4065228 -0.46124712 -0.44522914 -0.57241666 -0.35860333
-0.3169589 1.8395065 -0.47281462 -0.28467914 -0.7911809 1.7518868 1.633208 -0.33806014
-0.481676 0.0643837 0.1001333 -0.8425557 -0.6330269 -0.34274748 1.9206004 -0.5382483
-0.76384515 1.9386747 0.7576471 1.8251472 -0.22434694 1.8632338 -0.041217536 -1.0239784
-0.64399326 1.611384 -0.19382443 -0.099138126 1.3998495 1.7925743 1.8190494 0.33929425
-0.5406869 1.7972498 -0.43675604 1.7136451 1.7338256 -0.5368442 1.8382899 0.43129545
-0.38799706 1.7606479 0.2534824 -0.6374819 1.7595919 -0.23332389 -0.05749735 -0.20225176
1.2988833 -0.8917877 -0.8642228 -0.83128154 1.2632337 -0.06759607 1.1761233 -1.0637428
1.2031578 1.1248853 1.270788 1.3033366 1.2871628 0.2801738 1.2954228 1.0738647
-0.98506105 0.02152568 0.066062436 -0.95290124 1.1150125 -0.76556027 1.0841502 1.0778773
1.1446118 1.3648909 -0.031245222 1.2274193 -0.9390669 0.08475408 1.034195 -0.1535945
-1.0784574 0.14482006 1.2831334 1.0324981 1.0979449 -0.06886036 1.1585736 1.3435113
-0.32691267 -0.23709348 -0.08244459 1.232109 -1.2063351 -0.09995428 1.1585668 -0.14437029
0.09516179 1.1933329 0.053549334 1.215293 1.1122642 -0.12441447 -0.87682086 -0.86778873
-0.033555727 1.1698922 1.3085887 1.1946056 0.6872955 -0.41982338 -0.4896891 -0.32959896
0.8094294 -0.010987701 0.7178612 -0.62657386 0.7872397 0.8390177 0.7241039 0.63958585
0.75269043 0.24914223 0.77517426 0.65312684 -0.5157542 0.115162045 0.0791524 -0.7182179
0.7464623 -0.5104999 0.5899271 0.7710852 0.67836463 0.9133115 0.099774 0.82715046
-0.5759182 -0.08752043 0.6118597 -0.07670065 -0.49926245 0.15400909 0.64490277 0.72426826
0.881948 -0.08668958 0.5764786 0.6342637 -0.037702776 -0.037774228 -0.032985687 0.53063446
-0.7205062 0.17274056 0.70906365 0.15073243 0.16483535 0.8706439 0.09533343 0.63810843
0.7925848 -0.10124039 -0.4211241 -0.6148127 0.0684805 0.7594494 0.8282985 0.84860927
-0.74493206 0.6585748 0.60214573 0.40815276 -0.7421494 -0.06611529 -0.8452533 0.6386898
-0.7064995 -0.9653939 -0.80402684 -0.758808 -0.83588165 -0.26585495 -0.94420856 -0.8826656

fc2.bias f4 [30]
00000000: acec 8e3e 55e3 74be 16c6 80be 73d1 ffbd
00000010: c3ea 883e 1a43 42bf 1371 5bbe 301c 993e
00000020: 562c 8e3f 2151 1dbe 0f82 4dbe e511 86be
00000030: e630 b1be 3d55 5dbe b041 673e 5fc7 1e3e
00000040: 1cbb 9fbe 5091 083f a19f 3abe 2cda 1fbe
00000050: 7fd7 98be 9073 babd 3fac 28be 47eb 05be
00000060: 7e75 b6be 168d fbbd 3b18 e2be ea68 003f
00000070: 4002 b9bd 9bfe 993e
0.2791494 -0.23914845 -0.25151128 -0.12491121 0.2674161 -0.7588364 -0.21429853 0.29904318
1.110728 -0.1536298 -0.20069145 -0.26185527 -0.3460762 -0.21614547 0.22583652 0.15505742
-0.3119744 0.5334673 -0.18224956 -0.1561057 -0.2985191 -0.09104073 -0.16471957 -0.13078032
-0.35636514 -0.122827694 -0.4415911 0.50160086 -0.09033632 0.3007706

fc3.weight f4 [20, 30]
00000000: f015 b03e 623a 8d3f fb42 5fbf 7279 0abf
00000010: 14f6 053f 75b5 98bf 2c09 8dbf 55a6 a53f
00000020: f78a 0140 dbc5 a03f 2d12 00bf 05d4 bdbe
00000030: e601 0abf 81a4 dbbe e036 e63e 30d9 283f
00000040: 6ca0 2cbf 13eb 16bf 918e 8b3f af96 2ebf
00000050: 203b 4abf 98d7 a83f d390 edbe 618b 25bf
00000060: f92c ac3f 66b6 3ebf 43e2 b23f e487 a73f
00000070: c6c4 40bf 4c86 a03f c9d5 9cbe e8d3 70bf
00000080: 255c 373f 62c7 f53e 852a b0be 454e 853f
00000090: 350e 523f 6369 88bf 4740 fdbf f085 7fbf
000000a0: 9ab0 af3e e16a d43e e5eb d73e 3074 b63e
000000b0: c72b 0ebe 93fe f1be bd6b 383f 65d5 113f
000000c0: a46a 80bf 69b9 163f 6b8e e83e 1f65 76bf
000000d0: aba8 293f 698f 213f e363 92bf bc50 0d3f
000000e0: f60c 8bbf 31dc 7dbf d3dd de3e ce75 8abf
000000f0: c98c ed3e 6f1a 9e3f c1f1 10bf 17ab 8dbe
00000100: 8e5d 373f f778 9ebf f7bb 59bf 178a 753f
00000110: 7333 fc3f 3bfb 6b3f 3231 12bf 3273 c8be
00000120: d30c 34bf 5f94 0ebf 2f1a d93e 722e 233f
00000130: e5ea 4cbf 6315 09bf 9bb6 923f c018 16bf
00000140: a60b 13bf f3af 893f a272 d4be 8a28 eabe
00000150: aaad 8b3f 52ba 21bf 17ee 8f3f c8c9 8d3f
00000160: fef3 a2be 0703 753f 220d 6ebf d34e 8dbf
00000170: 18eb 553f ad6c fc3e 8db2 84bf 785c 9d3f
00000180: 97cd 7e3f 442f 8dbf 5c98 2dc0 5c8d 93bf
00000190: a436 143f f82a c23e 50af 3c3f 0e1b 0f3f
000001a0: af35 81bf 7a0d 84bf cad5 463f 05f7 353f
000001b0: 69ad adbf 2532 383f 1392 403f 42fc adbf
000001c0: 9008 f03e d1fb 5e3f a082 87bf cde3 723f
000001d0: c6a2 babf a871 8abf b256 243f ba9d aabf
000001e0: 1614 8dbe 9418 94bf 623c 543f d4e2 ca3e
000001f0: f387 6dbe a07e 883f 8424 4f3f 2dac a9bf
00000200: 0753 e2bf f666 64bf 0f2b 153f a90a 163f
00000210: 2d97 093f 738f e73e 1499 87be 8bee e0be
00000220: ab70 143f 3093 0b3f 1c6b 9abf 62b6 303f
00000230: 9e88 203f 1b81 88bf 04f9 b23e 5881 353f
00000240: 6dbf 90bf f9ea 333f d7a2 aebf b242 8bbf
00000250: 83e8 a43e a187 9abf d1ce 65bf 0c5c 93bf
00000260: 8a3f 7c3f 4cf4 9d3e 23ce 62bf 3bc1 973f
00000270: b1b6 563f 0293 77bf 3ad9 25c0 181a 9dbf
00000280: 5653 623f c72c c83e 16ca 1c3f 4f2b e93e
00000290: 82da 71bf 706a 7bbf c550 833f 468d 2b3f
000002a0: b441 c0bf 61e3 393f 4fd8 2b3f 3b88 90bf
000002b0: 97fd 003f 891d 233f 71c8 88bf 9a8d 653f
000002c0: fd66 aabf 6778 a7bf 7a32 303f 679f 9ebf
000002d0: b458 cdbe 1116 73bf 657b 093f e7f4 443e
000002e0: 2c36 11bf 4b64 9a3f 628c 5e3f eafc 89bf
000002f0: be35 e8bf 3aa0 41bf 7323 a93e 57f8 d83e
00000300: 38ad 1c3f c8de e23e caf1 b6be 4d16 1bbf
00000310: 9165 453f 8e10 1f3f f9d7 8bbf bcc4 063f
00000320: 5bd9 263f cdc1 91bf cb62 9c3e 496a 293f
00000330: b8fb 55bf 8973 ef3e 9804 9ebf 3285 71bf
00000340: e7eb aa3e a522 73bf da80 1c3f b546 a23f
00000350: 5161 3fbf c82b 98be a8eb 5a3f 9073 95bf
00000360: 9340 80bf 48b3 813f 2f3f 1d40 8224 913f
00000370: 3de4 2abf 5c9d e9be 575f 49bf 0082 12bf
00000380: 7c96 153f f80c 723f 7c16 3dbf 5f22 03bf
00000390: 94e4 a53f f318 cabe 9b78 2abf f510 7f3f
000003a0: 3cb1 eabe 3158 20bf 6908 9d3f d9b4 69bf
000003b0: 1257 b03f ebb0 8e3f 6373 39bf 7731 943f
000003c0: 6510 94be 80dd 7dbf 65b1 4a3f e98d 923e
000003d0: a36b d7be 419e 983f 3b38 533f ea79 75bf
000003e0: cd9e febf bc9e 89bf 98e6 193f fc49 8d3e
000003f0: 4df4 dd3e 0db8 913e 136c 96be 5b6c 10bf
0.34391737 1.1033442 -0.8721158 -0.5409156 0.5232861 -1.1930376 -1.1018424 1.2941386
2.0241067 1.2560381 -0.50027734 -0.3707582 -0.53909147 -0.42898944 0.4496374 0.659564
-0.67432284 -0.58952445 1.0902883 -0.68198675 -0.7899647 1.3190794 -0.46399555 -0.646658
1.3451225 -0.7449707 1.39753 1.3088346 -0.7530025 1.2540984 -0.30631855 -0.94073343
0.71624976 0.4800368 -0.3440744 1.0414511 0.8205293 -1.0657161 -1.9785241 -0.9981375
0.34314424 0.41487792 0.4217216 0.3563552 -0.13883887 -0.47264537 0.72039396 0.5696624
-1.0032544 0.58876663 0.45421156 -0.9624805 0.6627299 0.6310945 -1.1436733 0.55201316
-1.086333 -0.9916411 0.43528613 -1.0817201 0.46396473 1.2351817 -0.5661889 -0.27669594
0.7162713 -1.2380666 -0.85052437 0.95913833 1.9703201 0.9218022 -0.57106316 -0.39150387
-0.7033207 -0.55695146 0.4240279 0.63742745 -0.8004592 -0.5354826 1.1461977 -0.58631516
-0.5743965 1.075682 -0.41493708 -0.45734054 1.0912373 -0.6317493 1.1244534 1.1077204
-0.31826776 0.95707744 -0.9298879 -1.103968 0.8356185 0.49301663 -1.0366989 1.2293844
0.99532455 -1.1030049 -2.7124243 -1.1527514 0.57895875 0.37923408 0.73705006 0.5590066
-1.0094508 -1.0316613 0.77669966 0.71080047 -1.3568546 0.71951514 0.7522289 -1.3592608
0.46881533 0.8710299 -1.0586739 0.94878846 -1.4580925 -1.0815935 0.64194787 -1.3329384
-0.27554387 -1.1570001 0.82904637 0.3962618 -0.23196392 1.0663643 0.80915093 -1.3255669
-1.7681588 -0.89219606 0.5826883 0.58610016 0.537463 0.4522663 -0.26483977 -0.43931994
0.5798442 0.54521465 -1.2063937 0.69028294 0.6270846 -1.06644 0.3495561 0.7090049
-1.1308419 0.70280415 -1.3643445 -1.0879729 0.32208642 -1.2072641 -0.897687 -1.1512465
0.9853445 0.30850446 -0.8859579 1.1855844 0.83872515 -0.9670869 -2.5913835 -1.2273588
0.8840841 0.39096662 0.6124586 0.45540854 -0.9447404 -0.98209286 1.0259024 0.6701244
-1.5020051 0.7261258 0.67126936 -1.1291574 0.5038695 0.6371694 -1.068617 0.8966919
-1.331268 -1.3083619 0.6882702 -1.2392396 -0.40106738 -0.94955546 0.5370391 0.19234048
-0.56723285 1.2061857 0.8693296 -1.0780308 -1.8141401 -0.7563511 0.33034858 0.42376968
0.6120181 0.44310594 -0.35731345 -0.60580903 0.77108103 0.62134635 -1.0925285 0.5264394
0.6517541 -1.1387268 0.30544123 0.66177803 -0.8358722 0.46767834 -1.2345152 -0.94343865
0.33383104 -0.9497474 0.6113411 1.2677828 -0.7475787 -0.29720902 0.8551583 -1.1675892
-1.0019706 1.0132837 2.4569814 1.1339266 -0.66754514 -0.45627868 -0.786611 -0.57229614
0.58432746 0.9455104 -0.73862433 -0.5122432 1.2960382 -0.3947216 -0.6659028 0.9963525
-0.45838344 -0.6263457 1.2268192 -0.91291577 1.3776572 1.1147741 -0.7244169 1.1577595
-0.28918758 -0.9916611 0.7917693 0.28623894 -0.42074308 1.1923295 0.82507676 -0.9588915
-1.9892212 -1.0751567 0.60117483 0.27595508 0.4335045 0.28460732 -0.2937933 -0.5641534

fc3.bias f4 [20]
00000000: 9534 96bc f20c 61bd 74bc 25bd adf5 03bf
00000010: 5e60 493e c01d f5be c23f 32bd b152 083e
00000020: 89e0 703b 2f40 f8bd 465a 303e e0aa 64be
00000030: a50c 8a3d 81b9 fabd 3e45 1f3e 42ae 9b3d
00000040: 3d45 15be 51e0 233c 7e6a 953d 9ead 233e
-0.01833562 -0.054943986 -0.040462926 -0.51546746 0.19665667 -0.4787426 -0.043517835 0.13312794
0.0036754927 -0.12121617 0.17221937 -0.22330809 0.06740693 -0.12242413 0.15553758 0.076015964
-0.14577194 0.010002212 0.072957024 0.15984198

fc4.weight f4 [1, 20]
00000000: 0dbf a63f 4182 8ebf e6a2 b43f f865 a2bf
00000010: bdff 8dbf e3c6 abbf a0ba 9abf 1471 bf3f
00000020: 6dc8 8ebf 19b1 c13f c1a1 91bf 366a c13f
00000030: c751 c13f 4525 da3f 2ec7 9abf e76c a9bf
00000040: 90dd d43f 6a26 96bf e26e 8dbf 92f5 8ebf
1.3027054 -1.11335 1.4112213 -1.2687368 -1.109367 -1.342007 -1.2088203 1.4956384
-1.1154915 1.5132171 -1.1377488 1.5110538 1.5103081 1.7042624 -1.2092035 -1.3236359
1.6630116 -1.1730473 -1.1049464 -1.1168692
