python_scripts/indicatrizE.pth (torch, 2231 bytes, 3 tensors)

fc1.weight f4 [15, 9]
00000000: c11d 86c0 a11d 86c0 b1e0 d440 ba1e 86c0
00000010: b11e 86c0 ac1e 86c0 501c 86c0 4a1f 86c0
00000020: b9fd a337 c3c3 9640 a8c3 9640 d8ee 5740
00000030: a9c3 9640 b8c3 9640 c2c3 9640 a5c3 9640
00000040: c0c3 9640 7371 5ab9 3b5c 17be e0b1 17be
00000050: 747d 9bbe 63ad 17be cd7c 17be b298 17be
00000060: f2b5 17be 22a6 17be 8831 30c1 c6de 1f3e
00000070: 1d4e 203e b9c3 a83e 982a 203e d616 203e
00000080: 793f 203e 552e 203e e729 203e 425d 3341
00000090: e462 8ec0 6864 8ec0 210b 67c0 d160 8ec0
000000a0: e764 8ec0 e063 8ec0 3564 8ec0 c562 8ec0
000000b0: 7387 0d41 2e28 1dbf 4348 1dbf e0ca cd3d
000000c0: 1d4a 1dbf 0c43 1dbf 213c 1dbf 324e 1dbf
000000d0: 2d3b 1dbf 4c96 2d41 df94 91c0 0c95 91c0
000000e0: eb12 4ac0 1f95 91c0 0b95 91c0 f394 91c0
000000f0: 2695 91c0 2095 91c0 9463 6239 58d8 81c0
00000100: a5d8 81c0 1d4f d140 22d7 81c0 6ad7 81c0
00000110: 56d7 81c0 5cd9 81c0 fbd5 81c0 59be be37
00000120: a740 41bf a032 41bf 3eb6 49bf 4021 41bf
00000130: d43b 41bf bc46 41bf e737 41bf 403b 41bf
00000140: 855e 2641 92f3 69c0 3cf3 69c0 885b 0dc0
00000150: 47f3 69c0 71f3 69c0 57f3 69c0 4bf3 69c0
00000160: 4df3 69c0 5503 dab8 299d d9c0 489f d9c0
00000170: f6a1 3141 419f d9c0 649e d9c0 d59e d9c0
00000180: 479f d9c0 129f d9c0 bc57 3f39 ebd1 20bf
00000190: 56ee 20bf b940 35bc 86e8 20bf 57de 20bf
000001a0: 2acd 20bf a0df 20bf 0cd7 20bf c44b 2a41
000001b0: 647f 3c40 f27f 3c40 40b7 fcbf e87f 3c40
000001c0: c27f 3c40 d97f 3c40 ce7f 3c40 ab7f 3c40
000001d0: 6366 1439 d6f3 13be 6458 14be aadf 97be
000001e0: 0357 14be a61e 14be 1d31 14be e175 14be
000001f0: e74c 14be 7c71 35c1 3494 6fc0 e093 6fc0
00000200: 667a 14c0 e693 6fc0 1294 6fc0 f793 6fc0
00000210: f593 6fc0 f093 6fc0 2afc d7b8
-4.191132 -4.191117 6.652428 -4.191251 -4.1912465 -4.191244 -4.190956 -4.1913195
1.9549263e-05 4.7113967 4.711384 3.3739529 4.7113843 4.7113914 4.711396 4.7113824
4.7113953 -0.00020832363 -0.14781277 -0.14813948 -0.3036915 -0.14812236 -0.14793701 -0.14804342
-0.148155 -0.14809468 -11.012093 0.15612325 0.15654798 0.32961825 0.15641248 0.15633711
0.15649213 0.15642674 0.15640984 11.210268 -4.4495716 -4.4497566 -3.6100543 -4.4493184
-4.449817 -4.449692 -4.4497323 -4.449557 8.845569 -0.61389434 -0.6143839 0.10048461
-0.6144121 -0.6143043 -0.61419874 -0.6144744 -0.6141842 10.849194 -4.5494227 -4.549444
-3.1574047 -4.5494533 -4.5494437 -4.5494323 -4.5494566 -4.5494537 0.00021590135 -4.057659
-4.057696 6.5409074 -4.0575113 -4.0575457 -4.057536 -4.057783 -4.0573707 2.2738403e-05
-0.75489277 -0.7546787 -0.78793705 -0.7544136 -0.75481915 -0.7549856 -0.75475925 -0.75481033
10.398076 -3.6554914 -3.6554708 -2.2087116 -3.6554735 -3.6554835 -3.6554773 -3.6554744
-3.655475 -0.00010395671 -6.8004346 -6.8006935 11.102041 -6.80069 -6.800585 -6.8006387
-6.800693 -6.800668 0.00018247863 -0.6282031 -0.6286367 -0.011062794 -0.628548 -0.62839264
-0.62813056 -0.62841225 -0.62828135 10.643497 2.9452753 2.9453092 -1.9743423 2.9453068
2.9452977 2.9453032 2.9453006 2.9452922 0.00014152522 -0.14448485 -0.14486843 -0.2966283
-0.14486317 -0.14464816 -0.1447186 -0.14498092 -0.14482461 -11.340206 -3.7434206 -3.7434006
-2.3199706 -3.743402 -3.7434125 -3.743406 -3.7434056 -3.7434044 -0.00010298968

fc1.bias f4 [15]
00000000: cebe 5c41 988a 6fc1 0058 a5c0 5fc6 a640
00000010: d9e9 3e41 d3ed 8bc0 418e 6541 8c11 5541
00000020: 8794 7ac0 8f39 8241 9cb9 5941 2e14 87c0
00000030: cf11 53c1 e9e4 aac0 5a66 8541
13.796583 -14.971336 -5.166992 5.211715 11.932092 -4.3727813 14.34723 13.316784
-3.9153154 16.278105 13.607815 -4.2212133 -13.191848 -5.340443 16.674976

fc2.weight f4 [1, 15]
00000000: fc17 0bc1 4051 7441 01b0 29c1 0213 1041
00000010: b08b 5d40 90a6 32c1 e3a7 6bc1 2f65 04c1
00000020: 3931 2dc1 cc0c 5f41 dcde 4141 a485 32c1
00000030: 81aa 1bc1 7759 21c1 066f 5841
-8.693356 15.269836 -10.60547 9.004641 3.4616508 -11.165665 -14.728488 -8.274703
-10.824517 13.940624 12.116909 -11.157627 -9.729127 -10.084342 13.527105
