python_scripts/indicatrizC.pth (torch, 14839 bytes, 7 tensors)

fc1.weight f4 [60, 9]
-0.22449489 -0.27167782 -0.15684353 -0.17036563 -0.008052399 -0.11544426 -0.09239355 -0.2881545
1.621592 0.63240105 0.72483945 0.6236321 0.6442803 0.6560139 0.7312691 0.6866926
0.6460079 -0.018519124 -0.6105039 -0.6306654 -0.6039907 -0.60264283 -0.59091854 -0.5954643
-0.6101264 -0.61671317 0.045164447 0.4285878 0.44608372 0.46829996 0.4563233 0.4934475
0.4504984 0.4850102 0.47556847 1.5986592 0.7690397 0.7671321 0.7388298 0.76328033
0.8359412 0.81853825 0.79700947 0.79818803 -0.0049333503 0.6772545 0.6583093 0.71700174
0.7166102 0.560815 0.68529296 0.69089717 0.62949574 -0.018386828 -0.68095374 -0.6043551
-0.53052574 -0.6414301 -0.60684633 -0.680748 -0.67107856 -0.59338725 0.034996986 -0.7217531
-0.71503264 -0.6746206 -0.70018166 -0.6140005 -0.67055136 -0.64291745 -0.6873966 0.04472397
0.646827 0.67611396 0.6255495 0.70028156 0.6606 0.6320838 0.6415208 0.65654916
-0.016085248 -0.5331332 -0.51166815 -0.6798839 -0.71730334 -0.6871309 -0.7253591 -0.7161498
-0.66909647 0.07221512 0.48028177 0.504715 0.1803844 0.44436398 0.24641564 0.37915096
0.4906575 0.35630378 0.0322388 0.53534764 0.45147792 0.63392556 0.6657365 0.44480076
0.53421104 0.4410739 0.54305255 0.02083392 -0.755138 -0.68767285 -0.71143097 -0.71742237
-0.7271309 -0.7217306 -0.67441744 -0.70166177 0.058531035 0.68740606 0.7354029 0.62812704
0.68032235 0.67988116 0.61950827 0.6145467 0.6487456 -0.014706942 0.60580635 0.619887
0.68849105 0.69926727 0.6062338 0.65565187 0.68748814 0.70332605 -0.018072365 -0.3352479
-0.33582062 -0.29183346 -0.323763 -0.34801733 -0.3574585 -0.3650199 -0.34522676 1.7681438
-0.06887619 0.05924772 -0.058273915 -0.010163387 -0.029690338 -0.031220116 -0.026454013 0.025865287
-0.4936473 0.893039 0.9361666 0.9472833 0.76083565 1.2615819 1.116295 1.3523573
0.90053123 0.47731867 -0.7232683 -0.6757904 -0.6959393 -0.6920228 -0.6938621 -0.66984063
-0.7316406 -0.68041253 0.07589482 0.7815817 0.8223767 0.8065253 0.76221585 0.8042472
0.7279865 0.77959317 0.784144 -0.034773443 0.62683684 0.5145814 0.5171332 0.5119098
0.6116094 0.698878 0.57154006 0.6919691 -0.003548184 0.41591978 0.41632617 0.44509763
0.426394 0.44423354 0.44909447 0.4457057 0.44329527 -2.603584 0.55593705 0.46467996
0.48310646 0.6398056 0.42617345 0.4729287 0.51494175 0.640945 0.024194498 1.016726
0.6041961 0.9357186 0.59704906 0.9890404 0.9816891 0.7159241 0.65525246 0.36979783
-0.17779642 -0.17376587 -0.015191067 -0.2152812 -0.23726565 0.023947498 -0.060882498 0.02761156
1.577335 -0.3542498 -0.32156476 -0.38373393 -0.33178204 -0.41967085 -0.40799993 -0.4534558
-0.42918086 1.6652701 1.3220036 1.2974169 1.2538829 1.2191176 1.0510347 1.1824551
1.117678 1.0469439 -0.54234403 0.58135873 0.5783211 0.6434491 0.6081653 0.6805203
0.59740895 0.68220955 0.608681 -0.010563357 0.60219777 0.7016065 0.6145764 0.7142123
00000000: fde1 65be 5b19 8bbe 979b 20be 5474 2ebe
00000010: 36ee 03bc 0a6e ecbd d438 bdbd fd88 93be
00000020: 5490 cf3f 09e5 213f 148f 393f 5aa6 1f3f
00000030: 8eef 243f 87f0 273f 7434 3b3f 16cb 2f3f
00000040: c660 253f 6bb5 97bc fc49 1cbf 4a73 21bf
00000050: 229f 1abf cd46 1abf 7046 17bf 5970 18bf
00000060: 3e31 1cbf eae0 1dbf 5bfe 383d dc6f db3e
00000070: 1665 e43e 03c5 ef3e 35a3 e93e 27a5 fc3e
00000080: baa7 e63e 4253 f83e b67d f33e dda0 cc3f
00000090: c9df 443f c562 443f f323 3d3f 5766 433f
000000a0: 3e00 563f b98b 513f d008 4c3f 0d56 4c3f
000000b0: f1a7 a1bb 8d60 2d3f f586 283f 6d8d 373f
000000c0: c473 373f 9291 0f3f 5c6f 2f3f a3de 303f
000000d0: a226 213f f99f 96bc fc52 2ebf 04b7 1abf
000000e0: 89d0 07bf c334 24bf 485a 1bbf 8045 2ebf
000000f0: cecb 2bbf 3ae8 17bf 0059 0f3d d0c4 38bf
00000100: 610c 37bf f0b3 2cbf 1b3f 33bf 232f 1dbf
00000110: 41a9 2bbf 3d96 24bf 39f9 2fbf 7b30 373d
00000120: 7496 253f ce15 2d3f 0324 203f a745 333f
00000130: 151d 293f 3ed0 213f b53a 243f 9b13 283f
00000140: 36c5 83bc 6b7b 08bf affc 02bf df0c 2ebf
00000150: 31a1 37bf d0e7 2fbf 22b1 39bf 9855 37bf
00000160: e849 2bbf 85e5 933d 7ee7 f53e 0135 013f
00000170: b0b6 383e ad83 e33e 6254 7c3e 1320 c23e
00000180: 7637 fb3e 736d b63e d50c 043d 8b0c 093f
00000190: 1d28 e73e f248 223f b56d 2a3f edbc e33e
000001a0: 0ec2 083f 70d4 e13e 7e05 0b3f e6ab aa3c
000001b0: b950 41bf 540b 30bf 5720 36bf fea8 37bf
000001c0: 4025 3abf 56c3 38bf 9fa6 2cbf 1ba0 33bf
000001d0: 3dbe 6f3d d8f9 2f3f 5d43 3c3f efcc 203f
000001e0: 9b29 2e3f b10c 2e3f 1898 1e3f ef52 1d3f
000001f0: 3114 263f 63f5 70bc 2016 1b3f eab0 1e3f
00000200: f340 303f 2e03 333f 2332 1b3f cdd8 273f
00000210: 39ff 2f3f 2d0d 343f 7f0c 94bc 9da5 abbe
00000220: aef0 abbe 326b 95be 44c4 a5be 542f b2be
00000230: cd04 b7be e3e3 babe 90c1 b0be 8952 e23f
00000240: f60e 8dbd bdad 723d a1b0 6ebd 5684 26bc
00000250: 2739 f3bc 54c1 ffbc 16b6 d8bc 70e3 d33c
00000260: 57bf fcbe 349e 643f 9da8 6f3f 2981 723f
00000270: 20c6 423f 847b a13f c1e2 8e3f 0b1a ad3f
00000280: 3789 663f 1d63 f43e 1c28 39bf 9a00 2dbf
00000290: 1429 32bf 6828 31bf f2a0 31bf ad7a 2bbf
000002a0: cc4c 3bbf 842f 2ebf be6e 9b3d bd15 483f
000002b0: 4887 523f 7178 4e3f 9420 433f 25e3 4d3f
000002c0: 535d 3a3f 6b93 473f a9bd 483f 996e 0ebd
000002d0: 6178 203f 9bbb 033f d762 043f 850c 033f
000002e0: 6f92 1c3f abe9 323f 7350 123f e324 313f
000002f0: a688 68bb 70f3 d43e b428 d53e d6e3 e33e
00000300: 5050 da3e 9472 e33e b6ef e53e 8a33 e43e
00000310: 99f7 e23e 1fa1 26c0 e451 0e3f 88ea ed3e
00000320: bb59 f73e 4dca 233f 6833 da3e b623 f23e
00000330: 39d3 033f f914 243f 8a33 c63c 1424 823f
00000340: 98ac 1a3f 418b 6f3f 35d8 183f c031 7d3f
00000350: fa4f 7b3f cd46 373f a0be 273f 2456 bd3e
00000360: 4410 36be aeef 31be f4e3 78bc ad72 5cbe
00000370: c4f5 72be 8b2d c43c ed5f 79bd a331 e23c
00000380: 1de6 c93f 3b60 b5be 23a4 a4be c678 c4be
00000390: 56df a9be 19df d6be 5ee5 d0be 5c2b e8be
000003a0: 98bd dbbe 9227 d53f 6a37 a93f c211 a63f
000003b0: 3c7f a03f 0c0c 9c3f 4e88 863f b05a 973f
000003c0: 1310 8f3f 4202 863f 0fd7 0abf edd3 143f
000003d0: da0c 143f 15b9 243f b9b0 1b3f 9436 2e3f
000003e0: cbef 183f 49a5 2e3f 85d2 1b3f ee11 2dbc
000003f0: a229 1a3f 7c9c 333f e154 1d3f 9ed6 363f

fc1.bias f4 [60]
0.29742354 -2.1471546 1.5911082 1.4263954 1.2237967 -2.1503165 1.7563636 1.9826659
-2.0965369 1.6756412 -1.0704287 -1.7523184 2.1043496 -2.1723359 -2.0959923 1.1597217
1.7683045 0.058181245 1.9164762 -2.6999528 -1.8329265 -1.4588203 -1.7079077 -0.015040176
-0.06403811 1.2142853 -1.468468 -1.9548666 -2.0679 1.4336002 1.8570448 -1.1418315
0.52692634 1.8925953 -1.6220347 -0.7932072 -2.0493944 0.12569477 -2.0723631 -2.1755767
-0.12736623 -1.9055347 1.7366397 -0.2614664 1.702717 -1.5837826 -1.3178203 1.8046854
1.9806161 1.8182485 -1.9860195 -1.3377872 -1.1608516 1.6362972 -2.201904 1.8303083
1.3397443 1.6102619 1.5114923 -1.5305312
00000000: e647 983e fb6a 09c0 6fa9 cb3f 2094 b63f
00000010: 5fa5 9c3f c99e 09c0 86d0 e03f ffc7 fd3f
00000020: a92d 06c0 697b d63f cf03 89bf f84b e0bf
00000030: aaad 0640 8d07 0bc0 bd24 06c0 c371 943f
00000040: cd57 e23f 754f 6e3d 184f f53f 07cc 2cc0
00000050: 569d eabf a0ba babf b89c dabf 126b 76bc
00000060: 6a26 83bd b36d 9b3f c2f6 bbbf 1239 fabf
00000070: 7958 04c0 3680 b73f a5b3 ed3f 8927 92bf
00000080: a5e4 063f 9040 f23f d59e cfbf a10f 4bbf
00000090: 4729 03c0 21b6 003e 99a1 04c0 a63c 0bc0
000000a0: 4b6c 02be 90e8 f3bf 364a de3f edde 85be
000000b0: a1f2 d93f 63b9 cabf 56ae a8bf eeff e63f
000000c0: d484 fd3f 5ebc e83f e335 febf 9c3c abbf
000000d0: c996 94bf 3072 d13f ffeb 0cc0 8b47 ea3f
000000e0: be7c ab3f 101d ce3f 9478 c13f 72e8 c3bf

fc2.weight f4 [30, 60]
1.4207511 1.0720834 -0.22233634 -0.87028605 -0.43075565 0.8600704 -0.28675756 -0.37081173
0.9024146 -0.0069431285 0.64843565 0.82861334 -0.39930755 1.0681021 0.8349816 0.8925364
-0.060467847 0.021259286 0.0038966087 1.027248 0.86683995 -1.4772264 0.6993133 0.14531209
1.241926 0.89707917 -1.3628267 0.8113306 1.013589 1.4992563 -0.17841047 -1.5031095
0.15663758 -0.3687412 0.1930507 -0.1572551 0.94294906 0.11010953 0.8981406 0.7832614
0.096846096 0.8821521 -0.28849122 -0.08590099 -0.35063237 0.83547384 -1.6348575 -0.043138973
1.1745046 -0.32426128 0.9174664 0.266338 -1.441885 -0.4346741 1.0304976 0.9394623
-0.59853506 -0.48113626 -0.23455663 0.6148065 0.486194 0.582321 -0.94617313 -0.47769335
-0.4154378 0.6662686 -1.1007298 -1.1652769 0.70684606 -0.9408432 0.16857873 0.4079727
-0.9364008 0.5260938 0.77075934 0.6446079 -0.9383916 -0.4020333 -0.98703986 0.49156278
0.6912132 -1.4983944 0.3419473 -0.24023029 0.4002236 0.32277274 0.5850634 0.64636165
0.7660846 1.1770177 -0.93436474 -1.4167658 -0.63149935 -1.1937187 0.64764076 -0.5772862
0.5709988 -0.43602675 0.63677883 0.6630519 -0.4607081 0.60827005 -0.99193704 -0.36421174
-1.1338562 0.39487213 -1.43559 -0.9498666 -0.8136753 -0.91070926 0.5497587 0.58999413
-1.4085447 -1.186733 0.6432595 -0.73525274 -0.8095198 -1.1343651 -0.9347192 0.36915892
0.69637215 0.607387 -0.1607794 -0.38029078 -0.076107726 0.44086015 -0.49622968 -0.44166568
0.5499167 -0.14283943 0.42408094 0.44824252 -0.062224235 0.54367614 0.6347685 0.9045213
0.023773491 0.18861556 -0.13691218 0.4899513 0.56285334 -1.2248986 0.32591125 0.37209445
0.66995776 0.95279497 -0.30335018 0.3687684 0.61254984 1.2097317 -0.19571313 -1.0152693
0.30470395 -0.53057665 0.13168535 0.13183938 0.41672808 0.21686654 0.4946899 0.68218976
0.19596635 0.40613592 -0.285271 0.18717226 -0.49297106 0.51152694 -1.2317328 -0.10641179
0.9789477 -0.3236104 0.51847315 0.17045358 -1.0539179 -0.5192521 0.68284917 0.9275806
-0.44398123 -0.51248026 -0.21875323 0.34295297 0.7876295 0.85577774 -0.9306888 -0.5473044
-0.78837276 0.8838454 -1.2254053 -1.1844012 0.8189535 -1.0074205 0.05440583 0.5730271
-1.2710222 0.74665076 0.8804687 0.9953586 -1.4099914 -0.79729605 -0.95852333 0.88896626
0.65342283 -1.5100983 0.6800719 -0.69060755 0.81075907 0.5444772 0.71487796 0.83978826
0.73815125 1.7886482 -0.9570811 -1.6408411 -0.86462945 -1.2264433 0.8695038 -0.81936336
0.69690967 -0.6940651 0.7577883 0.7978751 -0.61423784 0.62876195 -1.1075919 -0.7895882
-1.2413845 0.6186367 -1.6996657 -1.0021842 -1.2152939 -1.1338091 0.8565626 0.8297719
-1.5656773 -1.2387786 0.6931663 -1.1814544 -0.992963 -1.3338703 -1.0213361 0.45959082
1.3682402 -0.51663864 0.94218266 0.9544982 1.0204735 -0.46126437 1.041111 1.0851722
-0.5450137 1.134678 0.23755008 0.09547944 1.1748381 -0.4161045 -0.437446 1.2053525
00000000: 2cdb b53f 073a 893f 23ac 63be 11cb 5ebf
00000010: 018c dcbe 932d 5c3f e3d1 92be 09db bdbe
00000020: a504 673f 2f83 e3bb e1ff 253f 0120 543f
00000030: 0a72 ccbe 92b7 883f 5bc1 553f 447d 643f
00000040: 22ad 77bd f427 ae3c 3f5e 7f3b dd7c 833f
00000050: 39e9 5d3f c115 bdbf 3206 333f b1cc 143e
00000060: 6ef7 9e3f fba6 653f 1b71 aebf 5db3 4f3f
00000070: 49bd 813f a1e7 bf3f 3cb1 36be e465 c0bf
00000080: 9a65 203e a6cb bcbe 15af 453e 7b07 21be
00000090: 1c65 713f 1b81 e13d 8bec 653f d283 483f
000000a0: 3f57 c63d b8d4 613f 1fb5 93be dcec afbd
000000b0: 1686 b3be 9de1 553f 0343 d1bf 7eb2 30bd
000000c0: 2b56 963f 9305 a6be 14df 6a3f 745d 883e
000000d0: b08f b8bf 9b8d debe 58e7 833f 9a80 703f
000000e0: 9839 19bf 7e57 f6be 9d2f 70be f563 1d3f
000000f0: 6cee f83e fd12 153f 6738 72bf 3994 f4be
00000100: 43b4 d4be 9490 2a3f b7e4 8cbf cb27 95bf
00000110: ddf3 343f 1adb 70bf e79f 2c3e cce1 d03e
00000120: f6b7 6fbf 15ae 063f 7c50 453f 0605 253f
00000130: 6f3a 70bf 4fd7 cdbe a5ae 7cbf 1eae fb3e
00000140: 59f3 303f 63cb bfbf b713 af3e eefe 75be
00000150: 1cea cc3e 7842 a53e b7c6 153f f577 253f
00000160: 1f1e 443f 84a8 963f 8732 6fbf 9558 b5bf
00000170: f1a9 21bf c6cb 98bf c9cb 253f 07c9 13bf
00000180: fa2c 123f e63e dfbe f003 233f c5bd 293f
00000190: efe1 ebbe 96b7 1b3f 96ef 7dbf f679 babe
000001a0: 3322 91bf ae2c ca3e 6ac1 b7bf 752a 73bf
000001b0: 064d 50bf 3e24 69bf fcbc 0c3f db09 173f
000001c0: 314b b4bf dee6 97bf a8ac 243f 8639 3cbf
000001d0: b13c 4fbf e032 91bf c249 6fbf 6602 bd3e
000001e0: 7245 323f b77d 1b3f 5ba3 24be 79b5 c2be
000001f0: 5ede 9bbd 6cb8 e13e d111 febe 0122 e2be
00000200: 57c7 0c3f 8044 12be 2321 d93e 0b80 e53e
00000210: d7de 7ebd 5c2e 0b3f 3080 223f b58e 673f
00000220: a0c0 c23c 7024 413e b532 0cbe e6da fa3e
00000230: 2817 103f 7ac9 9cbf d7dd a63e 2a83 be3e
00000240: 5a82 2b3f 5fea 733f b750 9bbe 36cf bc3e
00000250: 11d0 1c3f 7dd8 9a3f 0669 48be 58f4 81bf
00000260: 2802 9c3e dfd3 07bf 86d8 063e e700 073e
00000270: 625d d53e 4312 5e3e ff47 fd3e fda3 2e3f
00000280: 67ab 483e 0cf1 cf3e 0a0f 92be 16aa 3f3e
00000290: b466 fcbe 6ef3 023f 6ca9 9dbf 6dee d9bd
000002a0: 519c 7a3f 43b0 a5be a8ba 043f 628b 2e3e
000002b0: c8e6 86bf b5ed 04bf 34cf 2e3f ec75 6d3f
000002c0: 8251 e3be e831 03bf d900 60be 8897 af3e
000002d0: 16a2 493f 4014 5b3f 9f41 6ebf 241c 0cbf
000002e0: ccd2 49bf b143 623f 15da 9cbf 759a 97bf
000002f0: f0a6 513f 28f3 80bf a6d8 5e3d e7b1 123f
00000300: dbb0 a2bf 8124 3f3f 6666 613f d2cf 7e3f
00000310: 997a b4bf 981b 4cbf c961 75bf 4b93 633f
00000320: b846 273f e74a c1bf 3119 2e3f a8cb 30bf
00000330: e88d 4f3f dc62 0b3f 3e02 373f 5dfc 563f
00000340: 7bf7 3c3f 6df2 e43f 4403 75bf 1507 d2bf
00000350: 5b58 5dbf 18fc 9cbf cd97 5e3f ccc1 51bf
00000360: ac68 323f 40ae 31bf 6afe 413f 8b41 4c3f
00000370: b13e 1dbf 8bf6 203f 92c5 8dbf 7422 4abf
00000380: b0e5 9ebf fa5e 1e3f a58e d9bf 9247 80bf
00000390: c08e 9bbf a820 91bf b047 5b3f ee6b 543f
000003a0: 1d68 c8bf 4c90 9ebf 5973 313f e639 97bf
000003b0: d332 7ebf 43bc aabf 24bb 82bf 7d4f eb3e
000003c0: 7f22 af3f 6e42 04bf e232 713f fe59 743f
000003d0: e09e 823f d82a ecbe 2043 853f ece6 8a3f
000003e0: 0586 0bbf 213d 913f 5440 733e ba8a c33d
000003f0: 1861 963f a60b d5be ecf8 dfbe fe48 9a3f

fc2.bias f4 [30]
-0.23052238 -0.6962199 -0.20598924 -0.8429494 0.67904073 -0.06626777 -0.84387845 -0.13997675
-0.805191 0.18217643 -0.067914695 -0.0529756 -0.06759256 -0.19631661 -0.71763974 -0.5691236
0.59715265 -0.17845984 -0.043162607 -0.7615233 0.025968473 -0.5182478 -0.99068636 -0.14803287
0.23734736 -0.24629936 0.15707904 0.9938962 -0.27226782 -0.07944309
00000000: 0f0e 6cbe 783b 32bf d8ee 52be 88cb 57bf
00000010: 9dd5 2d3f 66b7 87bd 6b08 58bf 1156 0fbe
00000020: ff20 4ebf 758c 3a3e dc16 8bbd f1fc 58bd
00000030: f86d 8abd 3907 49be 3db7 37bf 16b2 11bf
00000040: ffde 183f 2dbe 36be 46cb 30bd 31f3 42bf
00000050: d6bb d43c e3ab 04bf 9f9d 7dbf ee95 17be
00000060: 300b 733e e635 7cbe 54d9 203e fb6f 7e3f
00000070: b066 8bbe 0fb3 a2bd

fc3.weight f4 [20, 30]
-0.7111926 1.0873475 -0.45919597 1.0791343 1.1784655 -0.82829463 0.91653407 -0.84661263
0.8261274 0.87980705 -0.63565314 -0.39749688 -0.5226948 -0.48709512 0.8898837 0.8612035
0.8887942 -0.60642445 -0.7308609 1.2196772 0.8714199 1.2203448 1.2370955 -0.6662892
0.8591186 0.08863205 0.687596 1.0953398 -0.5464652 -0.7068593 0.42886776 -0.86266094
0.47228393 -0.705323 -0.79334044 0.4148137 -0.7442259 0.5664741 -1.0090773 -0.65044266
0.6239968 0.35560983 0.4655321 0.48087293 -0.7475421 -0.75238705 -0.8894 0.4938993
0.5996312 -0.93293405 -0.82481045 -0.76536876 -0.94950694 0.69117385 -0.5235349 0.16046657
-0.5657407 -1.0007681 0.53433657 0.36748514 0.5750547 -0.68708634 0.4176026 -0.9207894
-0.97948104 0.4761313 -0.76120484 0.8321394 -0.76041466 -0.7969755 0.4750713 0.5391169
0.5577068 0.5055524 -0.9987255 -0.8919205 -0.9567752 0.49353108 0.5330083 -0.97789174
-0.8768955 -1.1146013 -1.0785631 0.5327069 -0.68194914 0.34063888 -0.534794 -1.0245752
0.46895197 0.6380278 -0.888466 0.8920992 -0.35741824 0.87803954 0.99908215 -0.8043233
0.73307824 -0.75877756 1.1161191 0.81031233 -0.4279021 -0.478109 -0.5291768 -0.5376663
0.87748283 1.1181595 1.2096206 -0.49267372 -0.7782427 1.334742 0.8164069 0.9893909
0.9997619 -0.6918731 0.77399796 -0.18714565 0.5811179 0.9993847 -0.59600466 -0.52054095
-0.5368017 0.9228908 -0.327736 0.6550256 0.8449118 -0.49213904 0.6076282 -0.644426
0.9381821 0.745906 -0.37390253 -0.46345398 -0.4016901 -0.50042903 0.972444 0.7282256
0.812737 -0.3746036 -0.4705772 1.0629225 0.7956925 0.99116015 0.7773999 -0.61467856
0.6927436 -0.31452662 0.64347357 0.95720935 -0.37608653 -0.54657674 0.8572434 -0.81908387
0.62987643 -1.0594448 -1.2510465 0.51355183 -1.0250205 0.7426317 -0.8049006 -0.6641071
0.5515486 0.44636455 0.59948766 0.510428 -0.94133025 -0.94043213 -1.0471662 0.3850605
0.74903065 -1.1993647 -0.7416514 -0.9454791 -1.1306516 0.55640614 -0.83075637 0.1534179
-0.7321971 -1.0529121 0.51904684 0.8131193 0.7646299 -0.7708594 0.45386642 -0.85846186
-1.1493205 0.5817697 -0.8179963 0.7558304 -0.82278305 -0.60713613 0.77584636 0.5914698
0.47733355 0.41130382 -0.97830546 -0.96177554 -1.0247061 0.51621115 0.65932137 -1.4041399
-0.8819501 -1.022906 -0.93115383 0.57277465 -0.81326616 0.17697206 -0.48051792 -1.2457726
0.5476418 0.76530325 0.975597 -0.96491206 0.44463137 -1.0316079 -1.0859287 0.7234374
-1.0504515 0.8096315 -0.97714204 -0.75312924 0.6145708 0.5387041 0.7822446 0.5415809
-1.1980541 -1.1416754 -1.1532427 0.45573306 0.81329906 -1.1561981 -0.9702424 -1.063339
-1.269282 0.86765146 -0.9578211 -0.030365953 -0.7872998 -1.3624384 0.5944283 0.8535939
-0.72914994 0.5980657 -0.5857653 0.9042551 0.7968385 -0.5408021 0.88960636 -0.7926088
0.8284554 0.5513437 -0.46576002 -0.23273751 -0.5412839 -0.36626875 0.655043 0.6134775
00000000: b810 36bf 342e 8b3f bc1b ebbe 1321 8a3f
00000010: f5d7 963f 1e0b 54bf faa1 6a3f 9bbb 58bf
00000020: 167d 533f 093b 613f 2aba 22bf b684 cbbe
00000030: 54cf 05bf 8864 f9be 6bcf 633f d577 5c3f
00000040: 0488 633f a23e 1bbf b319 3bbf 621e 9c3f
00000050: 6015 5f3f 4234 9c3f 2559 9e3f ee91 2abf
00000060: 32ef 5b3f b884 b53d 4b06 303f 1834 8c3f
00000070: 25e5 0bbf bbf4 34bf 8e94 db3e 59d7 5cbf
00000080: 33cf f13e 0c90 34bf 5c18 4bbf 7662 d43e
00000090: 9785 3ebf 7204 113f 7229 81bf 6983 26bf
000000a0: 41be 1f3f 7e12 b63e 395a ee3e fa34 f63e
000000b0: eb5e 3fbf 709c 40bf b8af 63bf 5ee0 fc3e
000000c0: 6e81 193f c4d4 6ebf c726 53bf 35ef 43bf
000000d0: e312 73bf c5f0 303f 6206 06bf 5951 243e
000000e0: 62d4 10bf 2b19 80bf 48ca 083f 0327 bc3e
000000f0: c936 133f e4e4 2fbf 02d0 d53e dbb8 6bbf
00000100: 45bf 7abf 7bc7 f33e 52de 42bf 1607 553f
00000110: 89aa 42bf 9606 4cbf 8c3c f33e 9103 0a3f
00000120: dfc5 0e3f e26b 013f 79ac 7fbf e754 64bf
00000130: 38ef 74bf 1bb0 fc3e 3b73 083f 1d57 7abf
00000140: 397c 60bf 41ab 8ebf 5b0e 8abf 7b5f 083f
00000150: 3894 2ebf 3868 ae3e 42e8 08bf 4825 83bf
00000160: 791a f03e ca55 233f 8272 63bf 9d60 643f
00000170: 86ff b6be 33c7 603f d9c3 7f3f 22e8 4dbf
00000180: 04ab 3b3f 3f3f 42bf fedc 8e3f a170 4f3f
00000190: fc15 dbbe b4ca f4be 2178 07bf 80a4 09bf
000001a0: b7a2 603f da1f 8f3f d9d4 9a3f bb3f fcbe
000001b0: ea3a 47bf d3d8 aa3f 0b00 513f b948 7d3f
000001c0: 65f0 7f3f 981e 31bf bb24 463f 1ca3 3fbe
000001d0: 25c4 143f add7 7f3f c393 18bf 2c42 05bf
000001e0: d66b 09bf 9242 6c3f 03cd a7be c2af 273f
000001f0: 244c 583f a6f9 fbbe 868d 1b3f 1af9 24bf
00000200: b42c 703f b2f3 3e3f 2770 bfbe d749 edbe
00000210: 53aa cdbe 1e1c 00bf 17f2 783f fe6c 3a3f
00000220: 880f 503f 0bcc bfbe 7fef f0be d80d 883f
00000230: 81b2 4b3f acbc 7d3f ae03 473f 935b 1dbf
00000240: a557 313f a209 a1be afba 243f ac0b 753f
00000250: 6a8e c0be 74ec 0bbf 4e74 5b3f 7baf 51bf
00000260: 953f 213f e39b 87bf 4b22 a0bf 2278 033f
00000270: df33 83bf 1c1d 3e3f f70d 4ebf ec02 2abf
00000280: 4a32 0d3f e589 e43e 0678 193f 69ab 023f
00000290: 05fb 70bf 29c0 70bf 8b09 86bf a626 c53e
000002a0: 79c0 3f3f c884 99bf dedc 3dbf eb0a 72bf
000002b0: 31b9 90bf a270 0e3f 73ac 54bf 9519 1d3e
000002c0: 4571 3bbf d3c5 86bf 41e0 043f 9628 503f
000002d0: c9be 433f 0b57 45bf 2e61 e83e 28c4 5bbf
000002e0: ef1c 93bf dcee 143f 3568 51bf 1a7e 413f
000002f0: e9a1 52bf 466d 1bbf de9d 463f 916a 173f
00000300: 1065 f43e 6a96 d23e 3a72 7abf ec36 76bf
00000310: 9229 83bf 6a26 043f 49c9 283f dbba b3bf
00000320: 7bc7 61bf 95ee 82bf 1960 6ebf 5ca1 123f
00000330: 3632 50bf 2a38 353e 7206 f6be 7a75 9fbf
00000340: 4132 0c3f eaea 433f bac0 793f 7a04 77bf
00000350: b9a6 e33e ba0b 84bf b6ff 8abf 3233 393f
00000360: 3275 86bf 0344 4f3f fb25 7abf 14cd 40bf
00000370: 8354 1d3f 83e8 093f 2f41 483f 0ca5 0a3f
00000380: d659 99bf 6b22 92bf 759d 93bf d855 e93e
00000390: 5e34 503f 4dfe 93bf ce61 78bf 7e1b 88bf
000003a0: d577 a2bf 681e 5e3f c333 75bf 05c2 f8bc
000003b0: 7b8c 49bf 6264 aebf 742c 183f 2185 5a3f
000003c0: 92a9 3abf d51a 193f b7f4 15bf 437d 673f
000003d0: 9cfd 4b3f 0272 0abf 3ebd 633f 69e8 4abf
000003e0: a715 543f dc24 0d3f 1978 eebe be52 6ebe
000003f0: 9591 0abf 9487 bbbe e6b0 273f dd0c 1d3f

fc3.bias f4 [20]
0.15423606 -0.19275472 -0.2723523 0.30160826 -0.056037057 -0.19705333 -0.29482928 -0.381258
0.09762994 0.085967466 -0.06586815 -0.41823217 -0.49478158 -0.13288167 0.1072444 0.28118396
0.28253317 -0.11341942 -0.04641749 -0.4587457
00000000: 0ff0 1d3e 7e61 45be c371 8bbe 666c 9a3e
00000010: 1d87 65bd 59c8 49be ddf3 96be 4034 c3be
00000020: 35f2 c73d b60f b03d e1e5 86bd 8722 d6be
00000030: 0354 fdbe 2212 08be f4a2 db3d 58f7 8f3e
00000040: 30a8 903e 7148 e8bd 4420 3ebd b7e0 eabe

fc4.weight f4 [1, 20]
1.1960857 -1.0574855 -1.2320402 1.3305664 1.1778126 -0.9864721 -1.0296303 -1.0540984
1.3229533 1.3891007 -1.0391077 -1.0111414 -1.1423111 -1.1502017 1.3243595 1.2002367
1.2808349 -1.126683 1.1993129 -1.053692
00000000: 5619 993f af5b 87bf 7eb3 9dbf 0050 aa3f
00000010: 90c2 963f 6f89 7cbf edca 83bf b2ec 86bf
00000020: 8956 a93f 0dce b13f 7b01 85bf 156d 81bf
00000030: 4037 92bf cf39 93bf 9d84 a93f 5ba1 993f
00000040: 66f2 a33f 2637 90bf 1683 993f 61df 86bf
