python_scripts/indicatrizD.pth (torch, 2743 bytes, 5 tensors)

linear1.weight f4 [10, 9]
0.0888524 0.115914375 0.19493416 -0.0331172 -0.2723657 -0.20104957 -0.16181803 -0.23536931
-0.99914527 -0.19011168 -0.11305093 0.13006079 0.04239052 0.19807571 0.02493777 -0.054641865
0.096104525 1.5050987 0.020460088 0.19047293 -0.13292976 -0.044159163 -0.015354062 0.23083158
0.29503927 0.14722396 -1.8296049 0.11389673 0.1340479 0.05243794 0.10602767 0.061620027
0.05261627 -0.036345217 -0.09868607 -1.5806103 -0.08740408 0.09670878 -0.16190992 0.17956898
-0.30513456 -0.2245297 0.004476205 0.016486313 0.21603584 -0.10471565 -0.089047804 -0.18475851
0.01794287 0.034547538 0.22892284 0.10740861 0.047072336 -1.8114315 -0.23268186 0.08896715
-0.049454633 -0.07430487 -0.03768277 -0.21760663 0.02705006 -0.23971167 3.0011215 -0.08319863
-0.10454084 -0.07451354 -0.072748184 -0.23039773 -0.00044467128 -0.24451156 -0.12709014 3.0491848
0.041139904 0.000378077 -0.39913672 -0.31226584 -0.20763142 0.10979169 -0.15373208 0.030098518
2.6990461 0.094403096 0.23033865 0.16911963 0.06176224 0.20202276 0.15722448 -0.030512193
0.22257687 -3.723378
00000000: 3ff8 b53d 8464 ed3d d29c 473e e7a5 07bd
00000010: 8473 8bbe f0df 4dbe a0b3 25be a704 71be
00000020: fcc7 7fbf a3ac 42be 3f87 e7bd a82e 053e
00000030: afa1 2d3d 5cd4 4a3e 4b4a cc3c 26d0 5fbd
00000040: 73d2 c43d 13a7 c03f ea9b a73c 560b 433e
00000050: bd1e 08be 3de0 34bd 9b8f 7bbc 1d5f 6c3e
00000060: 630f 973e e1c1 163e 7e30 eabf b042 e93d
00000070: da43 093e 2ac9 563d 0925 d93d 4865 7c3d
00000080: 2884 573d b9de 14bd ec1b cabd 7051 cabf
00000090: e900 b3bd 410f c63d b7cb 25be eee0 373e
000000a0: 993a 9cbe 1deb 65be 21ad 923b 4e0e 873c
000000b0: 8038 5d3e 2975 d6bd b25e b6bd 5631 3dbe
000000c0: edfc 923c b881 0d3d c06a 6a3e 0cf9 db3d
000000d0: ecce 403d fddc e7bf 2744 6ebe 6934 b63d
000000e0: f190 4abd 272d 98bd 4059 1abd 46d4 5ebe
000000f0: 1698 dd3c fa76 75be 6012 4040 0b64 aabd
00000100: 8219 d6bd 8e9a 98bd 00fd 94bd 62ed 6bbe
00000110: c522 e9b9 3d61 7abe eb23 02be d825 4340
00000120: 5182 283d a338 c639 a65b ccbe 4fe1 9fbe
00000130: 559d 54be 77da e03d f16b 1dbe 2b91 f63c
00000140: 2cbd 2c40 6956 c13d e5dd 6b3e b22d 2d3e
00000150: 67fa 7c3d 0edf 4e3e 74ff 203e b5f4 f9bc
00000160: 31eb 633e d34b 6ec0

linear1.bias f4 [10]
0.075226314 -0.4766465 0.19410464 0.31269306 -0.23483905 0.52929497 -0.88756555 -0.8046186
-0.6242579 1.0809186
00000000: 4110 9a3d 030b f4be 5ec3 463e 4e19 a03e
00000010: a679 70be e07f 073f 7f37 63bf 7cfb 4dbf
00000020: 5ecf 1fbf 8a5b 8a3f

linear2.weight f4 [5, 10]
0.5920222 -0.68346745 0.53064007 0.74603885 0.19354177 0.8331631 -1.3492064 -1.1049285
-1.1993771 1.5140206 0.7041196 -0.8486649 1.2873552 0.79580736 -0.111169964 1.1453922
-1.9099925 -1.8164891 -1.5390769 2.521808 -0.6519778 0.6734088 -0.9324658 -1.0314267
0.27105537 -0.97976655 1.7540241 1.7260286 1.3217919 -2.3542647 0.0015444878 -0.44276404
0.062980965 0.21156593 -0.14171718 0.6768632 -0.567095 -0.8502659 -0.30976152 0.9639403
-0.6332233 0.68411857 -1.281737 -0.94095844 -0.17329054 -1.0670354 1.4920816 1.8518409
1.7471975 -2.407387
00000000: c48e 173f b9f7 2ebf 07d8 073f 67fc 3e3f
00000010: d02f 463e 2d4a 553f ccb2 acbf 4c6e 8dbf
00000020: 3085 99bf 6dcb c13f 2f41 343f 1a42 59bf
00000030: 0ec8 a43f 08ba 4b3f 14ad e3bd 369c 923f
00000040: a27a f4bf b782 e8bf 7900 c5bf 4d65 2140
00000050: 04e8 26bf 8564 2c3f 14b6 6ebf ca05 84bf
00000060: c5c7 8a3e fbd1 7abf dd83 e03f 81ee dc3f
00000070: 7a30 a93f 46ac 16c0 6970 ca3a f8b1 e2be
00000080: 2afc 803d bda4 583e 4f1e 11be e846 2d3f
00000090: 232d 11bf 07ab 59bf 1099 9ebe cbc4 763f
000000a0: ec1a 22bf 6522 2f3f f50f a4bf a7e2 70bf
000000b0: 1373 31be 9e94 88bf 88fc be3f 1f09 ed3f
000000c0: 2ba4 df3f a112 1ac0

linear2.bias f4 [5]
0.37455082 0.506837 -0.42606857 0.26114085 -0.25107664
00000000: 20c5 bf3e 12c0 013f a925 dabe 41b4 853e
00000010: 1e8d 80be

linear3.weight f4 [1, 5]
3.5248413 6.248952 -5.524842 1.5930802 -5.910465
00000000: 0097 6140 6af7 c740 81cb b0c0 0dea cb3f
00000010: 8722 bdc0
