python_scripts/indicatrizE.pth (torch, 14839 bytes, 7 tensors)

fc1.weight f4 [60, 9]
000000 4e 1f 65 bf 21 43 77 bf e4 99 5f bf 1b 4d 62 bf
       -0.8950089 -0.96586806 -0.87344193 -0.88398904
000010 ff 94 63 bf 0d cb 63 bf 33 2e 65 bf a0 0a 6c bf
       -0.88899225 -0.88981706 -0.8952362 -0.9220371
000020 0a a1 c2 bd 66 3b 47 bf 36 10 35 bf 0e 05 0f bf
       -0.09503372 -0.7782501 -0.7072786 -0.5586709
000030 b6 d4 50 bf 01 13 42 bf 1a 46 58 bf b2 7e 44 bf
       -0.8157457 -0.7581025 -0.84481966 -0.7675582
000040 86 f0 3a bf cb 1b 3a 3d 05 2f 2d bc 0d 17 0f bd
       -0.7302326 0.04543666 -0.010570292 -0.034934092
000050 56 e5 b8 bc 35 42 5c bc 7e eb 61 bc fb d0 b5 bc
       -0.022570293 -0.013443519 -0.013789056 -0.022194376
000060 a8 68 18 bc c6 0a 5f bb 17 e3 fd bf 3f 8b a6 bc
       -0.009302296 -0.003403352 -1.9834927 -0.02033007
000070 4d ac b9 bb c8 6a 8d 3d 7b c4 59 3d 43 02 38 bc
       -0.005666292 0.069051325 0.053165894 -0.011231008
000080 2d 52 01 3c 5a c7 a1 3d 46 59 4e bc e6 3a ed bf
       0.007893127 0.078993514 -0.012594527 -1.8533599
000090 ef e0 05 3f 54 88 ef 3e fd 9a 0f 3f a7 16 10 3f
       0.52296346 0.46783698 0.5609587 0.56284565
0000a0 6c 9c 10 3f 0b 9b 13 3f 29 72 0b 3f 6d c7 09 3f
       0.5648868 0.5765845 0.5447107 0.53819925
0000b0 99 c5 08 40 f6 e0 97 3c 9d 72 ee 3c bb 55 20 3c
       2.1370604 0.018539887 0.029107386 0.009786065
0000c0 4e 29 22 3c 89 f3 a8 3c 5a 00 69 3c 24 cb 2a 3c
       0.009897543 0.02062394 0.014221275 0.010424409
0000d0 8c c4 89 3c af 84 00 c0 23 ca 5c bf 18 04 6c bf
       0.016817354 -2.0080984 -0.86245936 -0.92193747
0000e0 ec c4 59 bf c1 15 58 bf e6 82 57 bf a6 53 57 bf
       -0.85066104 -0.84408194 -0.8418411 -0.8411201
0000f0 db e6 5b bf 7a 14 5f bf be a0 e2 3c 5c d8 f8 3c
       -0.8589913 -0.8714062 0.027664538 0.030376606
000100 5a 3e 20 ba aa c6 77 3c 5c cd 8b 3c 2d 9e c7 3c
       -0.0006112807 0.015123049 0.017065696 0.024367416
000110 99 60 85 3c 0d cf 9c 3c 11 29 b2 3c 2e b0 08 c0
       0.016281413 0.019141698 0.021748098 -2.1357532
000120 03 6e 8a be e9 51 3c be 66 1c 94 be 4f 59 97 be
       -0.27037057 -0.18390621 -0.28927916 -0.29560325
000130 6e 83 93 be e3 c8 93 be 3f 68 93 be 53 5c 8c be
       -0.2881121 -0.28864202 -0.2879047 -0.27414188
000140 63 29 0c c0 83 04 48 bf 69 b0 5c bf aa cd 43 bf
       -2.190026 -0.78131884 -0.8620668 -0.76485693
000150 7d 42 3f bf 60 c7 42 bf 6e ab 42 bf 85 e4 44 bf
       -0.7471083 -0.7608547 -0.7604283 -0.76911193
000160 54 fc 4d bf f5 9f cd 3c e4 70 45 bf e0 b2 50 bf
       -0.8046315 0.025100688 -0.7712538 -0.8152294
000170 fc f7 41 bf 94 bc 39 bf 04 d9 3c bf 42 45 34 bf
       -0.7576902 -0.7255337 -0.7376864 -0.7041818
000180 c4 2a 53 bf 14 ca 45 bf 69 ab 2a 3d 54 57 62 bf
       -0.8248713 -0.7726147 0.041667376 -0.884145
000190 36 fe 76 bf f3 98 5d bf bf c9 5c bf bc 2f 5d bf
       -0.96481645 -0.86561507 -0.8624534 -0.8640096
0001a0 0e 74 5c bf a8 42 60 bf ca d5 65 bf 3a ed 0c 3c
       -0.86114585 -0.8760171 -0.8977934 0.008601481
0001b0 1e ed 48 bf a0 af 53 bf cf 71 44 bf f4 db 40 bf
       -0.7848681 -0.8268986 -0.7673616 -0.7533562
0001c0 d9 43 45 bf f1 62 43 bf 4f 39 49 bf bc e7 4c bf
       -0.7705665 -0.7632285 -0.7860307 -0.800411
0001d0 24 92 0d 3b 7a df 77 3f 90 28 82 3f ad df 79 3f
       0.0021602 0.96825373 1.0168629 0.9760693
0001e0 2b 36 88 3f 92 7d 86 3f cd cd 83 3f 45 64 8b 3f
       1.0641531 1.0507071 1.029718 1.0889975
0001f0 0d f7 89 3f d5 02 cf bf 21 d6 a9 be 4f 50 7c be
       1.0778519 -1.6172739 -0.3317118 -0.2464001
000200 7f f0 9d be f4 9e aa be cf b7 a7 be b7 26 a3 be
       -0.30847546 -0.33324397 -0.32757422 -0.31865475
000210 1a 89 aa be 7a d6 a6 be 4e 1a 18 c0 52 97 59 bf
       -0.33307725 -0.32585508 -2.3766055 -0.8499652
000220 f4 65 70 bf d9 e2 52 bf 05 db 53 bf 0a 74 54 bf
       -0.9390557 -0.8237739 -0.8275607 -0.8298956
000230 a3 84 53 bf 8a 83 58 bf 5f d8 5d bf 2b 3d 12 3b
       -0.8262426 -0.8457571 -0.8665828 0.002231429
000240 e4 9f 0d bc d3 09 32 bb c8 c2 d3 b9 f3 76 3e bc
       -0.008644078 -0.00271665 -0.0004039018 -0.011625039
000250 93 5e bd bb 52 49 66 bb 9a 1c d5 bc c0 e1 eb bb
       -0.0057790964 -0.0035138917 -0.026014615 -0.0071985424
000260 53 d1 0c 40 d9 a3 51 bf ae 45 46 bf d8 2e 4e bf
       2.2002761 -0.81890637 -0.7745007 -0.8054023
000270 ef 15 75 bf 00 c8 4d bf c1 af 7a bf 48 91 87 bf
       -0.95736593 -0.803833 -0.9792443 -1.0591211
000280 b4 02 8f bf a4 77 1c 3f 30 65 85 be 70 64 2e be
       -1.11727 0.6112006 -0.26053762 -0.17030501
000290 f1 d9 52 be 47 cd 6e be cb aa 11 be 56 d3 45 be
       -0.2059095 -0.23320495 -0.14225309 -0.193189
0002a0 a0 85 7f be 42 ee 24 be f9 4b c0 3f 74 11 51 3f
       -0.24953318 -0.16106513 1.5023185 0.81667256
0002b0 7b 17 4e 3f d7 79 4a 3f 26 d5 49 3f da cb 4d 3f
       0.8050458 0.7909216 0.78840864 0.8038918
0002c0 01 8c 4d 3f f0 ea 4e 3f 8f 6c 50 3f c1 02 3e 3e
       0.80291754 0.80827236 0.8141565 0.18555738
0002d0 78 8a c5 bf 06 fe bd bf 63 49 bc bf 58 a1 bd bf
       -1.5432882 -1.4843147 -1.4709896 -1.4814863
0002e0 17 18 bf bf 19 2c be bf 27 f8 c0 bf 5d df be bf
       -1.4929227 -1.4857208 -1.507573 -1.4911915
0002f0 40 7b 5a 3f ec 9d a4 bc 46 1e 44 bd 4b c6 e7 bc
       0.85344315 -0.020094834 -0.047880433 -0.028292796
000300 4e 4c 82 bc af 68 91 bc 49 b5 b7 bc 48 d5 64 bc
       -0.015905526 -0.017750112 -0.02242531 -0.013966866
000310 19 4e 5a bc 5a 08 08 c0 18 d3 9c bb 5c 32 e9 bd
       -0.013324284 -2.1255097 -0.0047859065 -0.113865584
000320 69 88 80 3d cd 84 aa 3d cb 38 91 3c 93 c2 69 3c
       0.06276018 0.08326111 0.017727276 0.0142675815
000330 f7 58 fd 3d db 20 6e bc 17 22 e7 bf 8a 08 04 bf
       0.12370484 -0.014534201 -1.8057278 -0.5157553
000340 70 21 9e bf 4b 55 41 bf 9a d0 36 bf 04 96 28 bf
       -1.2353954 -0.7552077 -0.7141205 -0.65853906
000350 27 88 37 bf 25 6d 11 bf fa 19 c2 bd 90 17 78 bd
       -0.71692127 -0.56807166 -0.09477611 -0.060569346
000360 29 91 5b 3f 6b 6e 57 3f 7a 8d 5c 3f 85 da 59 3f
       0.8576837 0.8415286 0.86153376 0.8509906
000370 d5 d6 5d 3f 82 d7 5b 3f ce 08 5c 3f 4c a8 58 3f
       0.8665593 0.85875714 0.85950935 0.846318
000380 c0 11 42 3e b0 8b 36 bf 64 d1 16 bf 6d e2 32 bf
       0.18952084 -0.71306896 -0.58913255 -0.6987675
000390 71 eb 38 bf f4 4d 36 bf 28 ed 39 bf fe d9 3f bf
       -0.72234255 -0.712127 -0.72627497 -0.74942005
0003a0 68 9f 23 bf 40 37 18 40 eb 5d 39 ba 37 35 cd bc
       -0.6391511 2.3783722 -0.0007071185 -0.025049789
0003b0 a2 c0 10 bc a1 d6 1b bb ad 39 0a bb c5 98 a0 bb
       -0.00883499 -0.0023779052 -0.0021091506 -0.004901024
0003c0 d6 9d a1 bb 23 58 c4 3b cc b8 0a c0 c6 a3 52 bf
       -0.0049321456 0.005991952 -2.167529 -0.8228115
0003d0 60 f2 5f bf 28 c5 4f bf 1a 71 4d bf cf 99 4b bf
       -0.8747921 -0.8116021 -0.80250704 -0.7953157
0003e0 13 b3 4c bf 6b 43 50 bf 65 fb 54 bf 68 1c 06 3d
       -0.79960746 -0.8135287 -0.831961 0.032741934
0003f0 b7 e6 0d bf 80 ed 64 bf 64 32 46 bf 98 a6 37 bf
       -0.5543017 -0.89424896 -0.7742064 -0.71738577

fc1.bias f4 [60]
000000 b1 16 2a 40 12 19 18 40 08 a0 a7 bf 27 39 b5 3f
       2.657635 2.3765302 -1.3095713 1.4158067
000010 b0 eb 70 3e 3f d7 c1 bf 52 60 37 40 d7 43 c4 bf
       0.23527408 -1.5143813 2.865254 -1.5333203
000020 1d 49 c1 be 33 f3 1b 40 96 57 1e 40 7e ab 39 40
       -0.37751094 2.4367187 2.4740958 2.901092
000030 8d b5 1a 40 8d 19 b1 bf 4d 9d 8c be 1a 07 2f 40
       2.417331 -1.3835922 -0.2746376 2.7348084
000040 ed 4b a8 bf 22 b1 d7 3f 0b 0e ed bf bc d8 e8 bf
       -1.3148171 1.6850932 -1.851991 -1.8191142
000050 f3 99 b8 3f fb d6 a9 bf 69 26 c4 3f 19 3c a6 3f
       1.4421982 -1.3268732 1.5324222 1.298709
000060 71 31 03 c0 e0 b7 49 3f 69 54 ba bf ef 3b 2a 40
       -2.0498927 0.78796196 -1.455701 2.659908
000070 8a 45 c5 3f cd 5a a1 bf 25 74 d8 3f 23 b9 6d 3f
       1.5411847 -1.2605835 1.6910444 0.9286062
000080 01 1f 38 40 6d 13 c0 3f b7 b0 b7 bf 03 a7 03 40
       2.8768923 1.5005928 -1.4350804 2.0570686
000090 e6 75 93 bf 3c 14 c7 3f 1f b9 f7 3f 02 3d dd bf
       -1.1520355 1.555305 1.935337 -1.7284243
0000a0 0c 33 d6 bf b5 7e a7 bf 5d dd 26 40 bb 67 30 40
       -1.6734328 -1.3085543 2.607261 2.7563312
0000b0 89 0f 46 40 85 e0 02 c0 a8 f0 13 40 3b f0 eb bf
       3.0946982 -2.0449536 2.3115635 -1.8432688
0000c0 81 b1 b1 bf b4 84 c5 bf c2 19 bb bf c3 97 1f 40
       -1.3882295 -1.5431123 -1.4617236 2.4936378
0000d0 90 52 d1 bf e5 e2 dd 3f 0f 60 6d 3f e7 c5 10 40
       -1.6353321 1.7334868 0.927247 2.262079
0000e0 80 30 c8 bf d7 a9 bd bf e6 e3 87 3e 74 47 2b 40
       -1.5639801 -1.4817456 0.2654106 2.6762362

fc2.weight f4 [30, 60]
000000 a8 83 89 be c8 3e 80 3d ef 11 98 3f dc 8a 8b bf
       -0.26858258 0.062619746 1.1880473 -1.0901752
000010 ae 49 9d bf 9f 54 9d 3f f9 f4 f6 be f5 5c af 3f
       -1.228811 1.2291449 -0.48233774 1.3700243
000020 a8 13 a9 3f 2d e8 fd be 91 0a e7 bd c7 8b 04 bf
       1.3209124 -0.495912 -0.11281312 -0.51775783
000030 8d ca a2 be b4 cf 82 3f e6 24 94 3f af 78 ea be
       -0.3179516 1.0219636 1.157376 -0.457952
000040 53 0a 85 3f 67 dd 0f 3f b9 b2 7f 3f a0 e2 8e bf
       1.0393776 0.5619721 0.99882084 -1.116291
000050 22 a2 9b 3f 82 59 b1 3f b3 33 9c bf 64 7c 59 bf
       1.2158854 1.3855441 -1.2203277 -0.8495543
000060 45 63 ad bf d8 23 a9 3f af 59 9e 3f 70 71 ec be
       -1.354592 1.3214064 1.2371119 -0.46180296
000070 c8 64 13 be 42 e3 a6 3f b6 57 4f 3f d6 81 42 bf
       -0.14393914 1.3038104 0.8099321 -0.75979364
000080 e5 45 2a bf 03 7d 4c bf c5 ea 8d 3f 09 0a 01 3f
       -0.665129 -0.7987825 1.1087271 0.5040594
000090 bb af 91 3f 65 0e 9e 3e e5 0d 14 3f 7a 07 9c 3f
       1.1381754 0.30870357 0.578337 1.2189782
0000a0 28 60 b1 3f 25 c5 95 3f 53 ee d2 be f6 38 39 bf
       1.385747 1.1700789 -0.41197452 -0.7235254
0000b0 cc de 7b bf 79 61 a7 bf 6f 75 f4 bd ba d1 83 3f
       -0.98386836 -1.3076621 -0.11936461 1.0298378
0000c0 02 b7 a7 3f ba 1d 95 3f ea 7d aa 3f d0 ec 24 3f
       1.3102725 1.1649697 1.3319676 0.6442385
0000d0 a1 71 92 3f 8c ef 02 bb 4b ca a1 bf 01 3b c9 3e
       1.1440927 -0.0019979207 -1.263986 0.3930283
0000e0 67 cd 9b 3f 7b b1 a4 3f f7 e7 9d 3e bc c0 19 bf
       1.2172059 1.2866663 0.30841038 -0.60059714
0000f0 c1 60 c3 bf 23 ea d0 bf 67 5e 42 3f 5b de d1 3e
       -1.5263902 -1.6321453 0.75925297 0.40989956
000100 d2 aa 63 3f fc d7 26 3f c5 f7 bf bf c8 b1 4e 3f
       0.88932526 0.65173316 -1.4997488 0.8074002
000110 22 b3 ff be 07 83 be bf 81 bc bd bf 1b 30 bb bf
       -0.49941355 -1.4883736 -1.4823152 -1.4624056
000120 52 af d3 bf ac 8a 9a 3f 2f 7e 36 bf 32 35 cf bf
       -1.6537879 1.2073569 -0.7128629 -1.6188109
000130 65 b3 fa 3e 57 25 7b bf 72 8b 9f 3e 9d dc 4c 3f
       0.48964992 -0.9810385 0.31161076 0.8002413
000140 53 35 26 3f b5 13 35 3f 98 6e 6d 3e 06 48 b5 bf
       0.64925116 0.70733196 0.2318672 -1.4162605
000150 2d 25 49 3f ae 3b 38 bf 69 92 23 3f 17 e8 be bf
       0.7857235 -0.71966064 0.6389528 -1.4914578
000160 b9 02 ba bf fd 08 17 3f e5 77 c6 bf 47 fb b1 bf
       -1.4532081 0.5899809 -1.5505339 -1.3904809
000170 98 e5 c8 bf 39 f9 06 bf d3 0b 3e 3f 01 ae cf bf
       -1.5695066 -0.52724034 0.7423679 -1.6224977
000180 4a 7e ee 3e f3 a9 b5 bf 37 fa 8b bf af 6e 2c 3f
       0.46580726 -1.4192489 -1.0935735 0.6735639
000190 14 9a 43 3f d4 5f 0d 3f 00 f0 ce bf 91 d5 cf bf
       0.7640698 0.5522435 -1.6166992 -1.623705
0001a0 a3 f0 d6 bf 1d c9 33 3f f3 2d a8 bf e8 5d 03 3f
       -1.6792186 0.7022875 -1.3139023 0.51315165
0001b0 6d 03 27 3f 7c 9f 2a 3f 1f 2b 10 3f 94 ae c2 bf
       0.652396 0.66649604 0.563158 -1.5209527
0001c0 3a 55 31 3f 66 8b c1 bf f6 60 b2 3e 4d 51 c3 bf
       0.6927067 -1.5120666 0.348396 -1.5259186
0001d0 6f 67 14 3f d4 7c 27 3f 8f 62 c9 be 5a 5b ba bf
       0.5797033 0.6542485 -0.39333007 -1.4559128
0001e0 3b 03 95 3f 88 79 8c 3f 50 42 fb be 16 8d d3 be
       1.1641611 1.0974588 -0.4907403 -0.41318578
0001f0 9f 05 70 bf 43 be 4e bf d5 07 95 3f 32 9b 1d bf
       -0.9375858 -0.80759066 1.1643015 -0.61564934
000200 e8 fe b1 be d4 14 98 3f 81 63 95 3f 3c 81 8c 3f
       -0.3476479 1.1881356 1.1670991 1.0976939
000210 96 fc 92 3f 8f d8 7e bf 30 d5 ad be 9b 65 9f 3f
       1.1483333 -0.9954919 -0.33951712 1.2452883
000220 96 01 0d bf 4e cd 47 3f e7 77 10 bf 9a 65 e6 bf
       -0.55080545 0.78047645 -0.56432956 -1.7999756
000230 56 ae ea 3f 98 fe ea be db aa b6 be b7 80 82 3f
       1.8334453 -0.45897365 -0.35677227 1.0195531
000240 94 85 ee bf b5 0c c0 3e 65 59 f8 be b5 16 99 3f
       -1.8634515 0.37509695 -0.48505703 1.1960055
000250 d4 2f 81 3f 54 a9 09 bf b0 a7 3c 3f e7 b4 7e 3f
       1.0092721 -0.53774 0.7369337 0.99494785
000260 8e c9 a5 3f 5e 9f e6 3e 03 5d 33 bf ef f9 90 3f
       1.2952135 0.45043463 -0.700638 1.1326274
000270 aa c0 e1 be f0 e2 9c 3f 22 c3 70 3f d4 72 41 bf
       -0.44092304 1.2256756 0.9404775 -0.7556584
000280 7b 92 3f bf 92 e9 19 bf 3b f4 9c 3f c9 de 8f 3f
       -0.74832886 -0.60122025 1.2262033 1.1239864
000290 09 80 96 3f d5 7f ec bf e3 33 a2 3f b9 4d db be
       1.1757823 -1.8476511 1.2672085 -0.42832735
0002a0 8f 20 dd be fa 65 4b bf 3e 25 1e bf 83 9f 50 3f
       -0.43188903 -0.7945248 -0.6177558 0.81493396
0002b0 40 1c 1f bf 46 54 95 3f 12 7f d1 be 61 b2 82 3f
       -0.6215248 1.1666343 -0.4091726 1.0210687
0002c0 63 13 0d bf e3 4a 18 bf 5c 2b 8f bd 83 cc 92 3f
       -0.55107707 -0.5948927 -0.06990692 1.1468662
0002d0 ef a2 2a 3f 95 49 47 3e de 9e 7d 3f 35 6e b6 3e
       0.66654867 0.19461663 0.9907054 0.35630956
0002e0 3f 84 1f bf 0a 48 76 3f 3c 86 91 3e f8 da 39 3f
       -0.62311167 0.9620367 0.28422725 0.72599745
0002f0 ca fe 68 3f 43 3b c3 3e 08 e9 19 3e 2a 03 06 3f
       0.9101378 0.3813115 0.150303 0.5234858
000300 d2 fb 03 3f ce 91 03 3e 37 f3 09 3f fd ae c4 3e
       0.5155612 0.12848589 0.5388674 0.38414755
000310 e7 d3 2a 3e fe 6a d8 3e 39 81 8a be 4e d4 8e bf
       0.16682397 0.4226913 -0.27051714 -1.115854
000320 1b 0a d8 3f 9a 9c 4d 3f 49 07 ce 3d ac 43 00 3f
       1.6878084 0.8031708 0.10059983 0.5010326
000330 72 fb bf bf 54 cf 80 be b2 23 52 3f ec b1 5d 3e
       -1.499861 -0.2515818 0.82085717 0.21649903
000340 8f 3b 30 3f f5 16 a4 3e 26 46 81 3e 8e 2f 18 3e
       0.6884088 0.32048765 0.25248832 0.1486189
000350 c6 0f f1 3e 45 67 c2 3e 73 55 1b be ab 33 a1 3e
       0.47082347 0.37969413 -0.15169315 0.31484732
000360 8d 31 1f 3e af 57 21 3f 2e 1b 9d 3e 33 df 5a 3f
       0.15546246 0.6302442 0.306848 0.85496825
000370 c7 2e 4c 3f b1 5c 5c 3f 2c 65 3c 3e aa 88 94 3e
       0.79758877 0.86078936 0.18397969 0.29010516
000380 71 d0 b7 3e ce bb b8 bf 0f e0 38 3f 26 16 2e bc
       0.35901216 -1.4432313 0.72216886 -0.010625398
000390 83 a0 95 3e fb 54 66 be 63 13 51 3f ad 4b 9a 3e
       0.29224023 -0.22493355 0.81670207 0.3013586
0003a0 96 19 a9 be 7b 89 35 3f 65 15 3f bf af 2d d6 3e
       -0.33027333 0.70912904 -0.7464202 0.4183173
0003b0 bd b1 16 3d 0f d3 82 bc ec bf 95 be 55 eb e9 3e
       0.0367906 -0.015969781 -0.29247987 0.45687357
0003c0 8b 1b bb 3f 6f 1a a4 3f 43 00 16 bf 2d da 0b bf
       1.461778 1.2820567 -0.5859415 -0.54629785
0003d0 ef f9 20 bf 1d 95 3d bf bc 5f a2 3f 3b b1 08 bf
       -0.6288137 -0.74055654 1.2685466 -0.5339543
0003e0 b9 c6 d7 be 65 85 9b 3f 4e 75 97 3f d9 de aa 3f
       -0.421438 1.2150084 1.1832674 1.3349258
0003f0 11 04 ae 3f ae a3 8f bf f6 ca 30 bf 67 96 b5 3f
       1.3594991 -1.1221826 -0.69059694 1.4186524

fc2.bias f4 [30]
000000 e2 91 5d 3e 7f 3b ca 3e 7d a1 72 bf b0 ac dc bd
       0.21637681 0.39498517 -0.9477766 -0.10775125
000010 a8 c9 5a bf 54 63 94 3e a2 15 e4 3e 86 73 4d bd
       -0.85463953 0.2898203 0.44547755 -0.050159
000020 6d db 15 be 87 6f 57 3f 3a 58 9b 3e 5c ca 18 bf
       -0.14634486 0.8415455 0.3034075 -0.59683776
000030 0b 02 48 bf db 77 ba 3e 6d b1 21 3f 15 86 8b 3f
       -0.7812812 0.36419567 0.63161355 1.0900294
000040 5f 2f 00 bf e4 d9 0b 3d b5 9f ba 3e 31 60 1e 3e
       -0.5007228 0.034143344 0.36449972 0.15466382
000050 16 0a 57 3e 4a 59 74 3e 36 dd 8a 3d 41 18 4b 3e
       0.20999941 0.23862186 0.06780474 0.19833471
000060 90 1d 3b 3d f0 c7 00 bc 24 1a c1 3d 54 7c 88 be
       0.04568249 -0.007860169 0.09428814 -0.26657355
000070 af 30 94 3f 0b d1 11 3f
       1.1577357 0.569596

fc3.weight f4 [20, 30]
000000 9e 37 88 3e 98 51 b2 3f 82 86 93 3f 28 f9 f4 3e
       0.26604933 1.393115 1.1525424 0.4784634
000010 8e 6f 94 3f c8 f2 b5 3e 56 cb d2 bf ef 0d 10 3e
       1.1596544 0.3553679 -1.6468303 0.14067815
000020 ae 63 d1 3e e0 3c 22 3f b2 30 f0 3e 99 e3 cc bf
       0.40896362 0.6337414 0.46912152 -1.6006957
000030 82 df 61 bf 11 c6 87 bf 72 e4 65 bf f8 47 17 3f
       -0.8823167 -1.060732 -0.89801705 0.5909419
000040 0a 0b 8a bf be 4c 8c 3e 16 1d 51 3e ef 4d 77 3d
       -1.0784619 0.274023 0.20421252 0.060377058
000050 fc 27 c1 3e 74 92 74 bf 18 f9 1b 3f 0b 13 59 3e
       0.37725818 -0.9553597 0.6092696 0.2119867
000060 85 2d ae 3d 3b ab e1 3e 9d 9e c6 3e ba 99 21 3f
       0.08504776 0.4407595 0.38792887 0.63125193
000070 9e b6 3d 3f 61 29 6a bf 01 bd 9a be ca d2 92 bf
       0.74106777 -0.9146939 -0.30222324 -1.1470578
000080 fb a4 b8 bf 4e 85 21 be 6b 9d 97 bf e2 da d6 be
       -1.4425348 -0.15773508 -1.1844915 -0.4196387
000090 12 4c c1 3f 7b 5c 63 bd e8 be 1c be 35 cc 06 bf
       1.510134 -0.055508118 -0.153072 -0.52655345
0000a0 93 45 01 bf 9f 86 d5 3f 20 66 8e 3f e4 cc 8b 3f
       -0.50496787 1.6681708 1.1124916 1.0921903
0000b0 e1 cc 71 3f a0 1c 47 bf 62 7b 95 3f 2b 79 45 3c
       0.94453245 -0.77778053 1.1678278 0.0120528145
0000c0 7b 8a 80 be 43 a1 8e be aa 7f cb be e8 61 30 3f
       -0.25105652 -0.27857408 -0.39745837 0.68899393
0000d0 e0 b0 2c bf a8 b5 04 bf 97 20 2c be 37 33 ea be
       -0.6745739 -0.51839685 -0.16809307 -0.457422
0000e0 49 1e 10 bf e9 bf 46 bf 4c 96 16 bf d4 05 58 3f
       -0.5629621 -0.7763658 -0.58823085 0.84383893
0000f0 bf 77 81 3e 9a 74 ae 3f 42 83 b0 3f 83 d5 9a 3e
       0.25286672 1.3629334 1.3790057 0.30241022
000100 3d f2 e0 3f fd 87 b9 3e 6e 0d be bf 1b 88 2e 3e
       1.7573925 0.36236563 -1.4847848 0.17044108
000110 07 ed 0c 3e 3f 13 22 3f df 79 17 3f b7 f0 c8 bf
       0.13762294 0.6331062 0.59170336 -1.569846
000120 0c b0 96 bf 46 e8 8d bf fe 9a 87 bf 27 64 7d 3f
       -1.1772475 -1.1086509 -1.0594175 0.98980945
000130 05 69 d3 bf 8d ad 8a 3e 3b c0 7f 3e 06 b0 87 3e
       -1.6516424 0.27085534 0.24975674 0.26501483
000140 9d 40 08 3f 2b 56 90 bf e4 57 d4 3e 12 57 88 3e
       0.5322359 -1.1276296 0.41473305 0.2662893
000150 a0 64 0d 3e 8a be 18 3f ba 76 ee 3e bb 79 59 3f
       0.13807917 0.5966574 0.46574956 0.8495137
000160 c4 2d 5b 3f c9 b1 8e bf b1 6a b3 be e3 62 b2 bf
       0.8561671 -1.1148006 -0.35042337 -1.3936428
000170 7f c2 87 bf 1f bb ed be a6 c6 bf bf 04 eb 91 be
       -1.060623 -0.46431825 -1.4982498 -0.28499615
000180 e7 a1 ba 3f 30 42 e0 bd 1b 4c 07 be ae 34 15 bf
       1.4580659 -0.10950124 -0.13212626 -0.5828351
000190 35 ed 25 bf 1b 1c e1 3f d8 ff 60 3f 11 d8 90 3f
       -0.64815074 1.7586702 0.87890387 1.1315938
0001a0 bf c5 41 3f eb 02 4a bf bf eb 8f 3f d2 13 8d be
       0.7569236 -0.789107 1.1243819 -0.27554184
0001b0 15 be 6d be ce 42 8a bd b8 26 07 bf d6 42 88 3f
       -0.23217042 -0.06751023 -0.52793455 1.0645397
0001c0 a3 7b ec be d9 b7 de be c9 7e 66 bd 93 86 b4 be
       -0.46188077 -0.4349964 -0.056273255 -0.35258922
0001d0 6e ce 26 bf de 9a 36 bf 8f 0f 33 bf a0 8e 7c 3f
       -0.65158737 -0.7133006 -0.69945616 0.9865513
0001e0 74 87 64 3e 42 20 90 3f f1 1c a4 3f 6a a1 cc 3e
       0.22317296 1.1259844 1.2821332 0.399669
0001f0 51 9f b1 3f 90 6b df 3e d1 9d c1 bf d0 5e 06 3c
       1.3876745 0.4363675 -1.5126287 0.008201316
000200 8b 90 c2 3e 62 b5 eb 3e 05 92 fe 3e c8 19 cf bf
       0.38000903 0.46036822 0.4972078 -1.6179743
000210 a3 5b 7a bf 54 fd 60 bf e5 34 59 bf 40 b7 5c 3f
       -0.97796077 -0.8788655 -0.84846336 0.8621712
000220 6b 1b a8 bf 84 48 05 bb 03 c1 e3 3e d1 2c bc 3d
       -1.3133367 -0.0020337412 0.44483194 0.091882356
000230 8f 7e d3 3e 11 26 49 bf 8c 13 fb 3e 99 99 bb 3e
       0.41307494 -0.7857371 0.4903835 0.36640623
000240 cb fe e1 bd a2 3d 1a 3e 6a 2c 10 3f c2 04 4d 3f
       -0.11034926 0.15062574 0.5631777 0.80085385
000250 9b f5 ea 3e bf 7b 3a bf 94 1d a3 be 96 e5 85 bf
       0.45890507 -0.7284507 -0.31858504 -1.0460689
000260 22 36 b1 bf da 3e f2 be 8b c6 b4 bf 1e 98 13 bf
       -1.3844645 -0.47313577 -1.412309 -0.5765399
000270 cc 0c b5 3f ea 37 0e be cc 06 44 bd da 37 42 bf
       1.414453 -0.13888517 -0.047858045 -0.7586647
000280 cb eb d3 be 18 31 cf 3f dc 2e 6b 3f fa 80 7b 3f
       -0.41390833 1.6186857 0.91868377 0.9824368
000290 3e 74 62 3f 72 51 17 bf 7d ca ad 3f 80 e2 43 be
       0.8845862 -0.5910865 1.357742 -0.19129372
0002a0 7c 28 95 be 14 86 fd bd a3 0c cb be 14 01 72 3f
       -0.2913245 -0.12379089 -0.3965808 0.94532895
0002b0 d1 cc 07 bf 83 81 b6 be 43 11 59 bc 07 19 a3 be
       -0.530469 -0.35645685 -0.013248744 -0.31855032
0002c0 7d 11 16 bf 89 72 1b bf af ec 28 bf 50 6c 26 3f
       -0.58620435 -0.6072164 -0.6598615 0.6500902
0002d0 85 2f 83 be 38 2c a4 bf b8 11 9e bf cf f0 2d be
       -0.25622192 -1.2825994 -1.2349157 -0.16986392
0002e0 6f e0 cc bf 4d 3e 15 bf 9c 67 e6 3f 6a b4 f0 3c
       -1.6005992 -0.5829819 1.8000369 0.029382903
0002f0 41 1d 1a be 63 3e 1c bf 94 0c 11 bf b6 df e9 3f
       -0.15050222 -0.61032695 -0.5665982 1.8271396
000300 75 5a 89 3f f0 80 8c 3f d3 de 82 3f dc cf 86 bf
       1.073073 1.0976849 1.022425 -1.0532184
000310 95 8a 9b 3f 0f 56 58 be c6 03 74 be d9 c0 a9 ba
       1.2151667 -0.21126579 -0.23829564 -0.001295115
000320 ee fc a8 be bd 8f 79 3f 5d 00 f1 be fc f1 e9 be
       -0.3300547 0.9748495 -0.4707059 -0.45692432
000330 ad 5c b3 be 77 3e ff be ca 6e 3a bf 56 14 51 bf
       -0.35031644 -0.49852344 -0.728253 -0.81671655
000340 69 6e 20 bf 86 02 24 3f 9c 33 93 be 3c cc a9 bf
       -0.6266847 0.6406635 -0.28750312 -1.3265452
000350 69 8c ba bf df 92 c8 be b4 35 f6 bf 3d e7 01 bf
       -1.45741 -0.39174554 -1.9235139 -0.50743467
000360 b2 d2 db 3f 12 78 cc bd 72 77 40 be 54 2d 6d bf
       1.7173674 -0.09983839 -0.18795565 -0.9264729
000370 a5 5e 21 bf c9 c5 f5 3f 71 a5 b3 3f 78 cc a6 3f
       -0.6303504 1.9200984 1.4034864 1.3031149
000380 26 e8 95 3f 60 a3 79 bf 35 52 c3 3f bc 56 e1 bd
       1.1711471 -0.97514915 1.5259463 -0.110028714
000390 40 46 bc be 6b 2e 93 be bb 89 b3 be a2 a6 a0 3f
       -0.36772346 -0.28746352 -0.35066018 1.2550852
0003a0 cf a8 50 bf c7 c8 6a be 15 45 84 be 2a 67 1d bf
       -0.8150758 -0.22928153 -0.25833955 -0.6148554
0003b0 6e 6d 12 bf fe e8 7d bf 92 ec 67 bf 57 b9 83 3f
       -0.57198226 -0.9918364 -0.9059535 1.0290936
0003c0 39 b9 a6 3e a7 1a af 3f 26 15 ba 3f e0 b7 b9 3e
       0.3256319 1.3680009 1.4537704 0.36273098
0003d0 95 ac b7 3f ca 78 1e 3f 00 30 b2 bf 60 b5 74 3d
       1.4349543 0.6190306 -1.3920898 0.059743285
0003e0 30 cd 59 3e f6 d6 2e 3f 5c c2 d6 3e e6 37 d5 bf
       0.21269679 0.68296754 0.4194516 -1.6657684
0003f0 fe d1 8b bf 55 46 7d bf 3d a1 90 bf b7 f8 27 3f
       -1.092346 -0.98935443 -1.1299206 0.65613884

fc3.bias f4 [20]
000000 e9 26 91 be 84 ac 09 3f 57 44 ef be 86 51 32 3f
       -0.2835 0.5377886 -0.46731827 0.69655645
000010 15 7b 92 be 5b e0 0f 3f 84 42 1b 3f 48 dd 42 3f
       -0.2860953 0.56201714 0.6064837 0.761189
000020 12 97 0a bf e2 d4 37 3f 31 4a 47 3f 46 ce ab be
       -0.54136765 0.7180921 0.7784758 -0.33555812
000030 07 fa 1e 3f 0f 44 b3 be 54 9d c8 be c8 23 d8 3e
       0.6210026 -0.35012862 -0.39182532 0.422148
000040 53 00 45 3f f6 8e 37 3f ed 73 11 bf fa e0 b7 be
       0.7695362 0.71702516 -0.56817514 -0.3591383

fc4.weight f4 [1, 20]
000000 fb 9f bd bf be 6b 89 3f 02 e9 a4 bf 5d 23 ad 3f
       -1.4814447 1.0736005 -1.2883608 1.3526417
000010 d0 59 af bf b2 d3 b2 3f 2b fa a3 3f 6a 19 a7 3f
       -1.3699284 1.3970854 1.281072 1.3054631
000020 6c f8 b0 bf ce de af 3f c3 d1 c4 3f bb ba a1 bf
       -1.3825812 1.373987 1.5376514 -1.2635111
000030 d9 29 a1 3f d6 b6 b1 bf ac 75 b8 bf 1e a8 b6 3f
       1.2590896 -1.3883922 -1.4410911 1.4270055
000040 79 d1 d0 3f bc c9 a1 3f 47 79 9e bf a1 00 b4 bf
       1.6313926 1.263969 -1.2380761 -1.4062692
