python_scripts/indicatrizC.pth (torch, 14839 bytes, 7 tensors)

fc1.weight f4 [60, 9]
000000 9b 32 e9 be 67 c2 14 bf 9e ba 29 bf aa ae 10 bf
       -0.4554642 -0.58109134 -0.6630038 -0.56516516
000010 05 40 15 bf 05 1d 0a bf 46 de af be 7b 5b 1d bf
       -0.5830081 -0.5395053 -0.3434927 -0.61467713
000020 02 af 13 3d 64 bd 49 bf 0a dd 46 bf c3 96 4b bf
       0.036055572 -0.7880461 -0.7768103 -0.7952692
000030 a7 f3 4e bf b4 52 47 bf fb aa 45 bf 02 01 3f bf
       -0.80840534 -0.7786057 -0.7721402 -0.7461091
000040 ea cc 4c bf 0f e7 e4 3f 22 2d 14 3e bc 46 2c 3e
       -0.80000174 1.7883013 0.14470342 0.16823858
000050 89 4f ef 3d c7 f6 27 3e aa 18 06 3e 25 3d 20 3e
       0.11685092 0.16402732 0.13095346 0.15648325
000060 6c 5e 43 3e b5 91 21 3e 0d 25 ef bf 39 84 ee 3e
       0.19078988 0.15778239 -1.8683182 0.46585253
000070 dc 1c 16 3f a5 1c 4d 3f 79 cb 7a 3f d1 b1 0b 3f
       0.58637786 0.80121833 0.97966725 0.545682
000080 1f 5d 33 3f 42 0e 26 3f 02 43 54 3f c8 ac a6 3e
       0.70063967 0.64865506 0.82914746 0.32553697
000090 56 77 03 3f a9 c8 0b 3f 24 32 1b 3f 24 3d 12 3f
       0.5135397 0.5460306 0.60623384 0.57124543
0000a0 2b 76 20 3f 05 94 1e 3f 98 f5 1e 3f 66 0c 14 3f
       0.6268031 0.6194461 0.62093496 0.5783142
0000b0 0d 11 32 bd 4d b7 85 3f db df 74 3f 0a b2 59 3f
       -0.043473292 1.0446564 0.95654076 0.8503729
0000c0 48 b8 87 3f ac b4 57 3f 88 91 1d 3f 2a a3 e1 3e
       1.0603113 0.8426006 0.6155019 0.44069797
0000d0 62 59 39 3f 7e da ff 3e 9d 11 17 bf 28 ce 16 bf
       0.7240201 0.49971384 -0.5901125 -0.5890832
0000e0 4b bc 2a bf 60 ce 18 bf a9 96 29 bf c2 f4 1e bf
       -0.6669356 -0.59689903 -0.66245514 -0.6209222
0000f0 aa ed 25 bf 51 02 0a bf 17 84 0f 3d 2b 1e 27 bf
       -0.6481577 -0.53909785 0.03503808 -0.6528041
000100 e0 5d 3b bf 78 16 c0 be b5 d1 ee be 74 8e 15 bf
       -0.73190117 -0.37517142 -0.4664437 -0.5842049
000110 ea 19 30 bf 5c 70 f9 be 05 d9 06 bf c6 88 af 3c
       -0.6878954 -0.48718536 -0.52674896 0.021427523
000120 7d 24 2b 3f 89 1c 21 3f da b5 18 3f 88 2d 1a 3f
       0.6685255 0.62934166 0.59652483 0.60225725
000130 a7 ae 1b 3f 69 dc 20 3f d9 d2 23 3f d6 44 1b 3f
       0.60813373 0.6283632 0.63993603 0.6065191
000140 13 82 48 bd be ec 14 bf cb b8 e9 be 2c a9 0b bf
       -0.048952173 -0.5817374 -0.45648798 -0.5455501
000150 a0 ff 14 bf 47 65 e4 be 13 28 b9 be 64 35 19 bf
       -0.5820255 -0.44608518 -0.36163387 -0.5984709
000160 42 b2 21 bf d9 76 a6 3c 78 f4 0a bf 01 62 2c bf
       -0.63162625 0.020320343 -0.5427928 -0.6733704
000170 35 b5 24 bf 2e d3 3e bf c0 ba 33 bf 11 48 fe be
       -0.64339 -0.74540985 -0.7020683 -0.49664357
000180 e8 e1 3a bf eb 5a 32 bf fe 60 36 3d 79 f3 00 bf
       -0.73000956 -0.6966998 0.044526093 -0.5037151
000190 d8 61 ef be cf 37 c9 be 1c 08 16 bf b0 58 12 bf
       -0.46754336 -0.3930039 -0.58606124 -0.57166576
0001a0 64 58 2f bf 91 35 27 bf 66 b8 30 bf d2 4a d2 3c
       -0.6849425 -0.6531611 -0.6903137 0.025670443
0001b0 a7 df 42 3e 2d c7 a9 3e fb 89 ac 3e 9f 6c f1 3e
       0.19030629 0.33159772 0.3369902 0.47153184
0001c0 e8 69 6f 3e c1 9b 36 3f d9 d8 b4 3e bd b2 d3 3e
       0.23380244 0.7133141 0.35321692 0.41347304
0001d0 ea 2e 08 bd a1 1a 1f 3f c9 8f 22 3f b5 f0 18 3f
       -0.033247866 0.6215001 0.6350065 0.5974229
0001e0 1d 38 13 3f 19 1a 10 3f 78 e5 1c 3f f0 97 0b 3f
       0.575075 0.5628982 0.6128764 0.54528713
0001f0 d3 ab 22 3f 6a d3 2f bd d5 e5 09 bf 85 5c 0c bf
       0.6354343 -0.04292623 -0.5386632 -0.54828674
000200 14 7f 1a bf 2f a8 12 bf 9c 91 21 bf de 1c 1b bf
       -0.60350156 -0.5728788 -0.6311281 -0.6059092
000210 cd 22 24 bf d8 d4 25 bf c5 06 0a 3d eb 09 88 3f
       -0.641156 -0.647779 0.033697862 1.0628027
000220 8b c0 11 3f 1c 6c 63 3f 04 de d8 3e 63 9e 44 3f
       0.5693442 0.88836837 0.42356884 0.7680418
000230 45 bd 18 3f f1 13 13 3f 63 71 4a 3f 03 b8 c4 3e
       0.596638 0.57452303 0.79079264 0.3842164
000240 c6 b8 2a bf 16 0b e4 be 07 86 0e bf c9 7c 19 bf
       -0.6668819 -0.44539708 -0.5567326 -0.5995603
000250 c6 66 0f bf 97 cd 1e bf f0 73 07 bf 12 57 d2 be
       -0.56016195 -0.62032455 -0.5291128 -0.41082054
000260 d4 92 c3 3c d7 61 05 bf 30 6e 12 bf 36 7b 30 bf
       0.023873724 -0.52102417 -0.5719938 -0.68938005
000270 cd f0 21 bf 9b 42 f0 be ba c0 25 bf bf 42 2b bf
       -0.6325806 -0.46925816 -0.647472 -0.6689872
000280 4b 02 e5 be 4f d6 32 3d 40 a9 44 bf d7 34 22 bf
       -0.44728312 0.04366141 -0.76820755 -0.6336188
000290 59 46 22 bf a6 89 11 bf dd f1 01 bf d5 40 32 bf
       -0.6338859 -0.5685066 -0.5075968 -0.69630176
0002a0 35 38 d5 be 32 1c fa be 40 9b e2 3c 4e 34 a7 3f
       -0.41644445 -0.48849636 0.02766192 1.3062837
0002b0 1d 44 95 3f f5 59 84 3f c7 94 a5 3f 95 24 6b 3f
       1.1661412 1.0339953 1.2936028 0.91852695
0002c0 7d f2 84 3f 59 46 95 3f 1f de 2f 3f ed 4d 19 bf
       1.0386502 1.1662093 0.68698305 -0.5988453
0002d0 7f 7c 51 3f 13 af 2c 3f e3 46 28 3f 20 03 2d 3f
       0.8183059 0.6745464 0.65733165 0.67582893
0002e0 0c dc 07 3f 94 c5 4d 3f 89 54 31 3f a9 bb 5a 3f
       0.5307014 0.80379605 0.69269615 0.85442597
0002f0 b9 03 c8 3e 8c e8 a3 be 37 35 a0 be 14 cd 9b be
       0.3906534 -0.32013357 -0.312906 -0.304299
000300 66 ff 8c be 53 74 93 be 63 d7 93 be a2 33 86 be
       -0.27538604 -0.28799686 -0.28875265 -0.26211268
000310 45 92 9e be ed 17 0a 40 08 c7 95 bd 23 9c a6 bd
       -0.3097097 2.1577103 -0.07313353 -0.081352495
000320 91 06 4e bd a5 22 56 bd 33 b4 2f bd b0 16 6d bd
       -0.05029923 -0.052279133 -0.04289646 -0.057882965
000330 1a 7e a8 bd 43 b4 81 bd 05 bd c6 3f 78 bf 53 3e
       -0.08227177 -0.0633321 1.5526434 0.20678508
000340 6f e7 70 3e b3 53 09 3f 1a 6f 31 3f 58 86 17 3f
       0.23525785 0.5364334 0.6931015 0.5918937
000350 ae 9c 1e 3e 41 f6 10 3f 76 3f 16 3f db ab d1 bc
       0.15489456 0.56625754 0.58690584 -0.025594642
000360 6a a7 0a be d0 06 fa bd f1 69 00 be fa bb f3 bd
       -0.13540426 -0.12208331 -0.12540413 -0.11901088
000370 8f 9f ea bd 55 20 f2 bd d3 e3 ee bd 14 a9 f0 bd
       -0.11456215 -0.11822573 -0.11664548 -0.11750999
000380 6f 0c f1 3f 05 e8 47 be e1 74 1c bf ca e8 3a bf
       1.883192 -0.19522102 -0.61115843 -0.7301146
000390 99 69 e9 be 74 d6 24 bf ac af f8 be dc 74 22 bf
       -0.45588377 -0.6438973 -0.48571527 -0.63459563
0003a0 60 3a c4 be 39 60 94 3b c1 d3 25 bf 03 77 34 bf
       -0.38325787 0.004528072 -0.64776236 -0.704941
0003b0 f2 b0 05 bf 43 a1 09 bf b0 70 1d bf 75 e2 25 bf
       -0.5222312 -0.5376169 -0.6150007 -0.6479867
0003c0 f7 69 1a bf e8 e1 11 bf a5 1b 20 3d b4 bf 5c 3f
       -0.6031794 -0.5698533 0.039088864 0.86230016
0003d0 a6 04 62 3f b4 42 19 3f 87 fc eb 3e 1c 48 88 3f
       0.8828834 0.59867406 0.460911 1.0647006
0003e0 3e e1 2d 3f 8c 6e 6a 3f 7e ec fa 3e c5 6d e6 3e
       0.6792182 0.9157493 0.49008554 0.45005623
0003f0 cf 8d 2e 3f 5c f6 8c 3f a6 ca e0 3e 9c 97 85 3f
       0.6818513 1.1012683 0.43904608 1.0436893

fc1.bias f4 [60]
000000 35 a5 88 3f c1 80 25 3f 51 b5 3a be 39 b1 e8 3e
       1.0675417 0.6464959 -0.18233229 0.4544771
000010 c8 f0 d1 bf ae 70 8e 3e 28 f4 c8 3f bf aa ab 3f
       -1.6401606 0.27820343 1.569951 1.3411483
000020 a7 13 e4 bf e5 b7 85 3f 2c b4 e4 3f 73 db a7 3f
       -1.7818497 1.0446745 1.7867484 1.3113846
000030 9c e0 24 bf fb 3b d2 bf b9 b6 bd 3f 6a a9 36 3e
       -0.64405227 -1.6424555 1.4821388 0.17838064
000040 cd 91 92 3f 2f bf a5 3f b7 89 bf 3f ad aa 96 bf
       1.1450745 1.294897 1.4963902 -1.1770836
000050 fe 2a 91 be 90 a9 77 3f bf 48 8e be 8a f4 85 bf
       -0.28353113 0.96743107 -0.27789876 -1.0465252
000060 4d a1 62 3d 82 0c 8b 3f d1 03 c2 3f df 19 27 3f
       0.05532961 1.0863192 1.5157415 0.6527385
000070 79 2d bc 3e 8a 03 d3 3e 0b 2d b1 3f 87 c3 03 3f
       0.36753443 0.41213638 1.3841871 0.51470226
000080 69 53 a5 3f bc 0a 03 3e 37 10 a8 3f d4 33 e1 3e
       1.291608 0.12797064 1.3129948 0.43984854
000090 07 f2 ec 3e 9d f6 2d 3f 96 84 9c bf 22 5c 9a 3f
       0.46278402 0.67954427 -1.2227962 1.2059367
0000a0 f5 80 95 3e ef ea b9 3f 20 9b ae 3f 65 91 37 bd
       0.2919995 1.4524821 1.364109 -0.044816393
0000b0 97 eb 03 40 56 32 b5 3f fc b6 87 3f f6 50 c0 3f
       2.0612543 1.4155986 1.0602717 1.5024707
0000c0 e6 0c c7 3f c7 dd cc 3f e3 29 a9 bf 64 e6 c6 3f
       1.5550811 1.6005181 -1.3215908 1.553906
0000d0 7a 2a db bf 2c 4c 7b 3e 89 c1 af be d7 19 b6 3f
       -1.7122338 0.24540776 -0.34327343 1.4226636
0000e0 7d 7e 89 bf 1e 04 9d 3e 44 04 c2 bf 53 0f b3 ba
       -1.0741726 0.30667204 -1.5157552 -0.0013661183

fc2.weight f4 [30, 60]
000000 4c 8a 5c 3f b6 15 5e 3f 3f 45 78 3f 32 5b 5c 3f
       0.86148524 0.8675188 0.9698066 0.86076653
000010 72 bc 2e bf 32 a3 60 3f cd c9 c9 3e c0 7d 30 3f
       -0.68256295 0.87749016 0.39411774 0.6894188
000020 65 c2 36 bf aa 00 38 3f bb 0b 40 3f 89 7c 36 3f
       -0.7139037 0.71876013 0.750179 0.71283776
000030 cd 0e af bd e9 e1 4b bf a3 84 1b 3f db 18 74 3f
       -0.08547745 -0.79641587 0.6074926 0.95350426
000040 c6 60 3c 3f ab 02 3d 3f f7 8a 15 3f dc 73 51 bf
       0.73585165 0.73832196 0.5841517 -0.8181741
000050 98 0a 1d 3f 19 cc 9b bf 36 e9 8b bf ff 1a 01 bf
       0.6134429 -1.2171661 -1.0930545 -0.5043182
000060 58 61 8c bf ad e5 0a 3f 6e fe 51 3f c1 c5 5f 3f
       -1.0967207 0.5425671 0.82028854 0.87411124
000070 0f 58 7c 3f ce d9 61 3f 1e e1 2b 3f fa e0 9e bf
       0.98571867 0.8822297 0.67140377 -1.2412407
000080 fa 37 2e 3f c3 d1 70 bf df 8d 1b 3f e2 44 72 3f
       0.68054163 -0.9407007 0.60763353 0.94636357
000090 a7 d0 5e 3f 97 f2 76 3f ab 71 74 bf 97 f1 a1 bf
       0.8703713 0.9646391 -0.95485944 -1.2651852
0000a0 7d b2 68 3f ad 71 0a bf f5 43 3a 3f 90 d2 98 bf
       0.9089735 -0.54079705 0.72759944 -1.1939259
0000b0 7d b0 43 3f 79 66 2b 3f 83 ca 3c 3f 66 c0 37 3f
       0.76441175 0.66953236 0.7374651 0.7177795
0000c0 0b 04 68 3f 13 30 ee 3e 43 45 5a bf ed 97 2e 3f
       0.9063117 0.46521053 -0.85261935 0.6820057
0000d0 ad ce 6f bf 5b 57 8b bf e3 c0 57 3f f2 1f 24 3f
       -0.9367474 -1.0886034 0.84278697 0.64111245
0000e0 e6 1c 64 bf 33 ce 6f 3f 96 c2 42 bf d0 41 93 bf
       -0.89106596 0.9367401 -0.76078165 -1.1504459
0000f0 b3 ae a3 bf aa 0e 37 3f ef 13 92 bf 34 e8 b5 3e
       -1.2787689 0.7150675 -1.1412333 0.3552872
000100 e5 1d a5 3f 82 a2 03 3f 1a 5a a4 bf 65 73 8a bf
       1.2899748 0.5141984 -1.2839997 -1.0816466
000110 3d c7 90 3f 69 f4 8a bf 10 73 9c bf 61 70 85 bf
       1.1310803 -1.0855838 -1.2222614 -1.042492
000120 44 47 45 3f 37 91 b1 3f c7 e4 8f bf 46 73 34 3f
       0.7706187 1.3872441 -1.1241692 0.70488393
000130 23 0d 8c bf 38 39 94 bf e0 1c 80 bf f9 f6 c9 3e
       -1.0941509 -1.1579962 -1.0008812 0.39446238
000140 75 ef 56 3f a4 74 a9 be d0 6d 8f 3f fd 85 50 3f
       0.8395913 -0.33096802 1.1205387 0.8145445
000150 bf 5a 51 3f 56 64 8f bf 50 39 81 bf e5 44 a8 3e
       0.8177909 -1.1202495 -1.0095615 0.32865062
000160 6f eb ff 3e 27 7a d6 3e fa 67 76 bf 3e ff 29 3f
       0.4998431 0.4189007 -0.96252406 0.66405094
000170 8d d4 81 bf d6 53 9f bc 9c 0e 88 bf 1a cc 02 3f
       -1.014299 -0.019449156 -1.0629458 0.51092684
000180 28 7e ea 3e e6 eb af 3e 48 24 53 3f 1f 0a 5e be
       0.45799375 0.34359664 0.82477236 -0.21683548
000190 8c 03 95 bf f5 14 8d bf 40 3e 84 bf 34 f6 56 3f
       -1.1641707 -1.102202 -1.0331497 0.83969426
0001a0 63 2a 96 bf dd 69 93 bf 63 32 94 bf 81 71 90 bf
       -1.1731685 -1.1516682 -1.1577877 -1.1284639
0001b0 2c 8a 97 bf f8 63 8e bf 9e 10 af 3f 85 34 88 bf
       -1.1839042 -1.1124258 1.3676946 -1.0641028
0001c0 4c 74 a9 3f f1 05 6b 3f 0a 40 23 3f 0c d3 9f bf
       1.3238616 0.9180594 0.6376959 -1.2486281
0001d0 7e e3 df 3d e6 c3 29 3f 5a 08 a9 3f cc dc 65 3f
       0.109320626 0.6631454 1.3205674 0.89790034
0001e0 c5 c4 83 3f ba 45 2b bf 07 24 8e 3f e2 3d ce be
       1.0294424 -0.6690327 1.1104745 -0.40281588
0001f0 3d 07 9a bf 96 be 05 bf 2e 21 8f 3f db 96 7d 3f
       -1.2033459 -0.52243936 1.1182001 0.9905831
000200 f0 5c 94 bf 30 4c 76 3f 05 d9 93 3f 9b 6b 97 3f
       -1.1590862 0.9621 1.1550604 1.1829714
000210 e3 33 65 bf 28 d6 ae bf 10 c1 8e 3f 2f e7 0c bf
       -0.895323 -1.3659105 1.1152668 -0.5504026
000220 12 8c 93 3f b5 cd 76 3f 7c da 87 3f d3 8f 07 bf
       1.1527121 0.96407634 1.0613551 -0.52953833
000230 1c c1 6d bf 41 85 f8 3e d6 96 77 bf 50 49 5e bf
       -0.92872787 0.48539165 -0.9671453 -0.86830616
000240 bf bf 4d bf fd 37 81 3f 1c c1 8a 3f 3a 9c 9a be
       -0.80370706 1.0095211 1.0840182 -0.30197316
000250 11 ab c9 be 44 0c e5 be 5e 9c 7e 3f 96 13 c5 be
       -0.39388326 -0.4473592 0.9945735 -0.38491505
000260 21 d4 8a 3f c6 40 32 3d f8 6d 91 3f 54 ee 91 be
       1.0845987 0.043518804 1.1361685 -0.28502142
000270 01 92 d6 be 53 8a 13 bf aa 08 38 bf 68 20 df 3e
       -0.41908267 -0.5763294 -0.7188822 0.43579412
000280 1b b4 90 3f 7b af 84 3f e6 c1 6c 3f 15 1d 6f bf
       1.1304964 1.0366052 0.92483366 -0.9340375
000290 ae ad 93 3f 76 04 85 3f 75 d0 77 3f c0 a0 99 3f
       1.1537378 1.0391986 0.96802455 1.2002182
0002a0 06 7c 98 3f f9 80 98 3f 82 55 a6 bf cf fa 7c 3f
       1.1912849 1.1914359 -1.2994845 0.98820204
0002b0 f1 0c 99 bf 6f bb 55 bf ae 94 48 bf 30 78 94 3f
       -1.1957074 -0.83489126 -0.7835187 1.1599178
0002c0 ac 0d c5 be c5 87 cc be 1d 2a 9f bf ad 89 3e bf
       -0.38486993 -0.39947334 -1.2434727 -0.74428827
0002d0 fc 16 99 bf 72 59 4d 3f d0 6a 8b bf d9 37 df 3e
       -1.1960139 0.8021461 -1.0891972 0.43597296
0002e0 6c f9 8f 3f d9 8a 10 3f 0a 3f a1 bf 8d 02 7d bf
       1.1247993 0.56461865 -1.2597363 -0.9883202
0002f0 b0 01 a6 3f c2 d6 89 bf 78 7f 9c bf cb 2f 7e bf
       1.2969265 -1.0768664 -1.22264 -0.99291676
000300 24 32 53 3f cf 37 a1 3f c3 7f 9c bf 6c df 24 3f
       0.82498384 1.2595156 -1.222649 0.64403415
000310 21 c5 a3 bf 0a cf 84 bf 2b 3d 84 bf b4 d9 cd 3e
       -1.2794534 -1.0375683 -1.0331167 0.40205157
000320 6c aa 58 3f 9c af 9f be 0e a5 5c 3f 32 e6 43 3f
       0.84635043 -0.31188667 0.86189353 0.76523125
000330 05 4b 47 3f 70 07 8f bf 8d 6f 8b bf 26 62 f2 3e
       0.77848846 -1.1174145 -1.0893418 0.47340506
000340 9e 22 ec 3e 3b a0 c1 3e b1 bd 7d bf d0 66 3e 3f
       0.4612016 0.3781756 -0.9911757 0.7437563
000350 64 80 9c bf c7 48 dd 3c bb 7a 99 bf 14 ff 0b 3f
       -1.2226682 0.027012242 -1.1990579 0.54686093
000360 f6 0a e6 3e af d3 0e 3f a6 76 33 3f 49 43 cf be
       0.44930238 0.55791754 0.7010292 -0.40481022
000370 68 be 98 bf b5 f1 96 bf c2 39 80 bf d6 9f 5c 3f
       -1.1933107 -1.1792513 -1.0017626 0.8618139
000380 e0 71 a1 bf 69 c8 9c bf 67 16 6c bf 70 e7 9e bf
       -1.2612877 -1.224866 -0.92221683 -1.2414379
000390 a2 8e 8e bf f1 c3 96 bf 7e f1 ac 3f 65 ee 8f bf
       -1.1137278 -1.1778547 1.3511198 -1.1244627
0003a0 e8 cb a9 3f 40 50 5a 3f 52 ee 36 3f 27 46 7d bf
       1.3265352 0.852787 0.714574 -0.9893517
0003b0 d1 9e bb 3e af e1 2f 3f d9 6c 8f 3f 94 b5 83 3f
       0.36644605 0.6870374 1.1205093 1.0289788
0003c0 bb 52 10 bf 95 ab 0f be fb 2b 21 3f 46 8b c8 3e
       -0.56376237 -0.14030297 0.62957734 0.39168757
0003d0 11 b7 a7 3f 8c 46 07 3e a7 1e 34 bf df d8 14 bf
       1.3102742 0.13210505 -0.7035927 -0.5814342
0003e0 03 82 9f 3f 9c cf 17 bf 86 5d 12 bf 35 e9 1d bf
       1.2461551 -0.5930116 -0.57173955 -0.6168397
0003f0 12 35 65 3f d9 7e aa 3f 1b f5 0b bf 0b d4 89 3e
       0.89534104 1.3319961 -0.54670876 0.26919588

fc2.bias f4 [30]
000000 c9 c5 11 3f d8 1d 49 bf 71 a7 61 3f 63 2a 5f bf
       0.5694242 -0.7856116 0.8814612 -0.8717405
000010 1c 21 f3 3e 2e 72 ea 3e a0 c1 bb bc 11 c8 04 bf
       0.47486198 0.45790237 -0.022919476 -0.5186778
000020 2d 37 8b be be 6c 51 bf dd 5f 2e 3e 0e e7 cb be
       -0.27190533 -0.8180655 0.17028756 -0.39824718
000030 ac ad d4 be 9c 8c 24 bf 76 51 27 bd 43 f5 e9 3e
       -0.4153875 -0.6427705 -0.04084917 0.45694932
000040 f9 94 e5 3e 5a 1b 20 bf ae 53 46 bf ae 30 cf bd
       0.4484022 -0.62541735 -0.77471435 -0.10116707
000050 d8 4e 09 3f 4f f2 13 3d 4e 05 dd 3e 0e d7 15 3f
       0.5363593 0.036119755 0.4316811 0.5853127
000060 ee 09 51 3d d5 1d e8 3e 93 4a 04 bd 84 c4 e2 be
       0.05103486 0.4533526 -0.032297682 -0.44290555
000070 ca 85 05 3f 8a 86 f7 be
       0.5215727 -0.48344833

fc3.weight f4 [20, 30]
000000 c9 c7 76 bf 4c 08 03 bf f6 aa 6f 3f d3 8c 25 bf
       -0.963986 -0.51184535 0.9362024 -0.64668006
000010 4e 20 56 3f 16 e5 53 3f 03 32 18 bf 84 0b 26 bf
       0.83643043 0.8277143 -0.5945131 -0.6486132
000020 84 7c 0f bf cc 30 83 3f 26 fe 64 bf 12 57 7b 3f
       -0.5604937 1.0249267 -0.894503 0.98179734
000030 31 10 a9 be 1e 08 71 3f bc 51 2e 3f 56 fb 82 bf
       -0.33020166 0.9415301 0.68093467 -1.0232952
000040 72 3f 36 3f 04 dd 5f 3f 8a 08 49 3f 30 e5 68 3f
       0.7119056 0.8744662 0.78528655 0.9097471
000050 19 75 91 3f 8f 33 46 3f a1 2d 45 bf 93 83 7d 3f
       1.136386 0.7742242 -0.7702275 0.9902889
000060 22 f2 09 bf 6f 2b 3a bf 9f 83 6c 3f 0d 5b 51 3f
       -0.5388509 -0.72722524 0.9238834 0.8177956
000070 62 ae 31 3f 7e 11 f1 be 6b 9f 7e 3f e2 24 1e 3f
       0.6940671 -0.47083658 0.99462 0.6177503
000080 fd b3 40 bf 3a 8d 30 3f d3 9f 75 bf 27 c8 70 bf
       -0.7527464 0.68965495 -0.95947 -0.9405541
000090 39 3c 1d 3f 43 73 cf 3e b7 4f bf 3e 9d 74 4b bf
       0.6142002 0.40517625 0.37365505 -0.7947481
0000a0 b9 ad 40 3f 52 7b 7c bf 31 e7 a2 3e 45 47 66 bf
       0.7526508 -0.9862567 0.3181701 -0.899525
0000b0 df a5 6a bf f4 ae 5c 3f 1f 03 53 bf 8c 71 84 bf
       -0.9165935 0.8620446 -0.8242664 -1.0347152
0000c0 ec 78 31 bf 43 0a 83 bf f2 cc 69 bf e5 6f 55 bf
       -0.6932514 -1.0237507 -0.91328347 -0.8337386
0000d0 59 22 78 3f 27 a1 83 bf 9c 32 01 3f 82 c5 77 3f
       0.9692741 -1.0283555 0.5046785 0.9678575
0000e0 a9 47 47 bf 9d 9a 48 bf d8 3f 76 bf 45 8b 03 3f
       -0.7784372 -0.7836092 -0.9619117 0.51384383
0000f0 1b 2d 61 3f d8 ea 12 3f 40 98 78 bf a9 d0 26 3f
       0.8795945 0.57389593 -0.97107315 0.6516214
000100 5c fa 4a bf 10 b4 8c bf 46 cf 30 3f 2f 44 0e 3f
       -0.7928827 -1.0992451 0.69066274 0.5557279
000110 85 d6 e0 3e 71 95 2e bf d4 aa 30 3f 9d 12 82 bf
       0.43913665 -0.6819678 0.69010663 -1.016193
000120 51 e5 46 3e e2 8a 66 bf b1 7d 42 bf 35 77 43 3f
       0.19423415 -0.9005567 -0.7597304 0.7635377
000130 26 5d 4e bf 31 cc 75 bf 66 c1 74 bf 4d d9 84 bf
       -0.80610883 -0.96014696 -0.956076 -1.0378815
000140 36 d4 59 bf 3c da 78 bf ea 7d 93 3f 27 25 6e bf
       -0.85089433 -0.97208 1.1522801 -0.9302544
000150 14 c1 1e 3f 75 2b 6e 3f 0a d1 5d bf 93 b9 7f bf
       0.62013364 0.9303506 -0.86647093 -0.9989254
000160 c0 0d 52 bf 4b a8 0b 3f ed 74 75 3f 76 5d c8 3e
       -0.8205223 0.5455367 0.9588154 0.39133805
000170 38 d0 2d bf 8f 96 34 3f e1 4a 4d bf aa 2f 5c bf
       -0.6789584 0.70542234 -0.8019238 -0.8601023
000180 e4 4d 15 3f ca b4 f5 3e dc e2 c5 3e df de 4f bf
       0.58321977 0.47989494 0.38649642 -0.8119945
000190 59 19 13 3f be 7f 40 bf 19 c7 b6 3e 7a 3d 58 bf
       0.5746055 -0.7519492 0.35698774 -0.84468806
0001a0 a0 30 71 bf 21 6e 6b 3f f5 05 5c bf 1d 5e 5d bf
       -0.9421482 0.9196492 -0.8594659 -0.8647173
0001b0 68 39 68 bf ff c5 35 bf 16 9f 69 bf ff a6 1d bf
       -0.90712595 -0.71005243 -0.9125837 -0.6158294
0001c0 b5 c5 80 3f 07 5a 61 bf 5e 7b 19 3f 1b 8d 44 3f
       1.0060335 -0.88027996 0.5995387 0.7677781
0001d0 e8 e4 6c bf 07 0f 44 bf 3b 42 6a bf 4f a5 d7 3e
       -0.92536783 -0.7658543 -0.9150731 0.42118308
0001e0 01 5e 4e 3f 0c 12 0c 3f b9 67 40 bf 6b 7d 47 3f
       0.8061219 0.5471504 -0.7515827 0.7792575
0001f0 50 8b 40 bf 22 44 8f bf 66 73 e0 3e 96 43 13 3f
       -0.75212574 -1.1192667 0.43838042 0.57525
000200 44 cb ba 3e 2b ec 3d bf 3a 3d 2a 3f 65 61 5c bf
       0.36483204 -0.7418849 0.66499674 -0.8608611
000210 fb e2 e1 3e 6d 0c 77 bf f0 34 68 bf 03 dd 60 3f
       0.44118485 -0.96503335 -0.90705776 0.8783724
000220 87 86 3f bf be 30 7e bf 44 ff 3b bf 32 42 7f bf
       -0.7481465 -0.99293125 -0.7343638 -0.9971038
000230 2c 1f 79 bf 3d 35 74 bf 76 32 93 3f 15 c8 84 bf
       -0.9731319 -0.95393735 1.1499774 -1.037356
000240 a7 56 26 3f b4 8e 76 3f a0 f6 5a bf 44 1b 8a bf
       0.6497597 0.963115 -0.8553257 -1.0789571
000250 ed 10 4f bf 71 54 1f 3f bf b9 37 bf 12 1f e8 be
       -0.808852 0.6223822 -0.717678 -0.45336205
000260 69 a2 48 3f 69 ff 60 bf b2 40 8d 3f fd 5a 5f 3f
       0.7837282 -0.87889725 1.1035368 0.8724821
000270 0d 72 26 bf 23 ee a5 be 77 d8 f2 be 1a d5 55 3f
       -0.6501778 -0.32408246 -0.47430775 0.8352829
000280 2a f3 61 bf 21 20 4c 3f f2 3b 9c be 18 00 3a 3f
       -0.88261664 0.79736525 -0.30514485 0.72656393
000290 2e d8 36 3f 97 9c 83 bf e1 5b 72 3f 1e f4 9e 3f
       0.71423614 -1.0282162 0.94671446 1.2418249
0002a0 67 1e 52 3f c4 07 4f 3f 6e fe 87 3f 09 27 4c 3f
       0.8207764 0.80871224 1.0624521 0.7974706
0002b0 0a f8 8e bf fb 17 51 3f 16 96 18 bf 67 9e 8e bf
       -1.1169446 0.81677216 -0.5960401 -1.114209
0002c0 35 2a 88 3f 33 30 8d 3f a2 af 77 3f 73 0c 2f bf
       1.063788 1.1030334 0.9675237 -0.6837837
0002d0 44 d0 47 3f 80 65 2d 3f 59 76 53 bf cd 30 13 3f
       0.78052163 0.67733 -0.8260246 0.5749634
0002e0 30 d5 58 bf 91 12 92 bf 7c e9 ce 3e 85 34 b4 3e
       -0.847003 -1.1411916 0.4041251 0.3519632
0002f0 58 31 aa 3e 7b 11 54 bf 31 93 09 3f fd 36 7b bf
       0.3324077 -0.82839173 0.5374022 -0.9813078
000300 08 07 fa 3e 63 d3 67 bf bb 15 46 bf 82 19 74 3f
       0.4883349 -0.90556926 -0.7737691 0.9535142
000310 d1 bc 58 bf d7 76 51 bf 75 93 7a bf f2 e0 43 bf
       -0.8466311 -0.8182196 -0.9788125 -0.76515114
000320 2c 57 4a bf 07 5d 6d bf 2f f8 35 3f 59 da 4a bf
       -0.79039264 -0.92720073 0.71081823 -0.7923942
000330 c9 ec 30 3f 18 f9 6c 3f 1f 2b 2e bf 9e f9 57 bf
       0.69111305 0.92567587 -0.6803455 -0.8436526
000340 39 36 40 bf aa 11 29 3f 42 33 5e bf 9c c1 07 bf
       -0.7508274 0.6604258 -0.86796963 -0.530298
000350 1c 94 3f 3f 3d e8 53 bf 78 09 79 3f b3 23 77 3f
       0.7483537 -0.8277624 0.97280073 0.9653885
000360 35 d5 cc be f3 5d 18 bf f3 ca 9e be 85 d1 2a 3f
       -0.40006414 -0.59518355 -0.31014213 0.6672595
000370 c3 ce 15 bf da 24 38 3f 19 58 0c bf 63 4c 42 3f
       -0.5851862 0.7193123 -0.54821926 0.75897807
000380 e3 b5 4b 3f 03 14 69 bf 1e f5 51 3f c9 91 96 3f
       0.7957441 -0.9104616 0.82014644 1.176324
000390 66 db 4d 3f 38 83 82 3f 9e 81 7a 3f ad 80 59 3f
       0.804129 1.0196295 0.9785403 0.8496197
0003a0 d4 be 45 bf bd aa 5a 3f 7b 91 2b bf 61 6f 89 bf
       -0.77244306 0.85416776 -0.6701886 -1.0737115
0003b0 05 6e 27 3f 2d 73 6f 3f 33 d9 24 3f bb 25 ee be
       0.6540225 0.9353512 0.6439392 -0.4651316
0003c0 05 36 77 3f 9e 04 7d 3f 73 7b 8e bf fc 86 73 3f
       0.965668 0.9883517 -1.1131424 0.95127845
0003d0 d1 cf ad bf 4e d2 93 bf cc e8 14 3f 14 4b df 3e
       -1.3579046 -1.1548555 0.5816772 0.43611968
0003e0 a5 57 99 3e c2 97 78 bf 78 a3 9d 3f a1 50 8e bf
       0.2994968 -0.97106564 1.2315512 -1.1118356
0003f0 52 fb bf 3e 55 1f 90 bf 2d a5 62 bf 23 63 92 3f
       0.3749643 -1.1259562 -0.8853329 1.1436504

fc3.bias f4 [20]
000000 4b be 00 3f 4b 05 a5 be cd b9 d3 be 48 12 ee be
       0.50290364 -0.322306 -0.41352692 -0.46498322
000010 57 e6 f5 be c3 1a 27 3f 56 b7 63 be b8 f8 06 3f
       -0.48027298 0.6527521 -0.22237906 0.52723265
000020 20 e7 f9 be 30 64 da be 12 95 b2 be 3b 5a 0b 3f
       -0.48809147 -0.42654562 -0.34879357 0.54434556
000030 df 41 ba 3e f9 30 2a 3f fc e8 1f 3f bd 6f f2 be
       0.3637838 0.66480976 0.6246488 -0.47350875
000040 f9 7d 12 bf 88 c7 95 be ef 03 09 3f 7c 31 ac 3e
       -0.5722347 -0.29253793 0.5352163 0.33631504

fc4.weight f4 [1, 20]
000000 5d a8 aa 3f ae 4b 9c bf f9 c1 9b bf 64 81 a7 bf
       1.333263 -1.2210596 -1.2168571 -1.3086362
000010 42 3b a8 bf 2c fa b0 3f 13 f5 9d bf 91 7f bb 3f
       -1.3143084 1.3826346 -1.2340416 1.4648305
000020 4a 50 88 bf e5 e1 94 bf 79 99 96 bf ea ee a1 3f
       -1.0649502 -1.1631438 -1.1765586 1.2651036
000030 19 5f b3 3f 6f 47 a2 3f f4 f5 a8 3f 9b f0 a2 bf
       1.4013397 1.267805 1.3200059 -1.2729677
000040 ff 3c 95 bf 82 66 87 bf f1 a0 a3 3f 4c 6e 9d 3f
       -1.165924 -1.0578158 1.278349 1.2299285
