python_scripts/indicatrizE.pth (torch, 14839 bytes, 7 tensors)

fc1.weight f4 [60, 9]
0	0x3d9202b6	0.07129423
1	0x3dac4a0d	0.084125616
2	0x3dcc12de	0.09964536
3	0x3dbc6b0b	0.09200104
4	0x3daf58dc	0.085618705
5	0x3db39c9b	0.087701045
6	0x3dce1490	0.10062516
7	0x3dc726f6	0.09724228
8	0x3ffaa2fc	1.9580989
9	0x3c95caca	0.018285174
10	0x3c2db1bb	0.010601456
11	0x3c9413bf	0.018075822
12	0x3cc5f4ba	0.024164546
13	0x3cc9129f	0.024545012
14	0x3c5ff5bc	0.0136694275
15	0x3cc6d69d	0.024272257
16	0x3cb9e78c	0.022693418
17	0xbff30759	-1.8986617
18	0x3eaca024	0.33715928
19	0x3ead18fd	0.33808127
20	0x3eb0b21d	0.3451089
21	0x3eb29eee	0.3488688
22	0x3eab1fa3	0.33422574
23	0x3ea97dae	0.33103698
24	0x3eb06e9f	0.34459397
25	0x3eae3661	0.34025863
26	0xc005b223	-2.0889976
27	0x3e9cb520	0.30606937
28	0x3e9face6	0.311866
29	0x3ea32e4f	0.31871268
30	0x3ea12298	0.31471705
31	0x3e9dfb89	0.3085597
32	0x3e9d78da	0.30756265
33	0x3ea0e95d	0.31428042
34	0x3e9e0e64	0.30870354
35	0xbfff7a9d	-1.9959294
36	0xbf36ecbb	-0.7145497
37	0xbf371d73	-0.7152931
38	0xbf3830e4	-0.719496
39	0xbf377eb5	-0.71677715
40	0xbf3715ef	-0.71517843
41	0xbf37bf02	-0.7177583
42	0xbf381849	-0.71912056
43	0xbf37b00c	-0.71753
44	0xbb4b27a5	-0.0030998972
45	0x3d615fb7	0.05502292
46	0x3d91280d	0.07087717
47	0x3d94dd60	0.072687864
48	0x3d947a6c	0.072499126
49	0x3d700872	0.058601804
50	0x3d73ad42	0.059491403
51	0x3d8c18aa	0.06840642
52	0x3d823f9e	0.0635979
53	0x4005f88d	2.0932953
54	0xbf5b90ec	-0.8576801
55	0xbf5bd3d1	-0.8587008
56	0xbf5bc84a	-0.8585249
57	0xbf5bfd5b	-0.85933465
58	0xbf5c8247	-0.8613629
59	0xbf5be9db	-0.8590371
60	0xbf5bad75	-0.8581155
61	0xbf5bd987	-0.85878795
62	0xbbb43221	-0.00549914
63	0x3e10db57	0.14146172
64	0x3e0dd091	0.13849093
65	0x3e0f9fd0	0.14025807
66	0x3e1d8bbc	0.15385336
67	0x3e138d40	0.14409351
68	0x3dff1cd3	0.1245667
69	0x3e208260	0.15674734
70	0x3e126b44	0.14298731
71	0xbfd4b8ad	-1.6618859
72	0x3f1d722b	0.6150233
73	0x3f1822c2	0.59428036
74	0x3f1b19e1	0.60586363
75	0x3f1c1710	0.6097269
76	0x3f1cb356	0.61211145
77	0x3f19d53f	0.6009101
78	0x3f1a574b	0.6028945
79	0x3f1dfd2e	0.61714447
80	0xbff30e2f	-1.8988703
81	0xbcc9a6c9	-0.024615662
82	0xbd02d4c9	-0.03194121
83	0xbcb30ca1	-0.021856608
84	0xbbaa0ac5	-0.005189272
85	0xbc86c94c	-0.016453408
86	0xbcdc2a9a	-0.026875783
87	0xbb5639f4	-0.0032688351
88	0xbc4b109c	-0.012394097
89	0x3fed5b49	1.8543483
90	0x3d123838	0.035698146
91	0x3d559d70	0.052152097
92	0x3cfc8468	0.030824855
93	0x3c91e431	0.017809005
94	0x3d44d292	0.048052378
95	0x3cdbb949	0.02682175
96	0x3d2b16cd	0.04176979
97	0x3d0d8d28	0.034558445
98	0xbffed1d4	-1.9907784
99	0x3e3bd20d	0.18341847
100	0x3e23c8c5	0.15994556
101	0x3de66b5c	0.11250946
102	0x3e1c591b	0.15268366
103	0x3e2b269e	0.1671395
104	0x3e35f4c6	0.17769155
105	0x3e3255f0	0.17415595
106	0x3dc90307	0.098150305
107	0x3fc5c910	1.5451984
108	0x3cd3f233	0.025872326
109	0x3ccc4c5f	0.02493876
110	0x3cba7779	0.022762047
111	0x3c77e3a0	0.015129954
112	0x3cb46683	0.022021538
113	0x3ccdd478	0.025125727
114	0x3ca044bf	0.01956403
115	0x3cb50714	0.022098102
116	0xc004b5fe	-2.073608
117	0x3dfce3bf	0.123481266
118	0x3dff1ef4	0.12457076
119	0x3dd84707	0.105604224
120	0x3dfc7100	0.123262405
121	0x3df1c65d	0.11805413
122	0x3e0bf296	0.13666758
123	0x3dd8d162	0.105868116
124	0x3e11ddc3	0.14244752
125	0x3fe5b1da	1.7944901
126	0xbf3397cf	-0.70153517
127	0xbf333ec9	-0.7001768
128	0xbf327c90	-0.6972132
129	0xbf32f311	-0.6990214
130	0xbf34071f	-0.70323366
131	0xbf3103e4	-0.6914656
132	0xbf32f719	-0.6990829
133	0xbf32d2b6	-0.6985277
134	0xbbdab4c0	-0.006674379
135	0x3e880a45	0.26570335
136	0x3e818cb3	0.25302657
137	0x3e7d2941	0.24722768
138	0x3e80603a	0.25073415
139	0x3e7fbdcc	0.24974746
140	0x3e812c57	0.2522914
141	0x3e8254c9	0.2545531
142	0x3e85235d	0.26003543
143	0x3ff76db9	1.933036
144	0x3db203f4	0.0869216
145	0x3d902b7f	0.07039546
146	0x3dc06718	0.093946636
147	0x3dcda7d8	0.10041779
148	0x3da30334	0.07959595
149	0x3d737891	0.059441153
150	0x3db58fb2	0.08865298
151	0x3d84e6e3	0.06489351
152	0x3fe53d7f	1.7909392
153	0xbf43871d	-0.7637804
154	0xbf469488	-0.7757039
155	0xbf470b0a	-0.7775122
156	0xbf465ecd	-0.77488405
157	0xbf46b51e	-0.7762011
158	0xbf471c75	-0.77777797
159	0xbf464433	-0.77447814
160	0xbf467ec7	-0.77537197
161	0xbb361c0f	-0.002778772
162	0x3e712188	0.23547947
163	0x3e704e61	0.23467399
164	0x3e74894b	0.23880498
165	0x3e785e24	0.24254662
166	0x3e6d775d	0.23190065
167	0x3e68c69b	0.22732012
168	0x3e705945	0.23471554
169	0x3e6d9fb1	0.23205449
170	0xbfffc4d3	-1.9981941
171	0x3fda886b	1.7072881
172	0x3fd897de	1.6921346
173	0x3fd98278	1.6992941
174	0x3fd908ab	1.695577
175	0x3fd9e057	1.7021588
176	0x3fd16403	1.6358646
177	0x3fda3a7b	1.7049097
178	0x3fd926cb	1.6964964
179	0x3efa9228	0.48939633
180	0x3db8d7e2	0.090255514
181	0x3dad9eb4	0.08477536
182	0x3d97f495	0.07419697
183	0x3da8a0e8	0.082338154
184	0x3da8ef60	0.08248782
185	0x3da03a03	0.07823565
186	0x3db23d93	0.087031506
187	0x3db2ccd9	0.08730478
188	0xbff09031	-1.8794004
189	0x3e04651b	0.12929194
190	0x3e0a879d	0.13528295
191	0x3df72489	0.120675154
192	0x3de07ca8	0.10961276
193	0x3df44d94	0.11928859
194	0x3e0bba30	0.13645244
195	0x3de44d0e	0.111475095
196	0x3df5d61b	0.12003728
197	0x3ffd615c	1.9795337
198	0xbf390426	-0.72271955
199	0xbf390c44	-0.7228434
200	0xbf38363d	-0.7195776
201	0xbf3850c5	-0.71998245
202	0xbf3966c9	-0.7242246
203	0xbf381bda	-0.719175
204	0xbf386b42	-0.7203866
205	0xbf392fb0	-0.7233839
206	0xbb9d56fa	-0.004801628
207	0xbe589526	-0.21150646
208	0xbe6ebaf0	-0.23313498
209	0xbe75e738	-0.24013984
210	0xbe6ea15b	-0.2330374
211	0xbe651dbb	-0.22374623
212	0xbe7c3b68	-0.24632037
213	0xbe6d7355	-0.23188527
214	0xbe6140d0	-0.2199738
215	0x4003425f	2.050926
216	0x3cc44adb	0.023961475
217	0x3c7b2ef6	0.015331021
218	0x3c7efafd	0.01556277
219	0x3cd492b3	0.025948858
220	0x3c570be9	0.013125398
221	0x3c6aa6fb	0.014322038
222	0x3cdf3280	0.02724576
223	0x3cc48451	0.023988875
224	0xbff24504	-1.8927312
225	0x3d893dd8	0.06701249
226	0x3d8b094d	0.06788883
227	0x3d84ec64	0.064904004
228	0x3d7c6c3e	0.061626665
229	0x3d8472ad	0.06467185
230	0x3d948fbf	0.0725398
231	0x3d85c755	0.0653216
232	0x3d8de710	0.06928837
233	0xc001ac3e	-2.0261378
234	0xbf578767	-0.8419098
235	0xbf57bcbc	-0.8427236
236	0xbf561a10	-0.8363352
237	0xbf57e082	-0.84326947
238	0xbf58411f	-0.84474367
239	0xbf583586	-0.8445667
240	0xbf571f2d	-0.84031945
241	0xbf57ab0e	-0.84245384
242	0xbb9790ad	-0.004625401
243	0xbf3a2c56	-0.727239
244	0xbf3994fe	-0.7249297
245	0xbf398d52	-0.7248126
246	0xbf39b74b	-0.7254531
247	0xbf3b8cdb	-0.73261803
248	0xbf38cc34	-0.7218659
249	0xbf3969e3	-0.72427195
250	0xbf39e2e4	-0.7261183
251	0xbbda68d6	-0.0066653294
252	0x3db82a3f	0.08992433
253	0x3db72bdc	0.089439124
254	0x3da53850	0.080673814
255	0x3d9b1496	0.07572286

fc1.bias f4 [60]
0	0xbff31804	-1.8991704
1	0xbfb42930	-1.407507
2	0x3eff76fc	0.49895465
3	0x3f0faf88	0.56127214
4	0x400ae76e	2.1703753
5	0xbfefa9fd	-1.8723751
6	0x4034385e	2.8159404
7	0xbffe768d	-1.9879929
8	0x3e8b7172	0.2723499
9	0x3fd32d5b	1.6498216
10	0x3fbdb6ec	1.4821448
11	0xc013837e	-2.3049006
12	0xbfc12194	-1.5088372
13	0xc006c463	-2.1057365
14	0x40047c6e	2.0700946
15	0x3f48ccbd	0.78437406
16	0xbfed3465	-1.8531615
17	0x401989aa	2.3990273
18	0x3f431c71	0.76215273
19	0xbf9f0d71	-1.2425977
20	0xbfd89aa1	-1.6922189
21	0x3f9b44ce	1.2130373
22	0x400a5060	2.1611557
23	0xbf5dc5cf	-0.86629957
24	0xbfbb0e22	-1.4613688
25	0xbfd0fdd2	-1.632746
26	0x402e1afb	2.7203968
27	0x400d1806	2.2045913
28	0xbfdfca43	-1.74836
29	0x4016bb9f	2.3552015
30	0xbfa62d51	-1.298258
31	0x402b1dbe	2.6736903
32	0x40198d9e	2.3992686
33	0xbfec27ec	-1.8449683
34	0xbd9cdfc0	-0.076598644
35	0xbfc0ac49	-1.5052577
36	0xbfaab39b	-1.3336061
37	0xbfd7c107	-1.6855782
38	0x400a8a7a	2.164702
39	0x403071e4	2.7569513
40	0xc0306d91	-2.7566874
41	0x401c295e	2.4400249
42	0xbf2e4778	-0.680778
43	0xc00d9f73	-2.212857
44	0x3fd99e5e	1.7001455
45	0x40043f49	2.0663626
46	0xbea03218	-0.31288218
47	0x400472ef	2.069515
48	0xc000c85c	-2.012229
49	0xbfc194bc	-1.5123515
50	0xbfcaf5a8	-1.5856218
51	0xbfed7c47	-1.8553551
52	0x402efb51	2.7340891
53	0x3ff2a912	1.8957846
54	0xbfe07f02	-1.753876
55	0xc0728c2f	-3.7898061
56	0x4025f8ed	2.5933182
57	0x40358f8d	2.8368866
58	0xbfb2d408	-1.3970957
59	0x40240fa1	2.563454

fc2.weight f4 [30, 60]
0	0x3f875e9b	1.0575746
1	0x3f603815	0.87585574
2	0xbf28af4a	-0.6589247
3	0xbf59b45e	-0.85040843
4	0x3e2cfae9	0.1689259
5	0x3f6a88fd	0.9161528
6	0xbe10d808	-0.1414491
7	0x3f4cb1bd	0.7995871
8	0xbf2724f2	-0.6529075
9	0xbf501da1	-0.8129521
10	0xbf752f89	-0.9577566
11	0x3f6ef3ed	0.9334095
12	0x3f76e596	0.9644407
13	0x3f7f362b	0.9969203
14	0x3e0c53fe	0.13703915
15	0xbf1ad958	-0.6048789
16	0x3f6bca92	0.9210597
17	0xbdae78d0	-0.08519137
18	0xbf52e516	-0.8238081
19	0xbec8dca9	-0.3923085
20	0x3f81c21b	1.0137361
21	0xbf343ae4	-0.7040236
22	0xbd095f96	-0.033538423
23	0x3f3555ce	0.7083405
24	0x3f81167c	1.0084987
25	0x3f8aff57	1.0859174
26	0x3d1f4a4a	0.038889207
27	0x3e46a6a0	0.193995
28	0x3f858b6d	1.0433174
29	0x3e6136bd	0.21993537
30	0x3f471218	0.77761984
31	0xbabae68d	-0.0014259383
32	0x3d03dbf2	0.032192178
33	0x3f879c9c	1.0594668
34	0xbf29d333	-0.6633789
35	0x3f6579e9	0.89639145
36	0x3f53c4c6	0.8272213
37	0x3f8b3ff5	1.0878893
38	0x3ce258d5	0.027630249
39	0xbdb096a9	-0.08622486
40	0x3f613e27	0.8798546
41	0x3d1bd819	0.038047884
42	0x3f662ebf	0.8991508
43	0x3f4850ce	0.782483
44	0x3e616567	0.22011338
45	0xbd7b5805	-0.06136324
46	0xbf34144e	-0.7034348
47	0xbcd817f1	-0.026378604
48	0x3f664276	0.8994516
49	0x3f542464	0.8286803
50	0x3f7390e3	0.95142955
51	0x3f78b20b	0.9714667
52	0x3de0b2ee	0.10971628
53	0xbdbb5b87	-0.09148317
54	0x3f6aea14	0.91763425
55	0x3f4ed474	0.8079293
56	0x3db5cd83	0.08877089
57	0xbb3fe96e	-0.0029283422
58	0xbee1afcf	-0.44079444
59	0x3d028377	0.031863656
60	0xbe374d35	-0.17900546
61	0xbe901ab5	-0.28145376
62	0xbeb6982b	-0.3566297
63	0xbebf3424	-0.37344468
64	0x3f9846a7	1.1896561
65	0xbeefedf6	-0.46861237
66	0x3f9353c9	1.1509944
67	0xbf05357b	-0.5203473
68	0xbf071aec	-0.52775455
69	0xbf111593	-0.56673545
70	0xbe0df2ba	-0.13862124
71	0xbf0f8460	-0.56061363
72	0xbebd11dc	-0.36927688
73	0xbeafa500	-0.34305573
74	0x3f827894	1.0193048
75	0xbecaae31	-0.39586022
76	0xbef0c81f	-0.4702768
77	0x3f8e1118	1.1098967
78	0xbe3f61e0	-0.1868968
79	0xbfafad44	-1.3724751
80	0xbea9ebf8	-0.33187842
81	0xbecd95a6	-0.40153235
82	0x3f5e4b54	0.8683369
83	0xbec25e22	-0.37962443
84	0xbeb085b0	-0.34476995
85	0xbe9da0cf	-0.3078675
86	0x3f953364	1.1656308
87	0x3f6aa0e1	0.9165173
88	0xbe17b637	-0.14815603
89	0x3f847f99	1.035144
90	0xbec3e5a9	-0.38261154
91	0x3f9484c8	1.1603022
92	0x3f8b8cc1	1.090233
93	0xbe8730fb	-0.26404557
94	0xbf200e4b	-0.6252181
95	0xbe96b887	-0.29437658
96	0xbf0f4768	-0.5596833
97	0xbe4e98d8	-0.20175493
98	0x3f991760	1.1960258
99	0x3f600ca2	0.87519276
100	0xbeefd2b4	-0.4684044
101	0x3f972b79	1.1810142
102	0xbf022c47	-0.5084881
103	0xbedba895	-0.42902055
104	0x3f8dbefe	1.1073911
105	0x3f9cf6dc	1.2262836
106	0xbf203104	-0.6257479
107	0x3f95c8a8	1.170186
108	0xbe8564d7	-0.26053497
109	0xbea394f7	-0.3194959
110	0xbebcf481	-0.36905292
111	0xbea7f514	-0.32804167
112	0x3f989d05	1.1922919
113	0x3f917a0a	1.1365368
114	0xbedac952	-0.4273172
115	0xbf73ebf9	-0.9528194
116	0x3f86e91d	1.053989
117	0x3f9213fa	1.1412346
118	0xbfa66d97	-1.3002194
119	0x3f746a4b	0.9547469
120	0x3f4212cb	0.75809926
121	0x3ef695b3	0.48161086
122	0x3ef68604	0.4814912
123	0x3ed4d27a	0.4156683
124	0xbf95b848	-1.1696863
125	0x3e6a7b9b	0.22898714
126	0xbfada682	-1.3566439
127	0x3f28a04a	0.6586958
128	0x3eeb11c3	0.4591199
129	0x3e2af915	0.1669658
130	0x3d83192d	0.06401286
131	0x3f2a2eaf	0.66477484
132	0x3e9429de	0.28938192
133	0x3eff467b	0.4985846
134	0xbf8970c7	-1.0737542
135	0x3eb67b3d	0.35640898
136	0x3ee018b7	0.43768856
137	0xbf90ec4f	-1.1322116
138	0x3eea694d	0.45783463
139	0x3e81c722	0.2534724
140	0x3f17dd7a	0.5932232
141	0x3f0a664b	0.54062337
142	0xbf92f2fa	-1.14804
143	0xbf096814	-0.53674436
144	0x3ec54597	0.38529655
145	0x3f32056f	0.6953954
146	0xbfb08249	-1.378976
147	0xbf93834b	-1.1524442
148	0x3f22e130	0.6362486
149	0xbf870c1a	-1.0550568
150	0xbd528930	-0.051400363
151	0xbf9b073f	-1.2111586
152	0xbfa82a3c	-1.3137889
153	0x3f2b4c56	0.66913354
154	0x3f040f31	0.5158568
155	0x3f2fbd32	0.68648064
156	0xbd67361c	-0.056448087
157	0x3f035cd5	0.51313525
158	0xbf981aa8	-1.1883135
159	0xbf9057a5	-1.1276747
160	0x3fd61fa8	1.6728411
161	0xbf9938f2	-1.1970503
162	0xbdd65868	-0.10466081
163	0x3f1ea44c	0.6196945
164	0xbf9d5d91	-1.2294179
165	0xbf93f744	-1.1559834
166	0x3f1885b3	0.5957901
167	0xbf97974d	-1.1843048
168	0x3f516e32	0.8180877
169	0x3ef71177	0.48255512
170	0x3f3eb9ae	0.74502075
171	0x3f3f6358	0.7476096
172	0xbfb4cd50	-1.4125156
173	0xbf8ccf5d	-1.1000782
174	0x3f4579dd	0.77139074
175	0x40040dfe	2.063354
176	0xbf8035ac	-1.0016379
177	0xbf972684	-1.1808629
178	0x3f66aadf	0.9010448
179	0xbf90165f	-1.1256827
180	0xbf7011d9	-0.93777233
181	0x3ebeb419	0.3724678
182	0x3f2d7bb6	0.6776689
183	0x3f2481bc	0.6426046
184	0xbeb6be13	-0.3569189
185	0xbf27dd88	-0.65572405
186	0xbd9c4a52	-0.07631363
187	0x3ec81dc0	0.39085197
188	0x3f2e78f6	0.6815332
189	0xbd23de66	-0.040007018
190	0x3f6c9dca	0.92428267
191	0xbf760a8f	-0.9610986
192	0x3e850cd3	0.25986347
193	0xbf5b7dbb	-0.85738724
194	0x3e0520c4	0.1300078
195	0x3c479821	0.012182266
196	0xbf5725df	-0.8404216
197	0xbdf8dcc3	-0.12151482
198	0x3f3cc793	0.73742026
199	0x3f0f20be	0.55909336
200	0x3e100dd9	0.14067782
201	0xbddd8986	-0.10817246
202	0x3e4d47bc	0.20046896
203	0xbf3e9586	-0.74446905
204	0x3e9db6a2	0.308034
205	0x3dee4a6a	0.11635287
206	0xbe2cdb63	-0.16880564
207	0x3df0e965	0.117632665
208	0xbced2759	-0.028949426
209	0x3e998e57	0.2999141
210	0x3e76bffd	0.24096675
211	0x3bab1c0b	0.005221849
212	0xbcd0ac3d	-0.025472755
213	0x3daebd08	0.085321486
214	0x3f57ee26	0.8434776
215	0xba245823	-0.0006269237
216	0xbf51c852	-0.8194629
217	0xbe408d71	-0.18803956
218	0xbe5ad95b	-0.21371977
219	0x3e509285	0.20368393
220	0xbf4c0300	-0.7969208
221	0xbd946657	-0.07246082
222	0x3ec0238e	0.37527126
223	0xbf35cad9	-0.71012646
224	0xbe48fb63	-0.19627146
225	0xbd8a0dc6	-0.06740908
226	0x3f4f3112	0.8093425
227	0xbe3487c4	-0.17629915
228	0xbf660bbb	-0.8986165
229	0x3e2db70b	0.16964357
230	0xbf752c5c	-0.9577081
231	0xbf85cfbc	-1.045402
232	0xbe479152	-0.19489029
233	0xbddcc66a	-0.10780032
234	0xbf5a1a2f	-0.85196203
235	0xbf63af5e	-0.88939464
236	0x3e8c7bde	0.27438253
237	0xbd1bb6e8	-0.03801623
238	0x3ee32e89	0.4437144
239	0x3ea3f846	0.32025355
240	0xbf0b8e1b	-0.5451371
241	0xbe6633f8	-0.22480762
242	0xbefa4fed	-0.48889104
243	0xbe9cea64	-0.30647576
244	0x3fd07e1d	1.6288487
245	0xbbfeb731	-0.007773303
246	0x3fc06a46	1.5032432
247	0xbef0ae20	-0.47007847
248	0xbec305be	-0.38090318
249	0x3ee561f0	0.44801283
250	0x3d94d1ae	0.07266556
251	0xbf31afaf	-0.69408697
252	0xbe596c40	-0.212327
253	0xbf37cf30	-0.7180052
254	0x3fe1543a	1.7603829
255	0xbecb4a01	-0.39704898

fc2.bias f4 [30]
0	0xbe51838a	-0.20460334
1	0xbf237d63	-0.638632
2	0x3f07fe05	0.5312198
3	0x3e4e148e	0.20125028
4	0xbe5f559d	-0.21810003
5	0x3ea612ff	0.32436368
6	0xbd0aef1d	-0.033919442
7	0x3e87382c	0.26410043
8	0xbe87b494	-0.26504958
9	0x3e568972	0.20950869
10	0x3eb463b0	0.35232306
11	0x3ec4df7a	0.3845175
12	0xbe378b05	-0.17924125
13	0xbead174c	-0.33806837
14	0xbe62e0ce	-0.22156069
15	0xbe95c568	-0.29252172
16	0x3ef29bef	0.47384593
17	0xbe187a45	-0.14890392
18	0x3e85babf	0.26119038
19	0x3d7209be	0.059091322
20	0x3d629e7f	0.055326935
21	0x3d4aa43c	0.049473032
22	0xbe9966c4	-0.29961216
23	0xbe08f3aa	-0.133742
24	0xbd24241d	-0.040073503
25	0x3eaf2c9f	0.3421373
26	0xbd50cbaf	-0.050975498
27	0x3ee39789	0.4445155
28	0x3e6bf2bf	0.23041819
29	0xbf2da4ed	-0.6782978

fc3.weight f4 [20, 30]
0	0x3f0b5826	0.5443138
1	0x3fdf420f	1.7442034
2	0xbf31aa7e	-0.69400775
3	0xbf826006	-1.0185554
4	0xbff0122e	-1.8755548
5	0xbfc3503e	-1.5258863
6	0x3f02f83f	0.51160043
7	0x3f3e8eea	0.7443682
8	0xbfce5da9	-1.6122333
9	0x3f64126e	0.8909062
10	0xbfb937a2	-1.4470103
11	0xbf46d4e6	-0.7766861
12	0x3f16d040	0.58911514
13	0x3fab2222	1.3369792
14	0xbfe3d997	-1.7800778
15	0xbfe2962f	-1.7702082
16	0xbf54671d	-0.8296984
17	0x3f2d677a	0.6773602
18	0x3f562798	0.83654165
19	0x3f294899	0.661264
20	0x3f03201a	0.5122086
21	0x3f27edc6	0.6559719
22	0x3df5069c	0.11964151
23	0x3ee4fe99	0.44725493
24	0x3f141a42	0.57852566
25	0x3f2909c2	0.66030514
26	0x3efbb7c1	0.4916363
27	0x3f01c44b	0.50690144
28	0xbf9777d2	-1.1833441
29	0x3f851027	1.0395554
30	0xbf160060	-0.5859432
31	0xbf8a0136	-1.078162
32	0x3f80a95b	1.0051683
33	0x3ed8188a	0.42206222
34	0x3fad6932	1.3547728
35	0x3f863b7c	1.0486903
36	0xbeff3059	-0.49841574
37	0xbf19355e	-0.59847057
38	0x3fa248b5	1.2678438
39	0xbf1278ef	-0.5721578
40	0x3ec5bbd5	0.38619867
41	0x3f5af956	0.85536706
42	0xbf04e2ea	-0.51908743
43	0xbf88cf13	-1.0688194
44	0x3fca0a34	1.5784364
45	0x3fc8e1f7	1.5693959
46	0x3f8977eb	1.0739721
47	0xbed0d0ee	-0.407844
48	0xbf03a568	-0.51424265
49	0xbed301d2	-0.41212326
50	0xbe8cab31	-0.2747436
51	0xbec0905e	-0.37610143
52	0xbe684a78	-0.22684658
53	0xbeb1218d	-0.3459591
54	0xbea532dd	-0.32265368
55	0xbee09c44	-0.4386922
56	0xbe5def70	-0.2167337
57	0xbf65841b	-0.896547
58	0x3f214f73	0.63011855
59	0xbfab867e	-1.3400419
60	0x3ed9e58a	0.42557937
61	0x3f88862e	1.0665948
62	0xbf623f8a	-0.883782
63	0xbf392467	-0.7232117
64	0xbfcb0a38	-1.5862494
65	0xbfc1ccd2	-1.5140631
66	0x3ebb6cc6	0.36606425
67	0x3f40ba40	0.75284195
68	0xbfab34cc	-1.3375487
69	0x3ee267bf	0.44219777
70	0xbf32b098	-0.6980071
71	0xbf8b8c17	-1.0902127
72	0x3f1dfc4e	0.6171311
73	0x3f6fa775	0.93614894
74	0xbfd8b63f	-1.6930617
75	0xbfe864a5	-1.8155714
76	0xbf8ad5f2	-1.0846541
77	0x3ebc4e77	0.36778614
78	0x3f9af062	1.2104609
79	0x3f18ae30	0.5964079
80	0x3eede1d3	0.46461353
81	0x3f1597f7	0.58435005
82	0x3e40caa1	0.18827297
83	0x3eaa41c9	0.33253315
84	0x3ec1d881	0.37860492
85	0x3f3de88b	0.7418296
86	0x3ef2aa4f	0.4739556
87	0x3f8db442	1.1070635
88	0xbf5ed9c9	-0.87051064
89	0x3fe76510	1.8077717
90	0xbea23a8e	-0.316853
91	0xbf791d43	-0.97310275
92	0x3f7b0282	0.980507
93	0x3ed0fc09	0.40817288
94	0x3fd5d5a6	1.6705825
95	0x3fbc2bd7	1.4700879
96	0xbf0c16df	-0.547224
97	0xbf45ee9f	-0.7731723
98	0x3fc34b43	1.5257343
99	0xbf0a2b7f	-0.5397262
100	0x3f21322b	0.62967175
101	0x3f740650	0.9532213
102	0xbf15a115	-0.58448917
103	0xbf947c69	-1.1600467
104	0x3fc88417	1.5665311
105	0x3fcf50c7	1.6196526
106	0x3f8ac7bc	1.0842204
107	0xbf1693f3	-0.588195
108	0xbf5f64f0	-0.87263393
109	0xbf09278b	-0.5357596
110	0xbf013356	-0.5046896
111	0xbf057280	-0.5212784
112	0xbe96a067	-0.29419252
113	0xbee1bae7	-0.44087908
114	0xbe16fdf3	-0.14745311
115	0xbf3d24f7	-0.7388453
116	0xbed95ebd	-0.42455092
117	0xbf3891b7	-0.72097343
118	0x3f552637	0.83261436
119	0xbfba713c	-1.4565806
120	0x3ec6ab75	0.38802686
121	0x3f8adf59	1.084941
122	0xbf2f469e	-0.6846713
123	0xbebb079c	-0.36529243
124	0xbf92fc3b	-1.1483225
125	0xbf79b3ca	-0.9753996
126	0x3f04f42b	0.5193507
127	0x3f2e7511	0.6814738
128	0xbfa5f46a	-1.2965214
129	0x3ee2dfed	0.44311467
130	0xbee73abf	-0.45162007
131	0xbf823d15	-1.0174891
132	0x3e9dc101	0.30811313
133	0x3f6ed33a	0.93291056
134	0xbfb2c293	-1.3965629
135	0xbfb7f2e9	-1.4371005
136	0xbf60aca2	-0.87763417
137	0x3e1aba4d	0.1511013
138	0x3f14d6a9	0.58140045
139	0x3ec03c77	0.3754613
140	0x3f003950	0.5008745
141	0x3edb71e3	0.42860326
142	0x3e3658ff	0.17807387
143	0x3e22bdf5	0.15892775
144	0x3e8e34aa	0.27774554
145	0x3f096ed0	0.5368471
146	0x3e8b9211	0.27259877
147	0x3f267d33	0.6503479
148	0xbec75ac3	-0.38936433
149	0x3f957821	1.1677285
150	0x3eec994e	0.46210712
151	0x3f8769ba	1.057914
152	0xbf466136	-0.7749208
153	0xbedafb57	-0.42769882
154	0xbf9f07a3	-1.2424206
155	0xbf96ca3f	-1.1780471
156	0x3ea62668	0.32451177
157	0x3efcba8e	0.4936108
158	0xbfab9a66	-1.3406494
159	0x3ef48f39	0.4776552
160	0xbf09b993	-0.5379879
161	0xbf44a9d3	-0.7682163
162	0x3e79d2cb	0.24396817
163	0x3f633145	0.88747054
164	0xbfa9d757	-1.3268842
165	0xbfba9074	-1.4575334
166	0xbf60aeda	-0.877668
167	0x3ee15c0e	0.44015545
168	0x3f073b67	0.52825016
169	0x3f07f457	0.5310721
170	0x3effe61a	0.4998024
171	0x3e6e2787	0.23257266
172	0x3ea37195	0.31922594
173	0x3e6c12e2	0.23054078
174	0x3eb456d9	0.3522251
175	0x3f0e79e2	0.5565473
176	0x3eaae703	0.33379373
177	0x3f1f5af2	0.62248147
178	0xbf1b8329	-0.6074701
179	0x3fa0a37f	1.2549895
180	0x3f11d611	0.56967264
181	0x3f968c31	1.1761533
182	0xbf2f9202	-0.68582165
183	0xbe169076	-0.14703545
184	0xbfb1bfe7	-1.3886689
185	0xbf831487	-1.024064
186	0x3e804cc9	0.25058582
187	0x3ef7d450	0.4840417
188	0xbfa6c976	-1.3030231
189	0x3ee23984	0.44184506
190	0xbea87464	-0.329013
191	0xbf5de18d	-0.8667229
192	0x3ecc92e7	0.39955828
193	0x3f710c82	0.9415971
194	0xbfa4d184	-1.2876439
195	0xbfab6c0e	-1.3392351
196	0xbf469a31	-0.7757903
197	0x3e327155	0.17426045
198	0x3efc6423	0.49295148
199	0x3ef42f6e	0.47692436
200	0x3e91aca5	0.2845203
201	0x3ea0e604	0.31425488
202	0x3e242e70	0.1603334
203	0x3eceead8	0.40413547
204	0x3edd8d80	0.43272018
205	0x3ea18fa1	0.31554893
206	0x3edb33ee	0.42813057
207	0x3f148bc4	0.58025765
208	0xbf11bac6	-0.5692562
209	0x3f91466d	1.1349617
210	0x3e8d1695	0.2755629
211	0x3f73e1a5	0.9526618
212	0xbf701f5f	-0.9379787
213	0xbedaa8c6	-0.4270689
214	0xbfb9ecab	-1.452535
215	0xbf6b2717	-0.9185652
216	0x3edda62b	0.4329084
217	0x3f057f59	0.5214744
218	0xbf9f0a41	-1.2425004
219	0x3f1d7050	0.614995
220	0xbe929f2d	-0.28637066
221	0xbf602b5a	-0.8756615
222	0x3eba0fb8	0.36340117
223	0x3f6bc54c	0.92097926
224	0xbfb13f92	-1.3847525
225	0xbfa46c82	-1.2845614
226	0xbf50edf7	-0.81613106
227	0x3f0901a5	0.53518134
228	0x3f0bf4c4	0.5467036
229	0x3ef085f8	0.4697721
230	0x3e8a8c3b	0.27060112
231	0x3ef6edcf	0.4822831
232	0x3e3b827a	0.18311492
233	0x3e86a5dd	0.2629842
234	0x3ea6884c	0.3252586
235	0x3ef68eb7	0.48155758
236	0x3e646e3f	0.2230768
237	0x3f4d2c11	0.80145365
238	0xbef15aeb	-0.47139677
239	0x3f950426	1.1641891
240	0x3f092fcb	0.5358855
241	0x3f896c7f	1.0736235
242	0xbf5fbb34	-0.87395024
243	0xbf30fd5e	-0.6913661
244	0xbfc84398	-1.5645628
245	0xbfc7d66a	-1.5612309
246	0x3f20eb9d	0.6285952
247	0x3f2fa2f5	0.6860803
248	0xbfcb47f5	-1.5881335
249	0x3f17c080	0.59278107
250	0xbf45584a	-0.77087843
251	0xbf80ae13	-1.0053123
252	0x3f02b280	0.5105362
253	0x3f78671d	0.9703234
254	0xbfeb281a	-1.8371613
255	0xbfe2a47a	-1.7706444

fc3.bias f4 [20]
0	0xbf4e808c	-0.80664897
1	0x3d2ce618	0.042211622
2	0xbe585205	-0.21125038
3	0x3ea72d13	0.32651576
4	0x3c852639	0.016253578
5	0xbd32ce23	-0.04365362
6	0xbe3220b3	-0.17395286
7	0xbe552efb	-0.20818703
8	0xbec3fa26	-0.38276786
9	0xbd9c9f7f	-0.07647609
10	0xbdc9be31	-0.09850729
11	0x3d1e2c50	0.03861648
12	0xbe40c4fa	-0.1882514
13	0xbe6929be	-0.2276983
14	0xbef42a38	-0.4768846
15	0xbb9890bd	-0.004655926
16	0x3a08cb98	0.0005218326
17	0x3e4737f6	0.19454941
18	0xbd0171b4	-0.031602576
19	0x3e192306	0.14954767

fc4.weight f4 [1, 20]
0	0xbfa91c83	-1.3211826
1	0x3fd9e3d8	1.7022657
2	0xbf9555c2	-1.1666796
3	0x3fd1aab8	1.6380224
4	0xbf7ef12b	-0.99586743
5	0xbf72d18b	-0.9485099
6	0xbf8a524e	-1.0806367
7	0xbf8d1a95	-1.1023737
8	0xbf83c928	-1.0295763
9	0xbf8aea28	-1.0852709
10	0xbf7ac0a4	-0.97950196
11	0x3fb56628	1.4171801
12	0xbf7750fa	-0.96607935
13	0xbf96a1b5	-1.1768099
14	0xbf9f8039	-1.2461005
15	0x3fdc68df	1.7219504
16	0x3fde8046	1.7382896
17	0x3fc9684e	1.5734956
18	0xbf89785f	-1.0739859
19	0x3fd3350a	1.6500561
