python_scripts/Test_emil/indicatrizB.pth (torch, 3767 bytes, 5 tensors)

linear1.weight f4 [20, 9]
00000000: d9a1 a2bd 44a2 163b 2429 8b3e 09ef cd3c
00000010: f4bb d73c aa47 84bc 0d1d 373e 636e 4bbd
00000020: a3fd 05c0 d2cf 64be a768 9dbe 2e80 743c
00000030: 6986 75bd 07ed 7abd 0af8 33bc 541a cc3d
00000040: 9be5 023e cfd3 0a40 fd71 833e 0871 603e
00000050: 38a9 513e 204c 353e b48e a53e 6031 9b3e
00000060: a7dd 7f3e 8469 c43c 4645 673f 1cd8 ecbd
00000070: b6af 0d3e b6f2 7cbe df1a 9f3c 5489 523e
00000080: bb41 8dbe 15c4 d0bc b820 f33d 752c 70bf
00000090: f14f af3d 2aa1 883e 0bd3 22be eb1a 0a3d
000000a0: 0be0 adbd 2250 adbd c0d3 823e 5fec a53e
000000b0: 1248 e1bf f2b9 473e ccfb c03d bdb6 413e
000000c0: 5322 413e 04f5 253e 53b5 03bd 8a85 0e3e
000000d0: 7d1d 75bd 3e7c 1fbf ace8 b93d ca9d cebd
000000e0: 09db 6bbe 1087 533e fe86 823c 3a61 e7bd
000000f0: 72cd cbbd 5452 17bd fe2d 9d3f 0cfb 863e
00000100: f587 1f3e b8d8 ca3d 742b 6c3e 8ac8 0c3d
00000110: faf2 8c3e 48b1 023e eb25 663d e9fe 3ac0
00000120: f80d 30be e77a a43e dad3 fbbd abf9 36be
00000130: 6018 18be bdf1 093e 4c75 0f3d b77f 04be
00000140: 962a 47be 6c10 553e 2dbe 013d 8f24 b3be
00000150: 1ec1 923d 6cae 3d3e 79e0 24bd d2b2 193e
00000160: 5e92 113e c8c4 96bf 61fb c7bd 6827 b63d
00000170: d839 92bd 93f3 9fbe 6c0b 7ebe 84e2 3ebd
00000180: f100 91be c1a2 85be 9352 75be 22f7 313e
00000190: fc88 a03e c7c9 3dbe cd51 a1be 05b7 f7bd
000001a0: fc23 dabd d24b 2fbe 09ab 8c3e 9bec b2bb
000001b0: c5ba 12be cead 92be d075 e33d bdab 7abe
000001c0: d2bb 8b3d ba60 113e 2c0f 0bbd 6787 44bd
000001d0: 72bd 48bf 262a 15bb 9587 43bd 7d7f 9f3d
000001e0: 3abd ff3d dbce 043e 2fd6 b13d 1997 873e
000001f0: f194 fcbd c224 dabf 69dd 2a3e ed12 3e3e
00000200: d31f 1d3e d118 7e3e 793f 4fbe fae1 e8bd
00000210: 218e 703e 4bf5 83be 9956 d33e 2e9c 943e
00000220: 5a97 883d 6106 943e e890 e63d 0a2f 1dbe
00000230: 9098 873e ed31 873e 8564 483e 9710 503f
00000240: 2861 b13d a02c 963c f5c1 6b3e dd6e 2d3e
00000250: 3747 cabc 1776 3f3e f50d ef3d e4f9 873e
00000260: 0cdd 37c0 90fa 9f3e 529e 73be dfd5 473e
00000270: d9f0 25be febe 5e3e fcad 283d 8255 13be
00000280: a82a 27be e70f a0bf 996f 553e 5a54 503d
00000290: e9b0 a53e acbb 50bd 4b3d e8bd bb04 cbbc
000002a0: 0baf 67be 88b7 cdbc 235d a73e 6f7f 49be
000002b0: 0430 50be 8b2e 00bd 87f6 023e 91b0 243d
000002c0: 7623 d73b 2b0b 85be 5944 c5bd 57ed b3bf
-0.07941026 0.0022984901 0.27179825 0.025138395 0.02633474 -0.016147453 0.17882176 -0.04966582
-2.0936058 -0.22344902 -0.30743906 0.014923139 -0.059942637 -0.061261203 -0.01098443 0.09965959
0.127829 2.1691778 0.25672904 0.21918118 0.20474708 0.1770482 0.32335436 0.30311108
0.24986897 0.023976095 0.9034008 -0.11564657 0.1383656 -0.24701962 0.019421993 0.20560199
-0.2758921 -0.025484124 0.11871475 -0.93817836 0.085601695 0.26685458 -0.15900819 0.033717077
-0.084899984 -0.0846255 0.25552177 0.324069 -1.7600119 0.19504526 0.094230264 0.18917365
0.1886075 0.16206747 -0.032155346 0.13918129 -0.059842575 -0.62298954 0.09077582 -0.100886896
-0.23032774 0.20656991 0.01593351 -0.11297841 -0.09951295 -0.03694375 1.2279661 0.2636341
0.15579207 0.09904617 0.23063451 0.034370936 0.27529126 0.1276294 0.056188505 -2.9218085
-0.17192829 0.32125017 -0.12296267 -0.17868678 -0.14853048 0.13471122 0.035023972 -0.12939344
-0.19449839 0.20807046 0.031675506 -0.3498883 0.071657404 0.18523568 -0.040253136 0.15009621
0.14215991 -1.1778803 -0.097647436 0.08894235 -0.07139939 -0.3124052 -0.24809045 -0.04660274
-0.2832103 -0.26100734 -0.23957281 0.1737943 0.3135451 -0.18534003 -0.31507722 -0.12095455
-0.10651395 -0.17118767 0.2747424 -0.0054603345 -0.1432906 -0.28648227 0.11106455 -0.24479575
0.06822933 0.14197055 -0.033950016 -0.047980692 -0.7841407 -0.0022760718 -0.047736723 0.07787988
0.12487264 0.12969534 0.086834304 0.26482466 -0.12333096 -1.7042468 0.16686024 0.18561907
0.15344171 0.24814154 -0.20239057 -0.113712266 0.23491718 -0.2577308 0.41277006 0.29025406
0.06669493 0.28911117 0.112581074 -0.15349975 0.26483583 0.26405278 0.19569595 0.81275314
0.08661109 0.018331826 0.23023207 0.16936822 -0.024692161 0.18697391 0.11672584 0.2655784
-2.8728666 0.31245852 -0.23790863 0.19515179 -0.16205157 0.21752545 0.04118155 -0.14388087
-0.16324866 -1.2504853 0.20843352 0.050861694 0.32361534 -0.050960228 -0.11339816 -0.02478253
-0.22625367 -0.025111929 0.32688245 -0.19677518 -0.20330817 -0.031294387 0.12789355 0.04020745
0.0065655066 -0.25985083 -0.09632177 -1.4056805

linear1.bias f4 [20]
00000000: 7777 d03e 91be d4be 2161 bebe 4a4c 39bc
00000010: 489c 013d 3da5 b3be 2b19 813e 5396 ea3e
00000020: 3b0e 82be cda8 b03d 70cb dc3d fd4e 46be
00000030: d18f 743e 83fc 443d 3ddc 1b3e cfcf 603d
00000040: c38d 083f 6ec2 9cbd ae32 2fbe 01b0 ae3e
0.40716144 -0.4155164 -0.37183478 -0.011309693 0.031643182 -0.35087004 0.25214514 0.45817813
-0.25401482 0.08625946 0.1078099 -0.19366069 0.23882987 0.048092376 0.15220733 0.05488568
0.5334131 -0.07654272 -0.17109177 0.34118655

linear2.weight f4 [10, 20]
00000000: b6d8 35bf 401b 913f 4117 193f 6bf8 e5be
00000010: d66e 36bf afe5 95be c683 1c3f c2f5 7abf
00000020: 84c2 173e 8cb0 94be c2e7 84bc fe27 48bd
00000030: cd0c 84be 471d 09bf 3d4e 8a3e 9b4a c63e
00000040: baf4 8ebf 3630 cdbe 86cc e63d d4c3 bdbe
00000050: a626 a73e dad4 31bf 5747 80be f866 a73e
00000060: 9378 7d3e df49 2cbe 6116 b7be 8bb7 093f
00000070: ef34 173e 2c29 973e 0bd5 3cbe 3f14 48be
00000080: 2562 a33e 9445 cf3e ff77 8ebe 5967 40be
00000090: 0a5a 3a3f f12d cf3e 74b3 7bbd 44a3 d73e
000000a0: d4a9 84bf 17c8 ae3f 7d3a 4d3f ff43 b1be
000000b0: a5df 58bf 5981 a1bd 76c8 773f fa55 cabf
000000c0: 3458 603d 9caa eabe 5a44 83bd 4747 953d
000000d0: ac55 95be 4c33 5cbf eaf7 9f3e a6e2 313f
000000e0: 0346 ccbf fd99 edbe 45b7 9a3e 579d 54bf
000000f0: 2a4f 53bf 01db 2c3f ed6a e33e 97c8 d1be
00000100: 669c 19bf 27e2 43be 78a0 0c3f dbcc 72bf
00000110: 31cc a4bd e0e2 9abd 6d4a 5c3e f040 a03c
00000120: 31f7 9dbe 712a b8be e8fd 353d 8b95 1f3f
00000130: 1316 66bf 86a8 1abe 8cc5 983e b6ee bfbe
00000140: bb16 7c3e 9949 b8be 122e 243d 4bde bebd
00000150: f430 9f3e 7409 58bd c5b4 99be 7f66 263f
00000160: c23b 0ebe 0409 6b3e f972 15be 9f70 22be
00000170: d3a9 ecbb 79d0 673d 9c32 d7bd aea1 dfbb
00000180: 144b 273f 2dbd 7c3d 2e3b 07be dcb5 103e
00000190: a6e8 853f a2c1 9ebf 9660 2fbf d60f 093e
000001a0: 28b5 203f 210d 5f3e 56a4 22bf e96b b63f
000001b0: 5256 523d 58b8 c83e 2965 253e 4b09 5cbe
000001c0: 2e4d 803c 88a1 4a3f c9cd 74be 838b 0bbf
000001d0: 1233 b63f 9ae2 263f bb4a 9abe 9b3f fd3e
000001e0: 474f 69be 376f e13e b3b7 483d dcf1 a9be
000001f0: c354 b2be f88f 8ebe b4d8 883e 0dab f5be
00000200: 3760 c9bc 07d6 8ebe 5a70 af3d f881 e53d
00000210: f745 d4bd 9f31 debc 5c7d 4c3e c3a6 043c
00000220: 81a9 a2be 94f4 c3bd 6b6a 203e 4527 88bd
00000230: ce76 e63e 8ec0 46bf f2b3 dbbe c5b1 ce3d
00000240: f081 073f 2390 223e 5a7d e5be a254 723f
00000250: b2ca e03d 0ed5 903e 992c 4c3e 2eb1 c7bc
00000260: cd66 ab3e f588 183f 2ffc c5be 6161 dabe
00000270: 0da2 5a3f 14de 8d3e c076 54be edbf ef3e
00000280: ffae 353f 7983 45bf 5ea8 9dbe 670b 2d3e
00000290: 3b4e 013f 1855 983b 7f26 febe 0c70 893f
000002a0: 29ab abbd 47e5 bf3e 2f7b 283e a8ec 963b
000002b0: a0b7 e8bb a010 e83e ced6 95be 6e4e bebe
000002c0: 3e03 6f3f 072f fa3e 699e 193d 68a8 ba3e
000002d0: 1f77 6ebc 0510 5e3d b6b7 bc3b 1603 02bd
000002e0: b0a1 13be 69eb bbbd 7bcb 34be 6592 a9bd
000002f0: 61f8 9c3b 7ba3 023e eaf5 f03d 6974 f1bd
00000300: 8164 b2bd 4644 5fbe 6e06 c7bd 5a99 a0bc
00000310: f870 f2bd 069a 073e b75b 193e b6e2 373d
-0.710338 1.1336441 0.5980111 -0.4491609 -0.7126287 -0.29276797 0.6113857 -0.98031247
0.14820296 -0.29040945 -0.016223792 -0.048866265 -0.25791016 -0.535603 0.27012816 0.38728794
-1.1168435 -0.40075845 0.112694785 -0.37063468 0.32646674 -0.6946541 -0.25054428 0.32695746
0.24753027 -0.16825055 -0.3575926 0.5379569 0.14766286 0.295236 -0.18440644 -0.19538973
0.31910816 0.4048277 -0.27825925 -0.18789424 0.7279364 0.40464738 -0.061450437 0.4211675
-1.0364327 1.3654813 0.8016737 -0.3462219 -0.84716254 -0.07885999 0.96790254 -1.5807488
0.054771617 -0.4583329 -0.064095214 0.07288986 -0.29166925 -0.8601577 0.3124383 0.69486463
-1.5958866 -0.46406546 0.3021795 -0.8305258 -0.8254267 0.67521673 0.44417515 -0.4097335
-0.6000427 -0.19129239 0.54932356 -0.94843835 -0.08046759 -0.07562804 0.21512766 0.019562215
-0.30852655 -0.3596988 0.044431597 0.6233756 -0.8987743 -0.15103349 0.29838216 -0.3748681
0.24618046 -0.3599365 0.040083 -0.09319743 0.31092036 -0.05274339 -0.3002073 0.65000147
-0.13889983 0.22952658 -0.1459464 -0.15863274 -0.007222393 0.0565953 -0.105077 -0.0068246936
0.65348935 0.06170385 -0.13206169 0.14131874 1.0461624 -1.2402842 -0.68506753 0.13384947
0.6277642 0.21782352 -0.63532007 1.4251682 0.051351853 0.39203143 0.16151871 -0.2148792
0.015661802 0.7915273 -0.23906626 -0.54509753 1.4234335 0.65189517 -0.3013514 0.4946259
-0.22784148 0.44030163 0.049003314 -0.33192337 -0.34830293 -0.27844214 0.2672783 -0.47982064
-0.024582012 -0.27897665 0.08566351 0.1120643 -0.10364907 -0.02712327 0.19969696 0.0080964
-0.31769946 -0.09568134 0.15665595 -0.06648115 0.45012516 -0.77637565 -0.42910725 0.100925006
0.52932644 0.15875296 -0.44822198 0.9466039 0.10976161 0.28287548 0.19938888 -0.024376478
0.33476868 0.5958398 -0.38668963 -0.4265242 0.8540352 0.27708495 -0.20748425 0.46826115
0.7097015 -0.77153736 -0.30792516 0.16898881 0.50509995 0.004648816 -0.49638745 1.0737319
-0.083822556 0.37479612 0.16453241 0.0046058483 -0.007101968 0.45325184 -0.29265445 -0.37169212
0.9336432 0.48864004 0.037504587 0.3645661 -0.014554768 0.054214496 0.0057592047 -0.031741224
-0.14417148 -0.0917576 -0.17655747 -0.08279876 0.0047903513 0.12757675 0.117656544 -0.117897816
-0.08710576 -0.21803388 -0.09718023 -0.019604374 -0.11837953 0.13242349 0.14976393 0.044893943

linear2.bias f4 [10]
00000000: 4319 b63e 2e1b 95bd 4d4e de3e 468e 523e
00000010: 6511 483d 6d1e 02bf 6e69 043e a666 97be
00000020: 5565 07bf f7eb 0dbe
0.35566148 -0.07280575 0.43419114 0.20562086 0.048844714 -0.50827676 0.12930843 -0.29570502
-0.52888995 -0.13859545

linear3.weight f4 [1, 10]
00000000: f421 3440 6139 d1bf ca26 8a40 ae4e 1440
00000010: bed2 82bf b9ae 68c0 1ff5 6f3f 362b 10c0
00000020: 5d6b 18c0 9b7f 273e
2.8145723 -1.6345636 4.317235 2.3173022 -1.0220563 -3.6356642 0.937334 -2.2526374
-2.381553 0.16357271
