python_scripts/Test_emil/indicatrizC.pth (torch, 2231 bytes, 3 tensors)

fc1.weight f4 [15, 9]
000000 04 d9 81 c0 17 d9 81 c0 1d d9 81 c0 0e d9 81 c0
       -4.057741 -4.05775 -4.057753 -4.057746
000010 31 d9 81 c0 3a d9 81 c0 24 d9 81 c0 16 d9 81 c0
       -4.0577626 -4.057767 -4.0577564 -4.0577497
000020 aa ba c2 be 3d c0 78 c0 31 c0 78 c0 65 c0 78 c0
       -0.38033038 -3.8867333 -3.8867304 -3.8867428
000030 47 c0 78 c0 85 c0 78 c0 8e c0 78 c0 9d c0 78 c0
       -3.8867357 -3.8867505 -3.8867526 -3.8867562
000040 2b c0 78 c0 5d af 9c bf fa 61 87 3f 1f 62 87 3f
       -3.886729 -1.2241017 1.0576775 1.0576819
000050 61 62 87 3f 29 62 87 3f ac 62 87 3f eb 62 87 3f
       1.0576898 1.0576831 1.0576987 1.0577062
000060 a1 62 87 3f 1b 62 87 3f c9 9d 0b 41 20 9e 1e 40
       1.0576974 1.0576814 8.726022 2.4784012
000070 1d 9e 1e 40 1b 9e 1e 40 1a 9e 1e 40 26 9e 1e 40
       2.4784005 2.4784 2.4783998 2.4784026
000080 19 9e 1e 40 19 9e 1e 40 18 9e 1e 40 a0 f8 3b bf
       2.4783995 2.4783995 2.4783993 -0.73426247
000090 cb c3 82 40 bf c3 82 40 c2 c3 82 40 c9 c3 82 40
       4.0864005 4.086395 4.086396 4.0863996
0000a0 cb c3 82 40 c5 c3 82 40 c6 c3 82 40 c5 c3 82 40
       4.0864005 4.0863976 4.086398 4.0863976
0000b0 38 3f 31 3e 56 8e 0f 40 40 8e 0f 40 15 8e 0f 40
       0.17309272 2.2430625 2.2430573 2.243047
0000c0 35 8e 0f 40 e0 8d 0f 40 be 8d 0f 40 ea 8d 0f 40
       2.2430546 2.2430344 2.2430263 2.2430367
0000d0 42 8e 0f 40 09 c4 0f c0 10 15 92 3f 2b 15 92 3f
       2.2430577 -2.24634 1.1412678 1.141271
0000e0 6f 15 92 3f 3f 15 92 3f e4 15 92 3f 18 16 92 3f
       1.1412791 1.1412734 1.141293 1.1412992
0000f0 cf 15 92 3f 29 15 92 3f 76 60 1b 41 3d 13 ec bf
       1.1412905 1.1412708 9.71105 -1.8443371
000100 fc 12 ec bf cc 12 ec bf ff 12 ec bf 3b 12 ec bf
       -1.8443294 -1.8443236 -1.8443297 -1.8443063
000110 f9 11 ec bf 7d 12 ec bf 04 13 ec bf 06 57 43 bf
       -1.8442985 -1.8443142 -1.8443303 -0.7630466
000120 a0 c1 40 c0 98 c1 40 c0 9b c1 40 c0 9f c1 40 c0
       -3.011818 -3.011816 -3.0118167 -3.0118177
000130 99 c1 40 c0 97 c1 40 c0 9a c1 40 c0 9e c1 40 c0
       -3.0118163 -3.0118158 -3.0118165 -3.0118175
000140 b1 0c 19 be f4 d3 ca 3f ff d3 ca 3f fd d3 ca 3f
       -0.14946248 1.5845933 1.5845946 1.5845944
000150 f5 d3 ca 3f 2f d4 ca 3f 44 d4 ca 3f 1b d4 ca 3f
       1.5845934 1.5846003 1.5846028 1.584598
000160 f8 d3 ca 3f 10 21 4e 3f 9e d0 b0 bf a6 d0 b0 bf
       1.5845938 0.805192 -1.3813665 -1.3813674
000170 b9 d0 b0 bf a6 d0 b0 bf de d0 b0 bf f3 d0 b0 bf
       -1.3813697 -1.3813674 -1.3813741 -1.3813766
000180 c7 d0 b0 bf 9f d0 b0 bf 5f 58 b7 3f b6 94 16 c0
       -1.3813714 -1.3813666 1.4323844 -2.3528266
000190 b7 94 16 c0 b9 94 16 c0 b5 94 16 c0 c4 94 16 c0
       -2.3528268 -2.3528273 -2.3528264 -2.35283
0001a0 c0 94 16 c0 b5 94 16 c0 b0 94 16 c0 16 e1 ba bf
       -2.352829 -2.3528264 -2.3528252 -1.4599941
0001b0 73 fb 3e c0 72 fb 3e c0 6e fb 3e c0 72 fb 3e c0
       -2.9840972 -2.984097 -2.984096 -2.984097
0001c0 68 fb 3e c0 66 fb 3e c0 6b fb 3e c0 70 fb 3e c0
       -2.9840946 -2.9840941 -2.9840953 -2.9840965
0001d0 c9 75 1b be 26 69 9d c0 ff 68 9d c0 93 68 9d c0
       -0.1518165 -4.9190855 -4.919067 -4.9190154
0001e0 e7 68 9d c0 d5 67 9d c0 7b 67 9d c0 f1 67 9d c0
       -4.9190555 -4.918925 -4.918882 -4.918938
0001f0 08 69 9d c0 31 79 ee c0 e9 7d 8f c0 ea 7d 8f c0
       -4.919071 -7.452294 -4.48412 -4.4841204
000200 e6 7d 8f c0 e7 7d 8f c0 de 7d 8f c0 d7 7d 8f c0
       -4.4841185 -4.484119 -4.4841146 -4.4841113
000210 dd 7d 8f c0 e8 7d 8f c0 ec 85 97 3f
       -4.484114 -4.4841194 1.1837745

fc1.bias f4 [15]
000000 9d ea 48 41 74 19 34 41 ff 7d 22 c1 07 4c 60 c1
       12.557279 11.256214 -10.155761 -14.018561
000010 1b 02 59 c1 3e f6 65 c0 53 f3 43 40 d9 c1 34 3f
       -13.563014 -3.5931544 3.0617263 0.7060829
000020 5a 54 5a 41 df 0f 31 c1 46 fb 10 41 41 92 40 41
       13.645594 -11.066375 9.061346 12.0357065
000030 de 65 58 41 12 a1 15 41 50 44 30 41
       13.52487 9.351824 11.016678

fc2.weight f4 [1, 15]
000000 64 2d 22 41 2e 04 21 41 be 26 37 41 df 0f 3e c1
       10.136082 10.06352 11.446959 -11.878875
000010 d4 53 13 c1 3d 5f 1c 41 22 36 0a c1 8a a6 12 41
       -9.207966 9.773252 -8.638216 9.165659
000020 43 2f 2d c1 67 2b 22 41 9d b4 19 41 6c c7 20 c1
       -10.8240385 10.135596 9.606595 -10.048687
000030 f3 b7 31 c1 ea c7 10 41 23 db 39 c1
       -11.1074095 9.048807 -11.616
